epoch,epoch_training_loss,epoch_validation_loss,validation_accuracy,validation_f1,model-activation-optimizer-lr-wd
1,0.702,0.6953,0.49893902956570946,0.3329,"MLP20-LeakyReLU(negative_slope=0.01)
      (2): Dropout(p=0.0, inplace=False)
    )
    (1-19): 19 x Sequential(
      (0): Linear(in_features=3, out_features=3, bias=True)
      -Adagrad-0.01-0"
2,0.6948,0.6935,0.49893902956570946,0.3329,"MLP20-LeakyReLU(negative_slope=0.01)
      (2): Dropout(p=0.0, inplace=False)
    )
    (1-19): 19 x Sequential(
      (0): Linear(in_features=3, out_features=3, bias=True)
      -Adagrad-0.01-0"
3,0.6935,0.6929,0.49893902956570946,0.3329,"MLP20-LeakyReLU(negative_slope=0.01)
      (2): Dropout(p=0.0, inplace=False)
    )
    (1-19): 19 x Sequential(
      (0): Linear(in_features=3, out_features=3, bias=True)
      -Adagrad-0.01-0"
4,0.677,0.6528,0.5010609704342905,0.3338,"MLP20-LeakyReLU(negative_slope=0.01)
      (2): Dropout(p=0.0, inplace=False)
    )
    (1-19): 19 x Sequential(
      (0): Linear(in_features=3, out_features=3, bias=True)
      -Adagrad-0.01-0"
5,0.6339,0.626,0.6942990521997454,0.6789,"MLP20-LeakyReLU(negative_slope=0.01)
      (2): Dropout(p=0.0, inplace=False)
    )
    (1-19): 19 x Sequential(
      (0): Linear(in_features=3, out_features=3, bias=True)
      -Adagrad-0.01-0"
6,0.6161,0.6126,0.7143867590889801,0.7088,"MLP20-LeakyReLU(negative_slope=0.01)
      (2): Dropout(p=0.0, inplace=False)
    )
    (1-19): 19 x Sequential(
      (0): Linear(in_features=3, out_features=3, bias=True)
      -Adagrad-0.01-0"
7,0.6062,0.6044,0.7187721035507144,0.7157,"MLP20-LeakyReLU(negative_slope=0.01)
      (2): Dropout(p=0.0, inplace=False)
    )
    (1-19): 19 x Sequential(
      (0): Linear(in_features=3, out_features=3, bias=True)
      -Adagrad-0.01-0"
8,0.5993,0.5985,0.7197623426227189,0.7175,"MLP20-LeakyReLU(negative_slope=0.01)
      (2): Dropout(p=0.0, inplace=False)
    )
    (1-19): 19 x Sequential(
      (0): Linear(in_features=3, out_features=3, bias=True)
      -Adagrad-0.01-0"
9,0.5942,0.5934,0.7213184325930118,0.7195,"MLP20-LeakyReLU(negative_slope=0.01)
      (2): Dropout(p=0.0, inplace=False)
    )
    (1-19): 19 x Sequential(
      (0): Linear(in_features=3, out_features=3, bias=True)
      -Adagrad-0.01-0"
10,0.5895,0.5893,0.721742820766728,0.7201,"MLP20-LeakyReLU(negative_slope=0.01)
      (2): Dropout(p=0.0, inplace=False)
    )
    (1-19): 19 x Sequential(
      (0): Linear(in_features=3, out_features=3, bias=True)
      -Adagrad-0.01-0"
11,0.5859,0.5859,0.7221672089404442,0.7207,"MLP20-LeakyReLU(negative_slope=0.01)
      (2): Dropout(p=0.0, inplace=False)
    )
    (1-19): 19 x Sequential(
      (0): Linear(in_features=3, out_features=3, bias=True)
      -Adagrad-0.01-0"
12,0.5832,0.5827,0.7247135379827415,0.724,"MLP20-LeakyReLU(negative_slope=0.01)
      (2): Dropout(p=0.0, inplace=False)
    )
    (1-19): 19 x Sequential(
      (0): Linear(in_features=3, out_features=3, bias=True)
      -Adagrad-0.01-0"
13,0.5803,0.5801,0.7231574480124487,0.7221,"MLP20-LeakyReLU(negative_slope=0.01)
      (2): Dropout(p=0.0, inplace=False)
    )
    (1-19): 19 x Sequential(
      (0): Linear(in_features=3, out_features=3, bias=True)
      -Adagrad-0.01-0"
14,0.5774,0.5779,0.7240062243598812,0.723,"MLP20-LeakyReLU(negative_slope=0.01)
      (2): Dropout(p=0.0, inplace=False)
    )
    (1-19): 19 x Sequential(
      (0): Linear(in_features=3, out_features=3, bias=True)
      -Adagrad-0.01-0"
15,0.5751,0.5759,0.7245720752581695,0.7237,"MLP20-LeakyReLU(negative_slope=0.01)
      (2): Dropout(p=0.0, inplace=False)
    )
    (1-19): 19 x Sequential(
      (0): Linear(in_features=3, out_features=3, bias=True)
      -Adagrad-0.01-0"
16,0.5739,0.5749,0.7240062243598812,0.7226,"MLP20-LeakyReLU(negative_slope=0.01)
      (2): Dropout(p=0.0, inplace=False)
    )
    (1-19): 19 x Sequential(
      (0): Linear(in_features=3, out_features=3, bias=True)
      -Adagrad-0.01-0"
17,0.5713,0.5731,0.7248550007073136,0.7236,"MLP20-LeakyReLU(negative_slope=0.01)
      (2): Dropout(p=0.0, inplace=False)
    )
    (1-19): 19 x Sequential(
      (0): Linear(in_features=3, out_features=3, bias=True)
      -Adagrad-0.01-0"
18,0.5704,0.5708,0.7272598670250389,0.7266,"MLP20-LeakyReLU(negative_slope=0.01)
      (2): Dropout(p=0.0, inplace=False)
    )
    (1-19): 19 x Sequential(
      (0): Linear(in_features=3, out_features=3, bias=True)
      -Adagrad-0.01-0"
19,0.5686,0.5696,0.727401329749611,0.7266,"MLP20-LeakyReLU(negative_slope=0.01)
      (2): Dropout(p=0.0, inplace=False)
    )
    (1-19): 19 x Sequential(
      (0): Linear(in_features=3, out_features=3, bias=True)
      -Adagrad-0.01-0"
20,0.5675,0.5683,0.7271184043004668,0.7264,"MLP20-LeakyReLU(negative_slope=0.01)
      (2): Dropout(p=0.0, inplace=False)
    )
    (1-19): 19 x Sequential(
      (0): Linear(in_features=3, out_features=3, bias=True)
      -Adagrad-0.01-0"
21,0.5658,0.5679,0.7265525534021785,0.7254,"MLP20-LeakyReLU(negative_slope=0.01)
      (2): Dropout(p=0.0, inplace=False)
    )
    (1-19): 19 x Sequential(
      (0): Linear(in_features=3, out_features=3, bias=True)
      -Adagrad-0.01-0"
22,0.5656,0.566,0.7283915688216155,0.7278,"MLP20-LeakyReLU(negative_slope=0.01)
      (2): Dropout(p=0.0, inplace=False)
    )
    (1-19): 19 x Sequential(
      (0): Linear(in_features=3, out_features=3, bias=True)
      -Adagrad-0.01-0"
23,0.5648,0.5653,0.7290988824444758,0.7283,"MLP20-LeakyReLU(negative_slope=0.01)
      (2): Dropout(p=0.0, inplace=False)
    )
    (1-19): 19 x Sequential(
      (0): Linear(in_features=3, out_features=3, bias=True)
      -Adagrad-0.01-0"
24,0.5633,0.5647,0.7289574197199038,0.728,"MLP20-LeakyReLU(negative_slope=0.01)
      (2): Dropout(p=0.0, inplace=False)
    )
    (1-19): 19 x Sequential(
      (0): Linear(in_features=3, out_features=3, bias=True)
      -Adagrad-0.01-0"
25,0.5629,0.5634,0.7290988824444758,0.7284,"MLP20-LeakyReLU(negative_slope=0.01)
      (2): Dropout(p=0.0, inplace=False)
    )
    (1-19): 19 x Sequential(
      (0): Linear(in_features=3, out_features=3, bias=True)
      -Adagrad-0.01-0"
26,0.5617,0.5624,0.7285330315461875,0.728,"MLP20-LeakyReLU(negative_slope=0.01)
      (2): Dropout(p=0.0, inplace=False)
    )
    (1-19): 19 x Sequential(
      (0): Linear(in_features=3, out_features=3, bias=True)
      -Adagrad-0.01-0"
27,0.5605,0.5621,0.7296647333427642,0.7288,"MLP20-LeakyReLU(negative_slope=0.01)
      (2): Dropout(p=0.0, inplace=False)
    )
    (1-19): 19 x Sequential(
      (0): Linear(in_features=3, out_features=3, bias=True)
      -Adagrad-0.01-0"
28,0.5598,0.561,0.7290988824444758,0.7285,"MLP20-LeakyReLU(negative_slope=0.01)
      (2): Dropout(p=0.0, inplace=False)
    )
    (1-19): 19 x Sequential(
      (0): Linear(in_features=3, out_features=3, bias=True)
      -Adagrad-0.01-0"
29,0.559,0.5608,0.7303720469656245,0.7295,"MLP20-LeakyReLU(negative_slope=0.01)
      (2): Dropout(p=0.0, inplace=False)
    )
    (1-19): 19 x Sequential(
      (0): Linear(in_features=3, out_features=3, bias=True)
      -Adagrad-0.01-0"
30,0.5585,0.5601,0.7305135096901967,0.7297,"MLP20-LeakyReLU(negative_slope=0.01)
      (2): Dropout(p=0.0, inplace=False)
    )
    (1-19): 19 x Sequential(
      (0): Linear(in_features=3, out_features=3, bias=True)
      -Adagrad-0.01-0"
31,0.5582,0.5592,0.7307964351393408,0.7301,"MLP20-LeakyReLU(negative_slope=0.01)
      (2): Dropout(p=0.0, inplace=False)
    )
    (1-19): 19 x Sequential(
      (0): Linear(in_features=3, out_features=3, bias=True)
      -Adagrad-0.01-0"
32,0.5576,0.5583,0.7283915688216155,0.728,"MLP20-LeakyReLU(negative_slope=0.01)
      (2): Dropout(p=0.0, inplace=False)
    )
    (1-19): 19 x Sequential(
      (0): Linear(in_features=3, out_features=3, bias=True)
      -Adagrad-0.01-0"
33,0.5568,0.5581,0.7313622860376291,0.7307,"MLP20-LeakyReLU(negative_slope=0.01)
      (2): Dropout(p=0.0, inplace=False)
    )
    (1-19): 19 x Sequential(
      (0): Linear(in_features=3, out_features=3, bias=True)
      -Adagrad-0.01-0"
34,0.5561,0.5578,0.7307964351393408,0.7299,"MLP20-LeakyReLU(negative_slope=0.01)
      (2): Dropout(p=0.0, inplace=False)
    )
    (1-19): 19 x Sequential(
      (0): Linear(in_features=3, out_features=3, bias=True)
      -Adagrad-0.01-0"
35,0.5552,0.5569,0.731220823313057,0.7306,"MLP20-LeakyReLU(negative_slope=0.01)
      (2): Dropout(p=0.0, inplace=False)
    )
    (1-19): 19 x Sequential(
      (0): Linear(in_features=3, out_features=3, bias=True)
      -Adagrad-0.01-0"
36,0.5555,0.5562,0.7286744942707597,0.7281,"MLP20-LeakyReLU(negative_slope=0.01)
      (2): Dropout(p=0.0, inplace=False)
    )
    (1-19): 19 x Sequential(
      (0): Linear(in_features=3, out_features=3, bias=True)
      -Adagrad-0.01-0"
37,0.553,0.551,0.7300891215164804,0.7297,"MLP20-LeakyReLU(negative_slope=0.01)
      (2): Dropout(p=0.0, inplace=False)
    )
    (1-19): 19 x Sequential(
      (0): Linear(in_features=3, out_features=3, bias=True)
      -Adagrad-0.01-0"
38,0.5464,0.5455,0.7298061960673362,0.7289,"MLP20-LeakyReLU(negative_slope=0.01)
      (2): Dropout(p=0.0, inplace=False)
    )
    (1-19): 19 x Sequential(
      (0): Linear(in_features=3, out_features=3, bias=True)
      -Adagrad-0.01-0"
39,0.5435,0.5448,0.7296647333427642,0.7288,"MLP20-LeakyReLU(negative_slope=0.01)
      (2): Dropout(p=0.0, inplace=False)
    )
    (1-19): 19 x Sequential(
      (0): Linear(in_features=3, out_features=3, bias=True)
      -Adagrad-0.01-0"
40,0.5425,0.5446,0.7303720469656245,0.7296,"MLP20-LeakyReLU(negative_slope=0.01)
      (2): Dropout(p=0.0, inplace=False)
    )
    (1-19): 19 x Sequential(
      (0): Linear(in_features=3, out_features=3, bias=True)
      -Adagrad-0.01-0"
41,0.5434,0.5444,0.7317866742113454,0.7312,"MLP20-LeakyReLU(negative_slope=0.01)
      (2): Dropout(p=0.0, inplace=False)
    )
    (1-19): 19 x Sequential(
      (0): Linear(in_features=3, out_features=3, bias=True)
      -Adagrad-0.01-0"
42,0.5432,0.5448,0.7302305842410525,0.7294,"MLP20-LeakyReLU(negative_slope=0.01)
      (2): Dropout(p=0.0, inplace=False)
    )
    (1-19): 19 x Sequential(
      (0): Linear(in_features=3, out_features=3, bias=True)
      -Adagrad-0.01-0"
43,0.5427,0.5444,0.7315037487622011,0.7309,"MLP20-LeakyReLU(negative_slope=0.01)
      (2): Dropout(p=0.0, inplace=False)
    )
    (1-19): 19 x Sequential(
      (0): Linear(in_features=3, out_features=3, bias=True)
      -Adagrad-0.01-0"
44,0.5436,0.5445,0.7305135096901967,0.73,"MLP20-LeakyReLU(negative_slope=0.01)
      (2): Dropout(p=0.0, inplace=False)
    )
    (1-19): 19 x Sequential(
      (0): Linear(in_features=3, out_features=3, bias=True)
      -Adagrad-0.01-0"
45,0.5434,0.545,0.7306549724147687,0.7302,"MLP20-LeakyReLU(negative_slope=0.01)
      (2): Dropout(p=0.0, inplace=False)
    )
    (1-19): 19 x Sequential(
      (0): Linear(in_features=3, out_features=3, bias=True)
      -Adagrad-0.01-0"
46,0.5431,0.5447,0.7309378978639128,0.7302,"MLP20-LeakyReLU(negative_slope=0.01)
      (2): Dropout(p=0.0, inplace=False)
    )
    (1-19): 19 x Sequential(
      (0): Linear(in_features=3, out_features=3, bias=True)
      -Adagrad-0.01-0"
47,0.5428,0.5447,0.7306549724147687,0.7299,"MLP20-LeakyReLU(negative_slope=0.01)
      (2): Dropout(p=0.0, inplace=False)
    )
    (1-19): 19 x Sequential(
      (0): Linear(in_features=3, out_features=3, bias=True)
      -Adagrad-0.01-0"
48,0.5429,0.5444,0.7316452114867732,0.7312,"MLP20-LeakyReLU(negative_slope=0.01)
      (2): Dropout(p=0.0, inplace=False)
    )
    (1-19): 19 x Sequential(
      (0): Linear(in_features=3, out_features=3, bias=True)
      -Adagrad-0.01-0"
49,0.5431,0.5445,0.7310793605884849,0.7304,"MLP20-LeakyReLU(negative_slope=0.01)
      (2): Dropout(p=0.0, inplace=False)
    )
    (1-19): 19 x Sequential(
      (0): Linear(in_features=3, out_features=3, bias=True)
      -Adagrad-0.01-0"
50,0.5431,0.5451,0.7319281369359174,0.7313,"MLP20-LeakyReLU(negative_slope=0.01)
      (2): Dropout(p=0.0, inplace=False)
    )
    (1-19): 19 x Sequential(
      (0): Linear(in_features=3, out_features=3, bias=True)
      -Adagrad-0.01-0"
51,0.5421,0.5442,0.7303720469656245,0.7295,"MLP20-LeakyReLU(negative_slope=0.01)
      (2): Dropout(p=0.0, inplace=False)
    )
    (1-19): 19 x Sequential(
      (0): Linear(in_features=3, out_features=3, bias=True)
      -Adagrad-0.01-0"
52,0.5429,0.5437,0.7319281369359174,0.7313,"MLP20-LeakyReLU(negative_slope=0.01)
      (2): Dropout(p=0.0, inplace=False)
    )
    (1-19): 19 x Sequential(
      (0): Linear(in_features=3, out_features=3, bias=True)
      -Adagrad-0.01-0"
53,0.5432,0.5439,0.7323525251096336,0.7318,"MLP20-LeakyReLU(negative_slope=0.01)
      (2): Dropout(p=0.0, inplace=False)
    )
    (1-19): 19 x Sequential(
      (0): Linear(in_features=3, out_features=3, bias=True)
      -Adagrad-0.01-0"
54,0.5433,0.5439,0.7316452114867732,0.7312,"MLP20-LeakyReLU(negative_slope=0.01)
      (2): Dropout(p=0.0, inplace=False)
    )
    (1-19): 19 x Sequential(
      (0): Linear(in_features=3, out_features=3, bias=True)
      -Adagrad-0.01-0"
55,0.5423,0.544,0.7315037487622011,0.7308,"MLP20-LeakyReLU(negative_slope=0.01)
      (2): Dropout(p=0.0, inplace=False)
    )
    (1-19): 19 x Sequential(
      (0): Linear(in_features=3, out_features=3, bias=True)
      -Adagrad-0.01-0"
56,0.5428,0.5438,0.7320695996604895,0.7315,"MLP20-LeakyReLU(negative_slope=0.01)
      (2): Dropout(p=0.0, inplace=False)
    )
    (1-19): 19 x Sequential(
      (0): Linear(in_features=3, out_features=3, bias=True)
      -Adagrad-0.01-0"
57,0.5423,0.5437,0.7313622860376291,0.7307,"MLP20-LeakyReLU(negative_slope=0.01)
      (2): Dropout(p=0.0, inplace=False)
    )
    (1-19): 19 x Sequential(
      (0): Linear(in_features=3, out_features=3, bias=True)
      -Adagrad-0.01-0"
58,0.5423,0.5441,0.7320695996604895,0.7316,"MLP20-LeakyReLU(negative_slope=0.01)
      (2): Dropout(p=0.0, inplace=False)
    )
    (1-19): 19 x Sequential(
      (0): Linear(in_features=3, out_features=3, bias=True)
      -Adagrad-0.01-0"
59,0.5422,0.5445,0.7307964351393408,0.7301,"MLP20-LeakyReLU(negative_slope=0.01)
      (2): Dropout(p=0.0, inplace=False)
    )
    (1-19): 19 x Sequential(
      (0): Linear(in_features=3, out_features=3, bias=True)
      -Adagrad-0.01-0"
60,0.5429,0.5446,0.7316452114867732,0.731,"MLP20-LeakyReLU(negative_slope=0.01)
      (2): Dropout(p=0.0, inplace=False)
    )
    (1-19): 19 x Sequential(
      (0): Linear(in_features=3, out_features=3, bias=True)
      -Adagrad-0.01-0"
61,0.5431,0.5446,0.7319281369359174,0.7313,"MLP20-LeakyReLU(negative_slope=0.01)
      (2): Dropout(p=0.0, inplace=False)
    )
    (1-19): 19 x Sequential(
      (0): Linear(in_features=3, out_features=3, bias=True)
      -Adagrad-0.01-0"
62,0.5431,0.5451,0.7313622860376291,0.731,"MLP20-LeakyReLU(negative_slope=0.01)
      (2): Dropout(p=0.0, inplace=False)
    )
    (1-19): 19 x Sequential(
      (0): Linear(in_features=3, out_features=3, bias=True)
      -Adagrad-0.01-0"
63,0.543,0.5455,0.7315037487622011,0.7311,"MLP20-LeakyReLU(negative_slope=0.01)
      (2): Dropout(p=0.0, inplace=False)
    )
    (1-19): 19 x Sequential(
      (0): Linear(in_features=3, out_features=3, bias=True)
      -Adagrad-0.01-0"
64,0.5433,0.5455,0.7306549724147687,0.7303,"MLP20-LeakyReLU(negative_slope=0.01)
      (2): Dropout(p=0.0, inplace=False)
    )
    (1-19): 19 x Sequential(
      (0): Linear(in_features=3, out_features=3, bias=True)
      -Adagrad-0.01-0"
65,0.5427,0.5456,0.7313622860376291,0.731,"MLP20-LeakyReLU(negative_slope=0.01)
      (2): Dropout(p=0.0, inplace=False)
    )
    (1-19): 19 x Sequential(
      (0): Linear(in_features=3, out_features=3, bias=True)
      -Adagrad-0.01-0"
66,0.5429,0.5454,0.7306549724147687,0.7303,"MLP20-LeakyReLU(negative_slope=0.01)
      (2): Dropout(p=0.0, inplace=False)
    )
    (1-19): 19 x Sequential(
      (0): Linear(in_features=3, out_features=3, bias=True)
      -Adagrad-0.01-0"
67,0.5426,0.546,0.7320695996604895,0.7315,"MLP20-LeakyReLU(negative_slope=0.01)
      (2): Dropout(p=0.0, inplace=False)
    )
    (1-19): 19 x Sequential(
      (0): Linear(in_features=3, out_features=3, bias=True)
      -Adagrad-0.01-0"
68,0.5424,0.5455,0.7316452114867732,0.7311,"MLP20-LeakyReLU(negative_slope=0.01)
      (2): Dropout(p=0.0, inplace=False)
    )
    (1-19): 19 x Sequential(
      (0): Linear(in_features=3, out_features=3, bias=True)
      -Adagrad-0.01-0"
69,0.5428,0.5454,0.7315037487622011,0.7311,"MLP20-LeakyReLU(negative_slope=0.01)
      (2): Dropout(p=0.0, inplace=False)
    )
    (1-19): 19 x Sequential(
      (0): Linear(in_features=3, out_features=3, bias=True)
      -Adagrad-0.01-0"
70,0.5426,0.5452,0.7309378978639128,0.7305,"MLP20-LeakyReLU(negative_slope=0.01)
      (2): Dropout(p=0.0, inplace=False)
    )
    (1-19): 19 x Sequential(
      (0): Linear(in_features=3, out_features=3, bias=True)
      -Adagrad-0.01-0"
71,0.543,0.5453,0.731220823313057,0.7307,"MLP20-LeakyReLU(negative_slope=0.01)
      (2): Dropout(p=0.0, inplace=False)
    )
    (1-19): 19 x Sequential(
      (0): Linear(in_features=3, out_features=3, bias=True)
      -Adagrad-0.01-0"
72,0.5426,0.5446,0.7320695996604895,0.7313,"MLP20-LeakyReLU(negative_slope=0.01)
      (2): Dropout(p=0.0, inplace=False)
    )
    (1-19): 19 x Sequential(
      (0): Linear(in_features=3, out_features=3, bias=True)
      -Adagrad-0.01-0"
73,0.5429,0.5446,0.7306549724147687,0.73,"MLP20-LeakyReLU(negative_slope=0.01)
      (2): Dropout(p=0.0, inplace=False)
    )
    (1-19): 19 x Sequential(
      (0): Linear(in_features=3, out_features=3, bias=True)
      -Adagrad-0.01-0"
74,0.5431,0.544,0.731220823313057,0.7307,"MLP20-LeakyReLU(negative_slope=0.01)
      (2): Dropout(p=0.0, inplace=False)
    )
    (1-19): 19 x Sequential(
      (0): Linear(in_features=3, out_features=3, bias=True)
      -Adagrad-0.01-0"
75,0.5419,0.5442,0.7306549724147687,0.73,"MLP20-LeakyReLU(negative_slope=0.01)
      (2): Dropout(p=0.0, inplace=False)
    )
    (1-19): 19 x Sequential(
      (0): Linear(in_features=3, out_features=3, bias=True)
      -Adagrad-0.01-0"
76,0.5426,0.5439,0.7300891215164804,0.7294,"MLP20-LeakyReLU(negative_slope=0.01)
      (2): Dropout(p=0.0, inplace=False)
    )
    (1-19): 19 x Sequential(
      (0): Linear(in_features=3, out_features=3, bias=True)
      -Adagrad-0.01-0"
77,0.5414,0.544,0.7316452114867732,0.7309,"MLP20-LeakyReLU(negative_slope=0.01)
      (2): Dropout(p=0.0, inplace=False)
    )
    (1-19): 19 x Sequential(
      (0): Linear(in_features=3, out_features=3, bias=True)
      -Adagrad-0.01-0"
78,0.5417,0.5441,0.7319281369359174,0.7311,"MLP20-LeakyReLU(negative_slope=0.01)
      (2): Dropout(p=0.0, inplace=False)
    )
    (1-19): 19 x Sequential(
      (0): Linear(in_features=3, out_features=3, bias=True)
      -Adagrad-0.01-0"
79,0.5429,0.5438,0.7303720469656245,0.7297,"MLP20-LeakyReLU(negative_slope=0.01)
      (2): Dropout(p=0.0, inplace=False)
    )
    (1-19): 19 x Sequential(
      (0): Linear(in_features=3, out_features=3, bias=True)
      -Adagrad-0.01-0"
80,0.542,0.544,0.7310793605884849,0.7304,"MLP20-LeakyReLU(negative_slope=0.01)
      (2): Dropout(p=0.0, inplace=False)
    )
    (1-19): 19 x Sequential(
      (0): Linear(in_features=3, out_features=3, bias=True)
      -Adagrad-0.01-0"
81,0.5427,0.5437,0.7300891215164804,0.7294,"MLP20-LeakyReLU(negative_slope=0.01)
      (2): Dropout(p=0.0, inplace=False)
    )
    (1-19): 19 x Sequential(
      (0): Linear(in_features=3, out_features=3, bias=True)
      -Adagrad-0.01-0"
82,0.5414,0.5441,0.7315037487622011,0.7308,"MLP20-LeakyReLU(negative_slope=0.01)
      (2): Dropout(p=0.0, inplace=False)
    )
    (1-19): 19 x Sequential(
      (0): Linear(in_features=3, out_features=3, bias=True)
      -Adagrad-0.01-0"
83,0.542,0.5439,0.7307964351393408,0.7301,"MLP20-LeakyReLU(negative_slope=0.01)
      (2): Dropout(p=0.0, inplace=False)
    )
    (1-19): 19 x Sequential(
      (0): Linear(in_features=3, out_features=3, bias=True)
      -Adagrad-0.01-0"
84,0.5411,0.5438,0.7310793605884849,0.7303,"MLP20-LeakyReLU(negative_slope=0.01)
      (2): Dropout(p=0.0, inplace=False)
    )
    (1-19): 19 x Sequential(
      (0): Linear(in_features=3, out_features=3, bias=True)
      -Adagrad-0.01-0"
85,0.5418,0.5439,0.7313622860376291,0.7306,"MLP20-LeakyReLU(negative_slope=0.01)
      (2): Dropout(p=0.0, inplace=False)
    )
    (1-19): 19 x Sequential(
      (0): Linear(in_features=3, out_features=3, bias=True)
      -Adagrad-0.01-0"
86,0.5417,0.5437,0.731220823313057,0.7304,"MLP20-LeakyReLU(negative_slope=0.01)
      (2): Dropout(p=0.0, inplace=False)
    )
    (1-19): 19 x Sequential(
      (0): Linear(in_features=3, out_features=3, bias=True)
      -Adagrad-0.01-0"
87,0.5421,0.5437,0.7307964351393408,0.73,"MLP20-LeakyReLU(negative_slope=0.01)
      (2): Dropout(p=0.0, inplace=False)
    )
    (1-19): 19 x Sequential(
      (0): Linear(in_features=3, out_features=3, bias=True)
      -Adagrad-0.01-0"
88,0.5418,0.5436,0.7309378978639128,0.7303,"MLP20-LeakyReLU(negative_slope=0.01)
      (2): Dropout(p=0.0, inplace=False)
    )
    (1-19): 19 x Sequential(
      (0): Linear(in_features=3, out_features=3, bias=True)
      -Adagrad-0.01-0"
89,0.5413,0.5437,0.7307964351393408,0.73,"MLP20-LeakyReLU(negative_slope=0.01)
      (2): Dropout(p=0.0, inplace=False)
    )
    (1-19): 19 x Sequential(
      (0): Linear(in_features=3, out_features=3, bias=True)
      -Adagrad-0.01-0"
90,0.5421,0.5436,0.7309378978639128,0.7302,"MLP20-LeakyReLU(negative_slope=0.01)
      (2): Dropout(p=0.0, inplace=False)
    )
    (1-19): 19 x Sequential(
      (0): Linear(in_features=3, out_features=3, bias=True)
      -Adagrad-0.01-0"
91,0.5417,0.5435,0.7307964351393408,0.7301,"MLP20-LeakyReLU(negative_slope=0.01)
      (2): Dropout(p=0.0, inplace=False)
    )
    (1-19): 19 x Sequential(
      (0): Linear(in_features=3, out_features=3, bias=True)
      -Adagrad-0.01-0"
92,0.5414,0.5436,0.7309378978639128,0.7302,"MLP20-LeakyReLU(negative_slope=0.01)
      (2): Dropout(p=0.0, inplace=False)
    )
    (1-19): 19 x Sequential(
      (0): Linear(in_features=3, out_features=3, bias=True)
      -Adagrad-0.01-0"
93,0.5418,0.5435,0.7309378978639128,0.7302,"MLP20-LeakyReLU(negative_slope=0.01)
      (2): Dropout(p=0.0, inplace=False)
    )
    (1-19): 19 x Sequential(
      (0): Linear(in_features=3, out_features=3, bias=True)
      -Adagrad-0.01-0"
94,0.5422,0.5435,0.7310793605884849,0.7304,"MLP20-LeakyReLU(negative_slope=0.01)
      (2): Dropout(p=0.0, inplace=False)
    )
    (1-19): 19 x Sequential(
      (0): Linear(in_features=3, out_features=3, bias=True)
      -Adagrad-0.01-0"
95,0.5418,0.5433,0.7310793605884849,0.7303,"MLP20-LeakyReLU(negative_slope=0.01)
      (2): Dropout(p=0.0, inplace=False)
    )
    (1-19): 19 x Sequential(
      (0): Linear(in_features=3, out_features=3, bias=True)
      -Adagrad-0.01-0"
96,0.5413,0.5432,0.7307964351393408,0.73,"MLP20-LeakyReLU(negative_slope=0.01)
      (2): Dropout(p=0.0, inplace=False)
    )
    (1-19): 19 x Sequential(
      (0): Linear(in_features=3, out_features=3, bias=True)
      -Adagrad-0.01-0"
97,0.5419,0.543,0.7306549724147687,0.7299,"MLP20-LeakyReLU(negative_slope=0.01)
      (2): Dropout(p=0.0, inplace=False)
    )
    (1-19): 19 x Sequential(
      (0): Linear(in_features=3, out_features=3, bias=True)
      -Adagrad-0.01-0"
98,0.5417,0.5429,0.7307964351393408,0.7301,"MLP20-LeakyReLU(negative_slope=0.01)
      (2): Dropout(p=0.0, inplace=False)
    )
    (1-19): 19 x Sequential(
      (0): Linear(in_features=3, out_features=3, bias=True)
      -Adagrad-0.01-0"
99,0.5411,0.5433,0.7305135096901967,0.7297,"MLP20-LeakyReLU(negative_slope=0.01)
      (2): Dropout(p=0.0, inplace=False)
    )
    (1-19): 19 x Sequential(
      (0): Linear(in_features=3, out_features=3, bias=True)
      -Adagrad-0.01-0"
100,0.5404,0.5431,0.7307964351393408,0.73,"MLP20-LeakyReLU(negative_slope=0.01)
      (2): Dropout(p=0.0, inplace=False)
    )
    (1-19): 19 x Sequential(
      (0): Linear(in_features=3, out_features=3, bias=True)
      -Adagrad-0.01-0"
1,0.6936,0.6934,0.5010609704342905,0.3338,"MLP20-LeakyReLU(negative_slope=0.01)
      (2): Dropout(p=0.05, inplace=False)
    )
    (1-19): 19 x Sequential(
      (0): Linear(in_features=3, out_features=3, bias=True)
      -Adagrad-0.01-0"
2,0.6932,0.6933,0.5010609704342905,0.3338,"MLP20-LeakyReLU(negative_slope=0.01)
      (2): Dropout(p=0.05, inplace=False)
    )
    (1-19): 19 x Sequential(
      (0): Linear(in_features=3, out_features=3, bias=True)
      -Adagrad-0.01-0"
3,0.6931,0.6933,0.5010609704342905,0.3338,"MLP20-LeakyReLU(negative_slope=0.01)
      (2): Dropout(p=0.05, inplace=False)
    )
    (1-19): 19 x Sequential(
      (0): Linear(in_features=3, out_features=3, bias=True)
      -Adagrad-0.01-0"
4,0.6931,0.6933,0.5010609704342905,0.3338,"MLP20-LeakyReLU(negative_slope=0.01)
      (2): Dropout(p=0.05, inplace=False)
    )
    (1-19): 19 x Sequential(
      (0): Linear(in_features=3, out_features=3, bias=True)
      -Adagrad-0.01-0"
5,0.693,0.6933,0.5010609704342905,0.3338,"MLP20-LeakyReLU(negative_slope=0.01)
      (2): Dropout(p=0.05, inplace=False)
    )
    (1-19): 19 x Sequential(
      (0): Linear(in_features=3, out_features=3, bias=True)
      -Adagrad-0.01-0"
6,0.693,0.6933,0.5010609704342905,0.3338,"MLP20-LeakyReLU(negative_slope=0.01)
      (2): Dropout(p=0.05, inplace=False)
    )
    (1-19): 19 x Sequential(
      (0): Linear(in_features=3, out_features=3, bias=True)
      -Adagrad-0.01-0"
7,0.6931,0.6933,0.5010609704342905,0.3338,"MLP20-LeakyReLU(negative_slope=0.01)
      (2): Dropout(p=0.05, inplace=False)
    )
    (1-19): 19 x Sequential(
      (0): Linear(in_features=3, out_features=3, bias=True)
      -Adagrad-0.01-0"
8,0.6931,0.6933,0.5010609704342905,0.3338,"MLP20-LeakyReLU(negative_slope=0.01)
      (2): Dropout(p=0.05, inplace=False)
    )
    (1-19): 19 x Sequential(
      (0): Linear(in_features=3, out_features=3, bias=True)
      -Adagrad-0.01-0"
9,0.6931,0.6933,0.5010609704342905,0.3338,"MLP20-LeakyReLU(negative_slope=0.01)
      (2): Dropout(p=0.05, inplace=False)
    )
    (1-19): 19 x Sequential(
      (0): Linear(in_features=3, out_features=3, bias=True)
      -Adagrad-0.01-0"
10,0.6931,0.6933,0.5010609704342905,0.3338,"MLP20-LeakyReLU(negative_slope=0.01)
      (2): Dropout(p=0.05, inplace=False)
    )
    (1-19): 19 x Sequential(
      (0): Linear(in_features=3, out_features=3, bias=True)
      -Adagrad-0.01-0"
11,0.693,0.6933,0.5010609704342905,0.3338,"MLP20-LeakyReLU(negative_slope=0.01)
      (2): Dropout(p=0.05, inplace=False)
    )
    (1-19): 19 x Sequential(
      (0): Linear(in_features=3, out_features=3, bias=True)
      -Adagrad-0.01-0"
12,0.6931,0.6933,0.5010609704342905,0.3338,"MLP20-LeakyReLU(negative_slope=0.01)
      (2): Dropout(p=0.05, inplace=False)
    )
    (1-19): 19 x Sequential(
      (0): Linear(in_features=3, out_features=3, bias=True)
      -Adagrad-0.01-0"
13,0.693,0.6933,0.5010609704342905,0.3338,"MLP20-LeakyReLU(negative_slope=0.01)
      (2): Dropout(p=0.05, inplace=False)
    )
    (1-19): 19 x Sequential(
      (0): Linear(in_features=3, out_features=3, bias=True)
      -Adagrad-0.01-0"
14,0.6931,0.6933,0.5010609704342905,0.3338,"MLP20-LeakyReLU(negative_slope=0.01)
      (2): Dropout(p=0.05, inplace=False)
    )
    (1-19): 19 x Sequential(
      (0): Linear(in_features=3, out_features=3, bias=True)
      -Adagrad-0.01-0"
15,0.693,0.6933,0.5010609704342905,0.3338,"MLP20-LeakyReLU(negative_slope=0.01)
      (2): Dropout(p=0.05, inplace=False)
    )
    (1-19): 19 x Sequential(
      (0): Linear(in_features=3, out_features=3, bias=True)
      -Adagrad-0.01-0"
16,0.6931,0.6933,0.5010609704342905,0.3338,"MLP20-LeakyReLU(negative_slope=0.01)
      (2): Dropout(p=0.05, inplace=False)
    )
    (1-19): 19 x Sequential(
      (0): Linear(in_features=3, out_features=3, bias=True)
      -Adagrad-0.01-0"
17,0.693,0.6933,0.5010609704342905,0.3338,"MLP20-LeakyReLU(negative_slope=0.01)
      (2): Dropout(p=0.05, inplace=False)
    )
    (1-19): 19 x Sequential(
      (0): Linear(in_features=3, out_features=3, bias=True)
      -Adagrad-0.01-0"
18,0.6931,0.6933,0.5010609704342905,0.3338,"MLP20-LeakyReLU(negative_slope=0.01)
      (2): Dropout(p=0.05, inplace=False)
    )
    (1-19): 19 x Sequential(
      (0): Linear(in_features=3, out_features=3, bias=True)
      -Adagrad-0.01-0"
19,0.693,0.6932,0.5010609704342905,0.3338,"MLP20-LeakyReLU(negative_slope=0.01)
      (2): Dropout(p=0.05, inplace=False)
    )
    (1-19): 19 x Sequential(
      (0): Linear(in_features=3, out_features=3, bias=True)
      -Adagrad-0.01-0"
20,0.693,0.6932,0.5010609704342905,0.3338,"MLP20-LeakyReLU(negative_slope=0.01)
      (2): Dropout(p=0.05, inplace=False)
    )
    (1-19): 19 x Sequential(
      (0): Linear(in_features=3, out_features=3, bias=True)
      -Adagrad-0.01-0"
21,0.6931,0.6932,0.5010609704342905,0.3338,"MLP20-LeakyReLU(negative_slope=0.01)
      (2): Dropout(p=0.05, inplace=False)
    )
    (1-19): 19 x Sequential(
      (0): Linear(in_features=3, out_features=3, bias=True)
      -Adagrad-0.01-0"
22,0.693,0.6933,0.5010609704342905,0.3338,"MLP20-LeakyReLU(negative_slope=0.01)
      (2): Dropout(p=0.05, inplace=False)
    )
    (1-19): 19 x Sequential(
      (0): Linear(in_features=3, out_features=3, bias=True)
      -Adagrad-0.01-0"
23,0.693,0.6933,0.5010609704342905,0.3338,"MLP20-LeakyReLU(negative_slope=0.01)
      (2): Dropout(p=0.05, inplace=False)
    )
    (1-19): 19 x Sequential(
      (0): Linear(in_features=3, out_features=3, bias=True)
      -Adagrad-0.01-0"
24,0.6929,0.6933,0.5010609704342905,0.3338,"MLP20-LeakyReLU(negative_slope=0.01)
      (2): Dropout(p=0.05, inplace=False)
    )
    (1-19): 19 x Sequential(
      (0): Linear(in_features=3, out_features=3, bias=True)
      -Adagrad-0.01-0"
25,0.693,0.6933,0.5010609704342905,0.3338,"MLP20-LeakyReLU(negative_slope=0.01)
      (2): Dropout(p=0.05, inplace=False)
    )
    (1-19): 19 x Sequential(
      (0): Linear(in_features=3, out_features=3, bias=True)
      -Adagrad-0.01-0"
26,0.693,0.6933,0.5010609704342905,0.3338,"MLP20-LeakyReLU(negative_slope=0.01)
      (2): Dropout(p=0.05, inplace=False)
    )
    (1-19): 19 x Sequential(
      (0): Linear(in_features=3, out_features=3, bias=True)
      -Adagrad-0.01-0"
27,0.693,0.6933,0.5010609704342905,0.3338,"MLP20-LeakyReLU(negative_slope=0.01)
      (2): Dropout(p=0.05, inplace=False)
    )
    (1-19): 19 x Sequential(
      (0): Linear(in_features=3, out_features=3, bias=True)
      -Adagrad-0.01-0"
28,0.693,0.6933,0.5010609704342905,0.3338,"MLP20-LeakyReLU(negative_slope=0.01)
      (2): Dropout(p=0.05, inplace=False)
    )
    (1-19): 19 x Sequential(
      (0): Linear(in_features=3, out_features=3, bias=True)
      -Adagrad-0.01-0"
29,0.693,0.6933,0.5010609704342905,0.3338,"MLP20-LeakyReLU(negative_slope=0.01)
      (2): Dropout(p=0.05, inplace=False)
    )
    (1-19): 19 x Sequential(
      (0): Linear(in_features=3, out_features=3, bias=True)
      -Adagrad-0.01-0"
30,0.6931,0.6933,0.5010609704342905,0.3338,"MLP20-LeakyReLU(negative_slope=0.01)
      (2): Dropout(p=0.05, inplace=False)
    )
    (1-19): 19 x Sequential(
      (0): Linear(in_features=3, out_features=3, bias=True)
      -Adagrad-0.01-0"
31,0.693,0.6933,0.5010609704342905,0.3338,"MLP20-LeakyReLU(negative_slope=0.01)
      (2): Dropout(p=0.05, inplace=False)
    )
    (1-19): 19 x Sequential(
      (0): Linear(in_features=3, out_features=3, bias=True)
      -Adagrad-0.01-0"
32,0.693,0.6933,0.5010609704342905,0.3338,"MLP20-LeakyReLU(negative_slope=0.01)
      (2): Dropout(p=0.05, inplace=False)
    )
    (1-19): 19 x Sequential(
      (0): Linear(in_features=3, out_features=3, bias=True)
      -Adagrad-0.01-0"
33,0.6931,0.6933,0.5010609704342905,0.3338,"MLP20-LeakyReLU(negative_slope=0.01)
      (2): Dropout(p=0.05, inplace=False)
    )
    (1-19): 19 x Sequential(
      (0): Linear(in_features=3, out_features=3, bias=True)
      -Adagrad-0.01-0"
34,0.693,0.6933,0.5010609704342905,0.3338,"MLP20-LeakyReLU(negative_slope=0.01)
      (2): Dropout(p=0.05, inplace=False)
    )
    (1-19): 19 x Sequential(
      (0): Linear(in_features=3, out_features=3, bias=True)
      -Adagrad-0.01-0"
35,0.693,0.6933,0.5010609704342905,0.3338,"MLP20-LeakyReLU(negative_slope=0.01)
      (2): Dropout(p=0.05, inplace=False)
    )
    (1-19): 19 x Sequential(
      (0): Linear(in_features=3, out_features=3, bias=True)
      -Adagrad-0.01-0"
36,0.693,0.6933,0.5010609704342905,0.3338,"MLP20-LeakyReLU(negative_slope=0.01)
      (2): Dropout(p=0.05, inplace=False)
    )
    (1-19): 19 x Sequential(
      (0): Linear(in_features=3, out_features=3, bias=True)
      -Adagrad-0.01-0"
37,0.693,0.6933,0.5010609704342905,0.3338,"MLP20-LeakyReLU(negative_slope=0.01)
      (2): Dropout(p=0.05, inplace=False)
    )
    (1-19): 19 x Sequential(
      (0): Linear(in_features=3, out_features=3, bias=True)
      -Adagrad-0.01-0"
38,0.693,0.6933,0.5010609704342905,0.3338,"MLP20-LeakyReLU(negative_slope=0.01)
      (2): Dropout(p=0.05, inplace=False)
    )
    (1-19): 19 x Sequential(
      (0): Linear(in_features=3, out_features=3, bias=True)
      -Adagrad-0.01-0"
39,0.693,0.6933,0.5010609704342905,0.3338,"MLP20-LeakyReLU(negative_slope=0.01)
      (2): Dropout(p=0.05, inplace=False)
    )
    (1-19): 19 x Sequential(
      (0): Linear(in_features=3, out_features=3, bias=True)
      -Adagrad-0.01-0"
40,0.693,0.6933,0.5010609704342905,0.3338,"MLP20-LeakyReLU(negative_slope=0.01)
      (2): Dropout(p=0.05, inplace=False)
    )
    (1-19): 19 x Sequential(
      (0): Linear(in_features=3, out_features=3, bias=True)
      -Adagrad-0.01-0"
41,0.693,0.6933,0.5010609704342905,0.3338,"MLP20-LeakyReLU(negative_slope=0.01)
      (2): Dropout(p=0.05, inplace=False)
    )
    (1-19): 19 x Sequential(
      (0): Linear(in_features=3, out_features=3, bias=True)
      -Adagrad-0.01-0"
42,0.693,0.6933,0.5010609704342905,0.3338,"MLP20-LeakyReLU(negative_slope=0.01)
      (2): Dropout(p=0.05, inplace=False)
    )
    (1-19): 19 x Sequential(
      (0): Linear(in_features=3, out_features=3, bias=True)
      -Adagrad-0.01-0"
43,0.693,0.6933,0.5010609704342905,0.3338,"MLP20-LeakyReLU(negative_slope=0.01)
      (2): Dropout(p=0.05, inplace=False)
    )
    (1-19): 19 x Sequential(
      (0): Linear(in_features=3, out_features=3, bias=True)
      -Adagrad-0.01-0"
44,0.693,0.6933,0.5010609704342905,0.3338,"MLP20-LeakyReLU(negative_slope=0.01)
      (2): Dropout(p=0.05, inplace=False)
    )
    (1-19): 19 x Sequential(
      (0): Linear(in_features=3, out_features=3, bias=True)
      -Adagrad-0.01-0"
45,0.6931,0.6933,0.5010609704342905,0.3338,"MLP20-LeakyReLU(negative_slope=0.01)
      (2): Dropout(p=0.05, inplace=False)
    )
    (1-19): 19 x Sequential(
      (0): Linear(in_features=3, out_features=3, bias=True)
      -Adagrad-0.01-0"
46,0.6931,0.6933,0.5010609704342905,0.3338,"MLP20-LeakyReLU(negative_slope=0.01)
      (2): Dropout(p=0.05, inplace=False)
    )
    (1-19): 19 x Sequential(
      (0): Linear(in_features=3, out_features=3, bias=True)
      -Adagrad-0.01-0"
47,0.693,0.6933,0.5010609704342905,0.3338,"MLP20-LeakyReLU(negative_slope=0.01)
      (2): Dropout(p=0.05, inplace=False)
    )
    (1-19): 19 x Sequential(
      (0): Linear(in_features=3, out_features=3, bias=True)
      -Adagrad-0.01-0"
48,0.693,0.6933,0.5010609704342905,0.3338,"MLP20-LeakyReLU(negative_slope=0.01)
      (2): Dropout(p=0.05, inplace=False)
    )
    (1-19): 19 x Sequential(
      (0): Linear(in_features=3, out_features=3, bias=True)
      -Adagrad-0.01-0"
49,0.693,0.6933,0.5010609704342905,0.3338,"MLP20-LeakyReLU(negative_slope=0.01)
      (2): Dropout(p=0.05, inplace=False)
    )
    (1-19): 19 x Sequential(
      (0): Linear(in_features=3, out_features=3, bias=True)
      -Adagrad-0.01-0"
50,0.693,0.6933,0.5010609704342905,0.3338,"MLP20-LeakyReLU(negative_slope=0.01)
      (2): Dropout(p=0.05, inplace=False)
    )
    (1-19): 19 x Sequential(
      (0): Linear(in_features=3, out_features=3, bias=True)
      -Adagrad-0.01-0"
51,0.6931,0.6933,0.5010609704342905,0.3338,"MLP20-LeakyReLU(negative_slope=0.01)
      (2): Dropout(p=0.05, inplace=False)
    )
    (1-19): 19 x Sequential(
      (0): Linear(in_features=3, out_features=3, bias=True)
      -Adagrad-0.01-0"
52,0.693,0.6933,0.5010609704342905,0.3338,"MLP20-LeakyReLU(negative_slope=0.01)
      (2): Dropout(p=0.05, inplace=False)
    )
    (1-19): 19 x Sequential(
      (0): Linear(in_features=3, out_features=3, bias=True)
      -Adagrad-0.01-0"
53,0.693,0.6933,0.5010609704342905,0.3338,"MLP20-LeakyReLU(negative_slope=0.01)
      (2): Dropout(p=0.05, inplace=False)
    )
    (1-19): 19 x Sequential(
      (0): Linear(in_features=3, out_features=3, bias=True)
      -Adagrad-0.01-0"
54,0.693,0.6933,0.5010609704342905,0.3338,"MLP20-LeakyReLU(negative_slope=0.01)
      (2): Dropout(p=0.05, inplace=False)
    )
    (1-19): 19 x Sequential(
      (0): Linear(in_features=3, out_features=3, bias=True)
      -Adagrad-0.01-0"
55,0.693,0.6933,0.5010609704342905,0.3338,"MLP20-LeakyReLU(negative_slope=0.01)
      (2): Dropout(p=0.05, inplace=False)
    )
    (1-19): 19 x Sequential(
      (0): Linear(in_features=3, out_features=3, bias=True)
      -Adagrad-0.01-0"
56,0.6929,0.6933,0.5010609704342905,0.3338,"MLP20-LeakyReLU(negative_slope=0.01)
      (2): Dropout(p=0.05, inplace=False)
    )
    (1-19): 19 x Sequential(
      (0): Linear(in_features=3, out_features=3, bias=True)
      -Adagrad-0.01-0"
57,0.693,0.6933,0.5010609704342905,0.3338,"MLP20-LeakyReLU(negative_slope=0.01)
      (2): Dropout(p=0.05, inplace=False)
    )
    (1-19): 19 x Sequential(
      (0): Linear(in_features=3, out_features=3, bias=True)
      -Adagrad-0.01-0"
58,0.693,0.6933,0.5010609704342905,0.3338,"MLP20-LeakyReLU(negative_slope=0.01)
      (2): Dropout(p=0.05, inplace=False)
    )
    (1-19): 19 x Sequential(
      (0): Linear(in_features=3, out_features=3, bias=True)
      -Adagrad-0.01-0"
59,0.6931,0.6933,0.5010609704342905,0.3338,"MLP20-LeakyReLU(negative_slope=0.01)
      (2): Dropout(p=0.05, inplace=False)
    )
    (1-19): 19 x Sequential(
      (0): Linear(in_features=3, out_features=3, bias=True)
      -Adagrad-0.01-0"
60,0.693,0.6933,0.5010609704342905,0.3338,"MLP20-LeakyReLU(negative_slope=0.01)
      (2): Dropout(p=0.05, inplace=False)
    )
    (1-19): 19 x Sequential(
      (0): Linear(in_features=3, out_features=3, bias=True)
      -Adagrad-0.01-0"
61,0.693,0.6933,0.5010609704342905,0.3338,"MLP20-LeakyReLU(negative_slope=0.01)
      (2): Dropout(p=0.05, inplace=False)
    )
    (1-19): 19 x Sequential(
      (0): Linear(in_features=3, out_features=3, bias=True)
      -Adagrad-0.01-0"
62,0.693,0.6933,0.5010609704342905,0.3338,"MLP20-LeakyReLU(negative_slope=0.01)
      (2): Dropout(p=0.05, inplace=False)
    )
    (1-19): 19 x Sequential(
      (0): Linear(in_features=3, out_features=3, bias=True)
      -Adagrad-0.01-0"
63,0.693,0.6933,0.5010609704342905,0.3338,"MLP20-LeakyReLU(negative_slope=0.01)
      (2): Dropout(p=0.05, inplace=False)
    )
    (1-19): 19 x Sequential(
      (0): Linear(in_features=3, out_features=3, bias=True)
      -Adagrad-0.01-0"
64,0.6931,0.6933,0.5010609704342905,0.3338,"MLP20-LeakyReLU(negative_slope=0.01)
      (2): Dropout(p=0.05, inplace=False)
    )
    (1-19): 19 x Sequential(
      (0): Linear(in_features=3, out_features=3, bias=True)
      -Adagrad-0.01-0"
65,0.693,0.6933,0.5010609704342905,0.3338,"MLP20-LeakyReLU(negative_slope=0.01)
      (2): Dropout(p=0.05, inplace=False)
    )
    (1-19): 19 x Sequential(
      (0): Linear(in_features=3, out_features=3, bias=True)
      -Adagrad-0.01-0"
66,0.693,0.6933,0.5010609704342905,0.3338,"MLP20-LeakyReLU(negative_slope=0.01)
      (2): Dropout(p=0.05, inplace=False)
    )
    (1-19): 19 x Sequential(
      (0): Linear(in_features=3, out_features=3, bias=True)
      -Adagrad-0.01-0"
67,0.693,0.6933,0.5010609704342905,0.3338,"MLP20-LeakyReLU(negative_slope=0.01)
      (2): Dropout(p=0.05, inplace=False)
    )
    (1-19): 19 x Sequential(
      (0): Linear(in_features=3, out_features=3, bias=True)
      -Adagrad-0.01-0"
68,0.693,0.6933,0.5010609704342905,0.3338,"MLP20-LeakyReLU(negative_slope=0.01)
      (2): Dropout(p=0.05, inplace=False)
    )
    (1-19): 19 x Sequential(
      (0): Linear(in_features=3, out_features=3, bias=True)
      -Adagrad-0.01-0"
69,0.693,0.6933,0.5010609704342905,0.3338,"MLP20-LeakyReLU(negative_slope=0.01)
      (2): Dropout(p=0.05, inplace=False)
    )
    (1-19): 19 x Sequential(
      (0): Linear(in_features=3, out_features=3, bias=True)
      -Adagrad-0.01-0"
70,0.693,0.6933,0.5010609704342905,0.3338,"MLP20-LeakyReLU(negative_slope=0.01)
      (2): Dropout(p=0.05, inplace=False)
    )
    (1-19): 19 x Sequential(
      (0): Linear(in_features=3, out_features=3, bias=True)
      -Adagrad-0.01-0"
71,0.693,0.6933,0.5010609704342905,0.3338,"MLP20-LeakyReLU(negative_slope=0.01)
      (2): Dropout(p=0.05, inplace=False)
    )
    (1-19): 19 x Sequential(
      (0): Linear(in_features=3, out_features=3, bias=True)
      -Adagrad-0.01-0"
72,0.693,0.6933,0.5010609704342905,0.3338,"MLP20-LeakyReLU(negative_slope=0.01)
      (2): Dropout(p=0.05, inplace=False)
    )
    (1-19): 19 x Sequential(
      (0): Linear(in_features=3, out_features=3, bias=True)
      -Adagrad-0.01-0"
73,0.693,0.6933,0.5010609704342905,0.3338,"MLP20-LeakyReLU(negative_slope=0.01)
      (2): Dropout(p=0.05, inplace=False)
    )
    (1-19): 19 x Sequential(
      (0): Linear(in_features=3, out_features=3, bias=True)
      -Adagrad-0.01-0"
74,0.693,0.6933,0.5010609704342905,0.3338,"MLP20-LeakyReLU(negative_slope=0.01)
      (2): Dropout(p=0.05, inplace=False)
    )
    (1-19): 19 x Sequential(
      (0): Linear(in_features=3, out_features=3, bias=True)
      -Adagrad-0.01-0"
75,0.693,0.6933,0.5010609704342905,0.3338,"MLP20-LeakyReLU(negative_slope=0.01)
      (2): Dropout(p=0.05, inplace=False)
    )
    (1-19): 19 x Sequential(
      (0): Linear(in_features=3, out_features=3, bias=True)
      -Adagrad-0.01-0"
76,0.693,0.6933,0.5010609704342905,0.3338,"MLP20-LeakyReLU(negative_slope=0.01)
      (2): Dropout(p=0.05, inplace=False)
    )
    (1-19): 19 x Sequential(
      (0): Linear(in_features=3, out_features=3, bias=True)
      -Adagrad-0.01-0"
77,0.693,0.6933,0.5010609704342905,0.3338,"MLP20-LeakyReLU(negative_slope=0.01)
      (2): Dropout(p=0.05, inplace=False)
    )
    (1-19): 19 x Sequential(
      (0): Linear(in_features=3, out_features=3, bias=True)
      -Adagrad-0.01-0"
78,0.693,0.6933,0.5010609704342905,0.3338,"MLP20-LeakyReLU(negative_slope=0.01)
      (2): Dropout(p=0.05, inplace=False)
    )
    (1-19): 19 x Sequential(
      (0): Linear(in_features=3, out_features=3, bias=True)
      -Adagrad-0.01-0"
79,0.693,0.6933,0.5010609704342905,0.3338,"MLP20-LeakyReLU(negative_slope=0.01)
      (2): Dropout(p=0.05, inplace=False)
    )
    (1-19): 19 x Sequential(
      (0): Linear(in_features=3, out_features=3, bias=True)
      -Adagrad-0.01-0"
80,0.6931,0.6933,0.5010609704342905,0.3338,"MLP20-LeakyReLU(negative_slope=0.01)
      (2): Dropout(p=0.05, inplace=False)
    )
    (1-19): 19 x Sequential(
      (0): Linear(in_features=3, out_features=3, bias=True)
      -Adagrad-0.01-0"
81,0.6931,0.6933,0.5010609704342905,0.3338,"MLP20-LeakyReLU(negative_slope=0.01)
      (2): Dropout(p=0.05, inplace=False)
    )
    (1-19): 19 x Sequential(
      (0): Linear(in_features=3, out_features=3, bias=True)
      -Adagrad-0.01-0"
82,0.693,0.6933,0.5010609704342905,0.3338,"MLP20-LeakyReLU(negative_slope=0.01)
      (2): Dropout(p=0.05, inplace=False)
    )
    (1-19): 19 x Sequential(
      (0): Linear(in_features=3, out_features=3, bias=True)
      -Adagrad-0.01-0"
83,0.693,0.6933,0.5010609704342905,0.3338,"MLP20-LeakyReLU(negative_slope=0.01)
      (2): Dropout(p=0.05, inplace=False)
    )
    (1-19): 19 x Sequential(
      (0): Linear(in_features=3, out_features=3, bias=True)
      -Adagrad-0.01-0"
84,0.6931,0.6933,0.5010609704342905,0.3338,"MLP20-LeakyReLU(negative_slope=0.01)
      (2): Dropout(p=0.05, inplace=False)
    )
    (1-19): 19 x Sequential(
      (0): Linear(in_features=3, out_features=3, bias=True)
      -Adagrad-0.01-0"
85,0.693,0.6933,0.5010609704342905,0.3338,"MLP20-LeakyReLU(negative_slope=0.01)
      (2): Dropout(p=0.05, inplace=False)
    )
    (1-19): 19 x Sequential(
      (0): Linear(in_features=3, out_features=3, bias=True)
      -Adagrad-0.01-0"
86,0.693,0.6933,0.5010609704342905,0.3338,"MLP20-LeakyReLU(negative_slope=0.01)
      (2): Dropout(p=0.05, inplace=False)
    )
    (1-19): 19 x Sequential(
      (0): Linear(in_features=3, out_features=3, bias=True)
      -Adagrad-0.01-0"
87,0.693,0.6933,0.5010609704342905,0.3338,"MLP20-LeakyReLU(negative_slope=0.01)
      (2): Dropout(p=0.05, inplace=False)
    )
    (1-19): 19 x Sequential(
      (0): Linear(in_features=3, out_features=3, bias=True)
      -Adagrad-0.01-0"
88,0.693,0.6933,0.5010609704342905,0.3338,"MLP20-LeakyReLU(negative_slope=0.01)
      (2): Dropout(p=0.05, inplace=False)
    )
    (1-19): 19 x Sequential(
      (0): Linear(in_features=3, out_features=3, bias=True)
      -Adagrad-0.01-0"
89,0.6931,0.6933,0.5010609704342905,0.3338,"MLP20-LeakyReLU(negative_slope=0.01)
      (2): Dropout(p=0.05, inplace=False)
    )
    (1-19): 19 x Sequential(
      (0): Linear(in_features=3, out_features=3, bias=True)
      -Adagrad-0.01-0"
90,0.693,0.6933,0.5010609704342905,0.3338,"MLP20-LeakyReLU(negative_slope=0.01)
      (2): Dropout(p=0.05, inplace=False)
    )
    (1-19): 19 x Sequential(
      (0): Linear(in_features=3, out_features=3, bias=True)
      -Adagrad-0.01-0"
91,0.6931,0.6933,0.5010609704342905,0.3338,"MLP20-LeakyReLU(negative_slope=0.01)
      (2): Dropout(p=0.05, inplace=False)
    )
    (1-19): 19 x Sequential(
      (0): Linear(in_features=3, out_features=3, bias=True)
      -Adagrad-0.01-0"
92,0.693,0.6933,0.5010609704342905,0.3338,"MLP20-LeakyReLU(negative_slope=0.01)
      (2): Dropout(p=0.05, inplace=False)
    )
    (1-19): 19 x Sequential(
      (0): Linear(in_features=3, out_features=3, bias=True)
      -Adagrad-0.01-0"
93,0.693,0.6933,0.5010609704342905,0.3338,"MLP20-LeakyReLU(negative_slope=0.01)
      (2): Dropout(p=0.05, inplace=False)
    )
    (1-19): 19 x Sequential(
      (0): Linear(in_features=3, out_features=3, bias=True)
      -Adagrad-0.01-0"
94,0.6931,0.6933,0.5010609704342905,0.3338,"MLP20-LeakyReLU(negative_slope=0.01)
      (2): Dropout(p=0.05, inplace=False)
    )
    (1-19): 19 x Sequential(
      (0): Linear(in_features=3, out_features=3, bias=True)
      -Adagrad-0.01-0"
95,0.6929,0.6933,0.5010609704342905,0.3338,"MLP20-LeakyReLU(negative_slope=0.01)
      (2): Dropout(p=0.05, inplace=False)
    )
    (1-19): 19 x Sequential(
      (0): Linear(in_features=3, out_features=3, bias=True)
      -Adagrad-0.01-0"
96,0.693,0.6933,0.5010609704342905,0.3338,"MLP20-LeakyReLU(negative_slope=0.01)
      (2): Dropout(p=0.05, inplace=False)
    )
    (1-19): 19 x Sequential(
      (0): Linear(in_features=3, out_features=3, bias=True)
      -Adagrad-0.01-0"
97,0.6931,0.6933,0.5010609704342905,0.3338,"MLP20-LeakyReLU(negative_slope=0.01)
      (2): Dropout(p=0.05, inplace=False)
    )
    (1-19): 19 x Sequential(
      (0): Linear(in_features=3, out_features=3, bias=True)
      -Adagrad-0.01-0"
98,0.693,0.6933,0.5010609704342905,0.3338,"MLP20-LeakyReLU(negative_slope=0.01)
      (2): Dropout(p=0.05, inplace=False)
    )
    (1-19): 19 x Sequential(
      (0): Linear(in_features=3, out_features=3, bias=True)
      -Adagrad-0.01-0"
99,0.693,0.6933,0.5010609704342905,0.3338,"MLP20-LeakyReLU(negative_slope=0.01)
      (2): Dropout(p=0.05, inplace=False)
    )
    (1-19): 19 x Sequential(
      (0): Linear(in_features=3, out_features=3, bias=True)
      -Adagrad-0.01-0"
100,0.693,0.6933,0.5010609704342905,0.3338,"MLP20-LeakyReLU(negative_slope=0.01)
      (2): Dropout(p=0.05, inplace=False)
    )
    (1-19): 19 x Sequential(
      (0): Linear(in_features=3, out_features=3, bias=True)
      -Adagrad-0.01-0"
1,0.6932,0.6932,0.5010609704342905,0.3338,"MLP20-LeakyReLU(negative_slope=0.01)
      (2): Dropout(p=0.1, inplace=False)
    )
    (1-19): 19 x Sequential(
      (0): Linear(in_features=3, out_features=3, bias=True)
      -Adagrad-0.01-0"
2,0.6931,0.6932,0.5010609704342905,0.3338,"MLP20-LeakyReLU(negative_slope=0.01)
      (2): Dropout(p=0.1, inplace=False)
    )
    (1-19): 19 x Sequential(
      (0): Linear(in_features=3, out_features=3, bias=True)
      -Adagrad-0.01-0"
3,0.6934,0.6932,0.5010609704342905,0.3338,"MLP20-LeakyReLU(negative_slope=0.01)
      (2): Dropout(p=0.1, inplace=False)
    )
    (1-19): 19 x Sequential(
      (0): Linear(in_features=3, out_features=3, bias=True)
      -Adagrad-0.01-0"
4,0.6932,0.6933,0.5010609704342905,0.3338,"MLP20-LeakyReLU(negative_slope=0.01)
      (2): Dropout(p=0.1, inplace=False)
    )
    (1-19): 19 x Sequential(
      (0): Linear(in_features=3, out_features=3, bias=True)
      -Adagrad-0.01-0"
5,0.6933,0.6933,0.5010609704342905,0.3338,"MLP20-LeakyReLU(negative_slope=0.01)
      (2): Dropout(p=0.1, inplace=False)
    )
    (1-19): 19 x Sequential(
      (0): Linear(in_features=3, out_features=3, bias=True)
      -Adagrad-0.01-0"
6,0.6938,0.6934,0.5010609704342905,0.3338,"MLP20-LeakyReLU(negative_slope=0.01)
      (2): Dropout(p=0.1, inplace=False)
    )
    (1-19): 19 x Sequential(
      (0): Linear(in_features=3, out_features=3, bias=True)
      -Adagrad-0.01-0"
7,0.693,0.6934,0.5010609704342905,0.3338,"MLP20-LeakyReLU(negative_slope=0.01)
      (2): Dropout(p=0.1, inplace=False)
    )
    (1-19): 19 x Sequential(
      (0): Linear(in_features=3, out_features=3, bias=True)
      -Adagrad-0.01-0"
8,0.693,0.6934,0.5010609704342905,0.3338,"MLP20-LeakyReLU(negative_slope=0.01)
      (2): Dropout(p=0.1, inplace=False)
    )
    (1-19): 19 x Sequential(
      (0): Linear(in_features=3, out_features=3, bias=True)
      -Adagrad-0.01-0"
9,0.6932,0.6933,0.5010609704342905,0.3338,"MLP20-LeakyReLU(negative_slope=0.01)
      (2): Dropout(p=0.1, inplace=False)
    )
    (1-19): 19 x Sequential(
      (0): Linear(in_features=3, out_features=3, bias=True)
      -Adagrad-0.01-0"
10,0.6929,0.6933,0.5010609704342905,0.3338,"MLP20-LeakyReLU(negative_slope=0.01)
      (2): Dropout(p=0.1, inplace=False)
    )
    (1-19): 19 x Sequential(
      (0): Linear(in_features=3, out_features=3, bias=True)
      -Adagrad-0.01-0"
11,0.6931,0.6933,0.5010609704342905,0.3338,"MLP20-LeakyReLU(negative_slope=0.01)
      (2): Dropout(p=0.1, inplace=False)
    )
    (1-19): 19 x Sequential(
      (0): Linear(in_features=3, out_features=3, bias=True)
      -Adagrad-0.01-0"
12,0.693,0.6933,0.5010609704342905,0.3338,"MLP20-LeakyReLU(negative_slope=0.01)
      (2): Dropout(p=0.1, inplace=False)
    )
    (1-19): 19 x Sequential(
      (0): Linear(in_features=3, out_features=3, bias=True)
      -Adagrad-0.01-0"
13,0.6931,0.6933,0.5010609704342905,0.3338,"MLP20-LeakyReLU(negative_slope=0.01)
      (2): Dropout(p=0.1, inplace=False)
    )
    (1-19): 19 x Sequential(
      (0): Linear(in_features=3, out_features=3, bias=True)
      -Adagrad-0.01-0"
14,0.6928,0.6933,0.5010609704342905,0.3338,"MLP20-LeakyReLU(negative_slope=0.01)
      (2): Dropout(p=0.1, inplace=False)
    )
    (1-19): 19 x Sequential(
      (0): Linear(in_features=3, out_features=3, bias=True)
      -Adagrad-0.01-0"
15,0.6927,0.6933,0.5010609704342905,0.3338,"MLP20-LeakyReLU(negative_slope=0.01)
      (2): Dropout(p=0.1, inplace=False)
    )
    (1-19): 19 x Sequential(
      (0): Linear(in_features=3, out_features=3, bias=True)
      -Adagrad-0.01-0"
16,0.6932,0.6933,0.5010609704342905,0.3338,"MLP20-LeakyReLU(negative_slope=0.01)
      (2): Dropout(p=0.1, inplace=False)
    )
    (1-19): 19 x Sequential(
      (0): Linear(in_features=3, out_features=3, bias=True)
      -Adagrad-0.01-0"
17,0.6932,0.6933,0.5010609704342905,0.3338,"MLP20-LeakyReLU(negative_slope=0.01)
      (2): Dropout(p=0.1, inplace=False)
    )
    (1-19): 19 x Sequential(
      (0): Linear(in_features=3, out_features=3, bias=True)
      -Adagrad-0.01-0"
18,0.6933,0.6934,0.5010609704342905,0.3338,"MLP20-LeakyReLU(negative_slope=0.01)
      (2): Dropout(p=0.1, inplace=False)
    )
    (1-19): 19 x Sequential(
      (0): Linear(in_features=3, out_features=3, bias=True)
      -Adagrad-0.01-0"
19,0.6932,0.6933,0.5010609704342905,0.3338,"MLP20-LeakyReLU(negative_slope=0.01)
      (2): Dropout(p=0.1, inplace=False)
    )
    (1-19): 19 x Sequential(
      (0): Linear(in_features=3, out_features=3, bias=True)
      -Adagrad-0.01-0"
20,0.6932,0.6933,0.5010609704342905,0.3338,"MLP20-LeakyReLU(negative_slope=0.01)
      (2): Dropout(p=0.1, inplace=False)
    )
    (1-19): 19 x Sequential(
      (0): Linear(in_features=3, out_features=3, bias=True)
      -Adagrad-0.01-0"
21,0.6933,0.6933,0.5010609704342905,0.3338,"MLP20-LeakyReLU(negative_slope=0.01)
      (2): Dropout(p=0.1, inplace=False)
    )
    (1-19): 19 x Sequential(
      (0): Linear(in_features=3, out_features=3, bias=True)
      -Adagrad-0.01-0"
22,0.6933,0.6933,0.5010609704342905,0.3338,"MLP20-LeakyReLU(negative_slope=0.01)
      (2): Dropout(p=0.1, inplace=False)
    )
    (1-19): 19 x Sequential(
      (0): Linear(in_features=3, out_features=3, bias=True)
      -Adagrad-0.01-0"
23,0.6931,0.6933,0.5010609704342905,0.3338,"MLP20-LeakyReLU(negative_slope=0.01)
      (2): Dropout(p=0.1, inplace=False)
    )
    (1-19): 19 x Sequential(
      (0): Linear(in_features=3, out_features=3, bias=True)
      -Adagrad-0.01-0"
24,0.6932,0.6933,0.5010609704342905,0.3338,"MLP20-LeakyReLU(negative_slope=0.01)
      (2): Dropout(p=0.1, inplace=False)
    )
    (1-19): 19 x Sequential(
      (0): Linear(in_features=3, out_features=3, bias=True)
      -Adagrad-0.01-0"
25,0.6933,0.6933,0.5010609704342905,0.3338,"MLP20-LeakyReLU(negative_slope=0.01)
      (2): Dropout(p=0.1, inplace=False)
    )
    (1-19): 19 x Sequential(
      (0): Linear(in_features=3, out_features=3, bias=True)
      -Adagrad-0.01-0"
26,0.6929,0.6933,0.5010609704342905,0.3338,"MLP20-LeakyReLU(negative_slope=0.01)
      (2): Dropout(p=0.1, inplace=False)
    )
    (1-19): 19 x Sequential(
      (0): Linear(in_features=3, out_features=3, bias=True)
      -Adagrad-0.01-0"
27,0.6932,0.6933,0.5010609704342905,0.3338,"MLP20-LeakyReLU(negative_slope=0.01)
      (2): Dropout(p=0.1, inplace=False)
    )
    (1-19): 19 x Sequential(
      (0): Linear(in_features=3, out_features=3, bias=True)
      -Adagrad-0.01-0"
28,0.693,0.6933,0.5010609704342905,0.3338,"MLP20-LeakyReLU(negative_slope=0.01)
      (2): Dropout(p=0.1, inplace=False)
    )
    (1-19): 19 x Sequential(
      (0): Linear(in_features=3, out_features=3, bias=True)
      -Adagrad-0.01-0"
29,0.6933,0.6933,0.5010609704342905,0.3338,"MLP20-LeakyReLU(negative_slope=0.01)
      (2): Dropout(p=0.1, inplace=False)
    )
    (1-19): 19 x Sequential(
      (0): Linear(in_features=3, out_features=3, bias=True)
      -Adagrad-0.01-0"
30,0.6933,0.6933,0.5010609704342905,0.3338,"MLP20-LeakyReLU(negative_slope=0.01)
      (2): Dropout(p=0.1, inplace=False)
    )
    (1-19): 19 x Sequential(
      (0): Linear(in_features=3, out_features=3, bias=True)
      -Adagrad-0.01-0"
31,0.6929,0.6933,0.5010609704342905,0.3338,"MLP20-LeakyReLU(negative_slope=0.01)
      (2): Dropout(p=0.1, inplace=False)
    )
    (1-19): 19 x Sequential(
      (0): Linear(in_features=3, out_features=3, bias=True)
      -Adagrad-0.01-0"
32,0.6932,0.6933,0.5010609704342905,0.3338,"MLP20-LeakyReLU(negative_slope=0.01)
      (2): Dropout(p=0.1, inplace=False)
    )
    (1-19): 19 x Sequential(
      (0): Linear(in_features=3, out_features=3, bias=True)
      -Adagrad-0.01-0"
33,0.6931,0.6933,0.5010609704342905,0.3338,"MLP20-LeakyReLU(negative_slope=0.01)
      (2): Dropout(p=0.1, inplace=False)
    )
    (1-19): 19 x Sequential(
      (0): Linear(in_features=3, out_features=3, bias=True)
      -Adagrad-0.01-0"
34,0.6933,0.6933,0.5010609704342905,0.3338,"MLP20-LeakyReLU(negative_slope=0.01)
      (2): Dropout(p=0.1, inplace=False)
    )
    (1-19): 19 x Sequential(
      (0): Linear(in_features=3, out_features=3, bias=True)
      -Adagrad-0.01-0"
35,0.6929,0.6933,0.5010609704342905,0.3338,"MLP20-LeakyReLU(negative_slope=0.01)
      (2): Dropout(p=0.1, inplace=False)
    )
    (1-19): 19 x Sequential(
      (0): Linear(in_features=3, out_features=3, bias=True)
      -Adagrad-0.01-0"
36,0.6931,0.6933,0.5010609704342905,0.3338,"MLP20-LeakyReLU(negative_slope=0.01)
      (2): Dropout(p=0.1, inplace=False)
    )
    (1-19): 19 x Sequential(
      (0): Linear(in_features=3, out_features=3, bias=True)
      -Adagrad-0.01-0"
37,0.6929,0.6933,0.5010609704342905,0.3338,"MLP20-LeakyReLU(negative_slope=0.01)
      (2): Dropout(p=0.1, inplace=False)
    )
    (1-19): 19 x Sequential(
      (0): Linear(in_features=3, out_features=3, bias=True)
      -Adagrad-0.01-0"
38,0.6929,0.6933,0.5010609704342905,0.3338,"MLP20-LeakyReLU(negative_slope=0.01)
      (2): Dropout(p=0.1, inplace=False)
    )
    (1-19): 19 x Sequential(
      (0): Linear(in_features=3, out_features=3, bias=True)
      -Adagrad-0.01-0"
39,0.6932,0.6933,0.5010609704342905,0.3338,"MLP20-LeakyReLU(negative_slope=0.01)
      (2): Dropout(p=0.1, inplace=False)
    )
    (1-19): 19 x Sequential(
      (0): Linear(in_features=3, out_features=3, bias=True)
      -Adagrad-0.01-0"
40,0.6932,0.6933,0.5010609704342905,0.3338,"MLP20-LeakyReLU(negative_slope=0.01)
      (2): Dropout(p=0.1, inplace=False)
    )
    (1-19): 19 x Sequential(
      (0): Linear(in_features=3, out_features=3, bias=True)
      -Adagrad-0.01-0"
41,0.6929,0.6933,0.5010609704342905,0.3338,"MLP20-LeakyReLU(negative_slope=0.01)
      (2): Dropout(p=0.1, inplace=False)
    )
    (1-19): 19 x Sequential(
      (0): Linear(in_features=3, out_features=3, bias=True)
      -Adagrad-0.01-0"
42,0.6931,0.6933,0.5010609704342905,0.3338,"MLP20-LeakyReLU(negative_slope=0.01)
      (2): Dropout(p=0.1, inplace=False)
    )
    (1-19): 19 x Sequential(
      (0): Linear(in_features=3, out_features=3, bias=True)
      -Adagrad-0.01-0"
43,0.6931,0.6933,0.5010609704342905,0.3338,"MLP20-LeakyReLU(negative_slope=0.01)
      (2): Dropout(p=0.1, inplace=False)
    )
    (1-19): 19 x Sequential(
      (0): Linear(in_features=3, out_features=3, bias=True)
      -Adagrad-0.01-0"
44,0.6933,0.6933,0.5010609704342905,0.3338,"MLP20-LeakyReLU(negative_slope=0.01)
      (2): Dropout(p=0.1, inplace=False)
    )
    (1-19): 19 x Sequential(
      (0): Linear(in_features=3, out_features=3, bias=True)
      -Adagrad-0.01-0"
45,0.693,0.6933,0.5010609704342905,0.3338,"MLP20-LeakyReLU(negative_slope=0.01)
      (2): Dropout(p=0.1, inplace=False)
    )
    (1-19): 19 x Sequential(
      (0): Linear(in_features=3, out_features=3, bias=True)
      -Adagrad-0.01-0"
46,0.6935,0.6933,0.5010609704342905,0.3338,"MLP20-LeakyReLU(negative_slope=0.01)
      (2): Dropout(p=0.1, inplace=False)
    )
    (1-19): 19 x Sequential(
      (0): Linear(in_features=3, out_features=3, bias=True)
      -Adagrad-0.01-0"
47,0.6932,0.6933,0.5010609704342905,0.3338,"MLP20-LeakyReLU(negative_slope=0.01)
      (2): Dropout(p=0.1, inplace=False)
    )
    (1-19): 19 x Sequential(
      (0): Linear(in_features=3, out_features=3, bias=True)
      -Adagrad-0.01-0"
48,0.6932,0.6933,0.5010609704342905,0.3338,"MLP20-LeakyReLU(negative_slope=0.01)
      (2): Dropout(p=0.1, inplace=False)
    )
    (1-19): 19 x Sequential(
      (0): Linear(in_features=3, out_features=3, bias=True)
      -Adagrad-0.01-0"
49,0.693,0.6933,0.5010609704342905,0.3338,"MLP20-LeakyReLU(negative_slope=0.01)
      (2): Dropout(p=0.1, inplace=False)
    )
    (1-19): 19 x Sequential(
      (0): Linear(in_features=3, out_features=3, bias=True)
      -Adagrad-0.01-0"
50,0.693,0.6933,0.5010609704342905,0.3338,"MLP20-LeakyReLU(negative_slope=0.01)
      (2): Dropout(p=0.1, inplace=False)
    )
    (1-19): 19 x Sequential(
      (0): Linear(in_features=3, out_features=3, bias=True)
      -Adagrad-0.01-0"
51,0.693,0.6933,0.5010609704342905,0.3338,"MLP20-LeakyReLU(negative_slope=0.01)
      (2): Dropout(p=0.1, inplace=False)
    )
    (1-19): 19 x Sequential(
      (0): Linear(in_features=3, out_features=3, bias=True)
      -Adagrad-0.01-0"
52,0.6928,0.6933,0.5010609704342905,0.3338,"MLP20-LeakyReLU(negative_slope=0.01)
      (2): Dropout(p=0.1, inplace=False)
    )
    (1-19): 19 x Sequential(
      (0): Linear(in_features=3, out_features=3, bias=True)
      -Adagrad-0.01-0"
53,0.6928,0.6933,0.5010609704342905,0.3338,"MLP20-LeakyReLU(negative_slope=0.01)
      (2): Dropout(p=0.1, inplace=False)
    )
    (1-19): 19 x Sequential(
      (0): Linear(in_features=3, out_features=3, bias=True)
      -Adagrad-0.01-0"
54,0.6932,0.6933,0.5010609704342905,0.3338,"MLP20-LeakyReLU(negative_slope=0.01)
      (2): Dropout(p=0.1, inplace=False)
    )
    (1-19): 19 x Sequential(
      (0): Linear(in_features=3, out_features=3, bias=True)
      -Adagrad-0.01-0"
55,0.6933,0.6933,0.5010609704342905,0.3338,"MLP20-LeakyReLU(negative_slope=0.01)
      (2): Dropout(p=0.1, inplace=False)
    )
    (1-19): 19 x Sequential(
      (0): Linear(in_features=3, out_features=3, bias=True)
      -Adagrad-0.01-0"
56,0.6931,0.6933,0.5010609704342905,0.3338,"MLP20-LeakyReLU(negative_slope=0.01)
      (2): Dropout(p=0.1, inplace=False)
    )
    (1-19): 19 x Sequential(
      (0): Linear(in_features=3, out_features=3, bias=True)
      -Adagrad-0.01-0"
57,0.693,0.6933,0.5010609704342905,0.3338,"MLP20-LeakyReLU(negative_slope=0.01)
      (2): Dropout(p=0.1, inplace=False)
    )
    (1-19): 19 x Sequential(
      (0): Linear(in_features=3, out_features=3, bias=True)
      -Adagrad-0.01-0"
58,0.6931,0.6933,0.5010609704342905,0.3338,"MLP20-LeakyReLU(negative_slope=0.01)
      (2): Dropout(p=0.1, inplace=False)
    )
    (1-19): 19 x Sequential(
      (0): Linear(in_features=3, out_features=3, bias=True)
      -Adagrad-0.01-0"
59,0.6931,0.6933,0.5010609704342905,0.3338,"MLP20-LeakyReLU(negative_slope=0.01)
      (2): Dropout(p=0.1, inplace=False)
    )
    (1-19): 19 x Sequential(
      (0): Linear(in_features=3, out_features=3, bias=True)
      -Adagrad-0.01-0"
60,0.6931,0.6933,0.5010609704342905,0.3338,"MLP20-LeakyReLU(negative_slope=0.01)
      (2): Dropout(p=0.1, inplace=False)
    )
    (1-19): 19 x Sequential(
      (0): Linear(in_features=3, out_features=3, bias=True)
      -Adagrad-0.01-0"
61,0.693,0.6933,0.5010609704342905,0.3338,"MLP20-LeakyReLU(negative_slope=0.01)
      (2): Dropout(p=0.1, inplace=False)
    )
    (1-19): 19 x Sequential(
      (0): Linear(in_features=3, out_features=3, bias=True)
      -Adagrad-0.01-0"
62,0.6932,0.6933,0.5010609704342905,0.3338,"MLP20-LeakyReLU(negative_slope=0.01)
      (2): Dropout(p=0.1, inplace=False)
    )
    (1-19): 19 x Sequential(
      (0): Linear(in_features=3, out_features=3, bias=True)
      -Adagrad-0.01-0"
63,0.693,0.6933,0.5010609704342905,0.3338,"MLP20-LeakyReLU(negative_slope=0.01)
      (2): Dropout(p=0.1, inplace=False)
    )
    (1-19): 19 x Sequential(
      (0): Linear(in_features=3, out_features=3, bias=True)
      -Adagrad-0.01-0"
64,0.6929,0.6933,0.5010609704342905,0.3338,"MLP20-LeakyReLU(negative_slope=0.01)
      (2): Dropout(p=0.1, inplace=False)
    )
    (1-19): 19 x Sequential(
      (0): Linear(in_features=3, out_features=3, bias=True)
      -Adagrad-0.01-0"
65,0.6931,0.6933,0.5010609704342905,0.3338,"MLP20-LeakyReLU(negative_slope=0.01)
      (2): Dropout(p=0.1, inplace=False)
    )
    (1-19): 19 x Sequential(
      (0): Linear(in_features=3, out_features=3, bias=True)
      -Adagrad-0.01-0"
66,0.693,0.6933,0.5010609704342905,0.3338,"MLP20-LeakyReLU(negative_slope=0.01)
      (2): Dropout(p=0.1, inplace=False)
    )
    (1-19): 19 x Sequential(
      (0): Linear(in_features=3, out_features=3, bias=True)
      -Adagrad-0.01-0"
67,0.6932,0.6933,0.5010609704342905,0.3338,"MLP20-LeakyReLU(negative_slope=0.01)
      (2): Dropout(p=0.1, inplace=False)
    )
    (1-19): 19 x Sequential(
      (0): Linear(in_features=3, out_features=3, bias=True)
      -Adagrad-0.01-0"
68,0.6932,0.6933,0.5010609704342905,0.3338,"MLP20-LeakyReLU(negative_slope=0.01)
      (2): Dropout(p=0.1, inplace=False)
    )
    (1-19): 19 x Sequential(
      (0): Linear(in_features=3, out_features=3, bias=True)
      -Adagrad-0.01-0"
69,0.6931,0.6933,0.5010609704342905,0.3338,"MLP20-LeakyReLU(negative_slope=0.01)
      (2): Dropout(p=0.1, inplace=False)
    )
    (1-19): 19 x Sequential(
      (0): Linear(in_features=3, out_features=3, bias=True)
      -Adagrad-0.01-0"
70,0.6933,0.6933,0.5010609704342905,0.3338,"MLP20-LeakyReLU(negative_slope=0.01)
      (2): Dropout(p=0.1, inplace=False)
    )
    (1-19): 19 x Sequential(
      (0): Linear(in_features=3, out_features=3, bias=True)
      -Adagrad-0.01-0"
71,0.6928,0.6933,0.5010609704342905,0.3338,"MLP20-LeakyReLU(negative_slope=0.01)
      (2): Dropout(p=0.1, inplace=False)
    )
    (1-19): 19 x Sequential(
      (0): Linear(in_features=3, out_features=3, bias=True)
      -Adagrad-0.01-0"
72,0.6929,0.6933,0.5010609704342905,0.3338,"MLP20-LeakyReLU(negative_slope=0.01)
      (2): Dropout(p=0.1, inplace=False)
    )
    (1-19): 19 x Sequential(
      (0): Linear(in_features=3, out_features=3, bias=True)
      -Adagrad-0.01-0"
73,0.6931,0.6933,0.5010609704342905,0.3338,"MLP20-LeakyReLU(negative_slope=0.01)
      (2): Dropout(p=0.1, inplace=False)
    )
    (1-19): 19 x Sequential(
      (0): Linear(in_features=3, out_features=3, bias=True)
      -Adagrad-0.01-0"
74,0.6932,0.6933,0.5010609704342905,0.3338,"MLP20-LeakyReLU(negative_slope=0.01)
      (2): Dropout(p=0.1, inplace=False)
    )
    (1-19): 19 x Sequential(
      (0): Linear(in_features=3, out_features=3, bias=True)
      -Adagrad-0.01-0"
75,0.693,0.6933,0.5010609704342905,0.3338,"MLP20-LeakyReLU(negative_slope=0.01)
      (2): Dropout(p=0.1, inplace=False)
    )
    (1-19): 19 x Sequential(
      (0): Linear(in_features=3, out_features=3, bias=True)
      -Adagrad-0.01-0"
76,0.6932,0.6933,0.5010609704342905,0.3338,"MLP20-LeakyReLU(negative_slope=0.01)
      (2): Dropout(p=0.1, inplace=False)
    )
    (1-19): 19 x Sequential(
      (0): Linear(in_features=3, out_features=3, bias=True)
      -Adagrad-0.01-0"
77,0.6934,0.6933,0.5010609704342905,0.3338,"MLP20-LeakyReLU(negative_slope=0.01)
      (2): Dropout(p=0.1, inplace=False)
    )
    (1-19): 19 x Sequential(
      (0): Linear(in_features=3, out_features=3, bias=True)
      -Adagrad-0.01-0"
78,0.6932,0.6933,0.5010609704342905,0.3338,"MLP20-LeakyReLU(negative_slope=0.01)
      (2): Dropout(p=0.1, inplace=False)
    )
    (1-19): 19 x Sequential(
      (0): Linear(in_features=3, out_features=3, bias=True)
      -Adagrad-0.01-0"
79,0.6934,0.6933,0.5010609704342905,0.3338,"MLP20-LeakyReLU(negative_slope=0.01)
      (2): Dropout(p=0.1, inplace=False)
    )
    (1-19): 19 x Sequential(
      (0): Linear(in_features=3, out_features=3, bias=True)
      -Adagrad-0.01-0"
80,0.693,0.6933,0.5010609704342905,0.3338,"MLP20-LeakyReLU(negative_slope=0.01)
      (2): Dropout(p=0.1, inplace=False)
    )
    (1-19): 19 x Sequential(
      (0): Linear(in_features=3, out_features=3, bias=True)
      -Adagrad-0.01-0"
81,0.6932,0.6933,0.5010609704342905,0.3338,"MLP20-LeakyReLU(negative_slope=0.01)
      (2): Dropout(p=0.1, inplace=False)
    )
    (1-19): 19 x Sequential(
      (0): Linear(in_features=3, out_features=3, bias=True)
      -Adagrad-0.01-0"
82,0.6929,0.6933,0.5010609704342905,0.3338,"MLP20-LeakyReLU(negative_slope=0.01)
      (2): Dropout(p=0.1, inplace=False)
    )
    (1-19): 19 x Sequential(
      (0): Linear(in_features=3, out_features=3, bias=True)
      -Adagrad-0.01-0"
83,0.6931,0.6933,0.5010609704342905,0.3338,"MLP20-LeakyReLU(negative_slope=0.01)
      (2): Dropout(p=0.1, inplace=False)
    )
    (1-19): 19 x Sequential(
      (0): Linear(in_features=3, out_features=3, bias=True)
      -Adagrad-0.01-0"
84,0.6934,0.6933,0.5010609704342905,0.3338,"MLP20-LeakyReLU(negative_slope=0.01)
      (2): Dropout(p=0.1, inplace=False)
    )
    (1-19): 19 x Sequential(
      (0): Linear(in_features=3, out_features=3, bias=True)
      -Adagrad-0.01-0"
85,0.693,0.6933,0.5010609704342905,0.3338,"MLP20-LeakyReLU(negative_slope=0.01)
      (2): Dropout(p=0.1, inplace=False)
    )
    (1-19): 19 x Sequential(
      (0): Linear(in_features=3, out_features=3, bias=True)
      -Adagrad-0.01-0"
86,0.6932,0.6933,0.5010609704342905,0.3338,"MLP20-LeakyReLU(negative_slope=0.01)
      (2): Dropout(p=0.1, inplace=False)
    )
    (1-19): 19 x Sequential(
      (0): Linear(in_features=3, out_features=3, bias=True)
      -Adagrad-0.01-0"
87,0.6932,0.6933,0.5010609704342905,0.3338,"MLP20-LeakyReLU(negative_slope=0.01)
      (2): Dropout(p=0.1, inplace=False)
    )
    (1-19): 19 x Sequential(
      (0): Linear(in_features=3, out_features=3, bias=True)
      -Adagrad-0.01-0"
88,0.693,0.6933,0.5010609704342905,0.3338,"MLP20-LeakyReLU(negative_slope=0.01)
      (2): Dropout(p=0.1, inplace=False)
    )
    (1-19): 19 x Sequential(
      (0): Linear(in_features=3, out_features=3, bias=True)
      -Adagrad-0.01-0"
89,0.6931,0.6933,0.5010609704342905,0.3338,"MLP20-LeakyReLU(negative_slope=0.01)
      (2): Dropout(p=0.1, inplace=False)
    )
    (1-19): 19 x Sequential(
      (0): Linear(in_features=3, out_features=3, bias=True)
      -Adagrad-0.01-0"
90,0.6931,0.6933,0.5010609704342905,0.3338,"MLP20-LeakyReLU(negative_slope=0.01)
      (2): Dropout(p=0.1, inplace=False)
    )
    (1-19): 19 x Sequential(
      (0): Linear(in_features=3, out_features=3, bias=True)
      -Adagrad-0.01-0"
91,0.6931,0.6933,0.5010609704342905,0.3338,"MLP20-LeakyReLU(negative_slope=0.01)
      (2): Dropout(p=0.1, inplace=False)
    )
    (1-19): 19 x Sequential(
      (0): Linear(in_features=3, out_features=3, bias=True)
      -Adagrad-0.01-0"
92,0.6931,0.6933,0.5010609704342905,0.3338,"MLP20-LeakyReLU(negative_slope=0.01)
      (2): Dropout(p=0.1, inplace=False)
    )
    (1-19): 19 x Sequential(
      (0): Linear(in_features=3, out_features=3, bias=True)
      -Adagrad-0.01-0"
93,0.693,0.6933,0.5010609704342905,0.3338,"MLP20-LeakyReLU(negative_slope=0.01)
      (2): Dropout(p=0.1, inplace=False)
    )
    (1-19): 19 x Sequential(
      (0): Linear(in_features=3, out_features=3, bias=True)
      -Adagrad-0.01-0"
94,0.6931,0.6933,0.5010609704342905,0.3338,"MLP20-LeakyReLU(negative_slope=0.01)
      (2): Dropout(p=0.1, inplace=False)
    )
    (1-19): 19 x Sequential(
      (0): Linear(in_features=3, out_features=3, bias=True)
      -Adagrad-0.01-0"
95,0.693,0.6933,0.5010609704342905,0.3338,"MLP20-LeakyReLU(negative_slope=0.01)
      (2): Dropout(p=0.1, inplace=False)
    )
    (1-19): 19 x Sequential(
      (0): Linear(in_features=3, out_features=3, bias=True)
      -Adagrad-0.01-0"
96,0.693,0.6933,0.5010609704342905,0.3338,"MLP20-LeakyReLU(negative_slope=0.01)
      (2): Dropout(p=0.1, inplace=False)
    )
    (1-19): 19 x Sequential(
      (0): Linear(in_features=3, out_features=3, bias=True)
      -Adagrad-0.01-0"
97,0.6932,0.6933,0.5010609704342905,0.3338,"MLP20-LeakyReLU(negative_slope=0.01)
      (2): Dropout(p=0.1, inplace=False)
    )
    (1-19): 19 x Sequential(
      (0): Linear(in_features=3, out_features=3, bias=True)
      -Adagrad-0.01-0"
98,0.693,0.6933,0.5010609704342905,0.3338,"MLP20-LeakyReLU(negative_slope=0.01)
      (2): Dropout(p=0.1, inplace=False)
    )
    (1-19): 19 x Sequential(
      (0): Linear(in_features=3, out_features=3, bias=True)
      -Adagrad-0.01-0"
99,0.693,0.6933,0.5010609704342905,0.3338,"MLP20-LeakyReLU(negative_slope=0.01)
      (2): Dropout(p=0.1, inplace=False)
    )
    (1-19): 19 x Sequential(
      (0): Linear(in_features=3, out_features=3, bias=True)
      -Adagrad-0.01-0"
100,0.6932,0.6933,0.5010609704342905,0.3338,"MLP20-LeakyReLU(negative_slope=0.01)
      (2): Dropout(p=0.1, inplace=False)
    )
    (1-19): 19 x Sequential(
      (0): Linear(in_features=3, out_features=3, bias=True)
      -Adagrad-0.01-0"
1,0.697,0.6932,0.49893902956570946,0.3329,"MLP20-LeakyReLU(negative_slope=0.01)
      (2): Dropout(p=0.2, inplace=False)
    )
    (1-19): 19 x Sequential(
      (0): Linear(in_features=3, out_features=3, bias=True)
      -Adagrad-0.01-0"
2,0.697,0.6932,0.49893902956570946,0.3329,"MLP20-LeakyReLU(negative_slope=0.01)
      (2): Dropout(p=0.2, inplace=False)
    )
    (1-19): 19 x Sequential(
      (0): Linear(in_features=3, out_features=3, bias=True)
      -Adagrad-0.01-0"
3,0.6955,0.6932,0.49893902956570946,0.3329,"MLP20-LeakyReLU(negative_slope=0.01)
      (2): Dropout(p=0.2, inplace=False)
    )
    (1-19): 19 x Sequential(
      (0): Linear(in_features=3, out_features=3, bias=True)
      -Adagrad-0.01-0"
4,0.6956,0.6931,0.5010609704342905,0.3338,"MLP20-LeakyReLU(negative_slope=0.01)
      (2): Dropout(p=0.2, inplace=False)
    )
    (1-19): 19 x Sequential(
      (0): Linear(in_features=3, out_features=3, bias=True)
      -Adagrad-0.01-0"
5,0.6965,0.6931,0.5010609704342905,0.3338,"MLP20-LeakyReLU(negative_slope=0.01)
      (2): Dropout(p=0.2, inplace=False)
    )
    (1-19): 19 x Sequential(
      (0): Linear(in_features=3, out_features=3, bias=True)
      -Adagrad-0.01-0"
6,0.6947,0.6931,0.5010609704342905,0.3338,"MLP20-LeakyReLU(negative_slope=0.01)
      (2): Dropout(p=0.2, inplace=False)
    )
    (1-19): 19 x Sequential(
      (0): Linear(in_features=3, out_features=3, bias=True)
      -Adagrad-0.01-0"
7,0.6943,0.6931,0.5010609704342905,0.3338,"MLP20-LeakyReLU(negative_slope=0.01)
      (2): Dropout(p=0.2, inplace=False)
    )
    (1-19): 19 x Sequential(
      (0): Linear(in_features=3, out_features=3, bias=True)
      -Adagrad-0.01-0"
8,0.6943,0.6931,0.5010609704342905,0.3338,"MLP20-LeakyReLU(negative_slope=0.01)
      (2): Dropout(p=0.2, inplace=False)
    )
    (1-19): 19 x Sequential(
      (0): Linear(in_features=3, out_features=3, bias=True)
      -Adagrad-0.01-0"
9,0.6945,0.6931,0.5010609704342905,0.3338,"MLP20-LeakyReLU(negative_slope=0.01)
      (2): Dropout(p=0.2, inplace=False)
    )
    (1-19): 19 x Sequential(
      (0): Linear(in_features=3, out_features=3, bias=True)
      -Adagrad-0.01-0"
10,0.6964,0.6931,0.5010609704342905,0.3338,"MLP20-LeakyReLU(negative_slope=0.01)
      (2): Dropout(p=0.2, inplace=False)
    )
    (1-19): 19 x Sequential(
      (0): Linear(in_features=3, out_features=3, bias=True)
      -Adagrad-0.01-0"
11,0.6948,0.6931,0.5010609704342905,0.3338,"MLP20-LeakyReLU(negative_slope=0.01)
      (2): Dropout(p=0.2, inplace=False)
    )
    (1-19): 19 x Sequential(
      (0): Linear(in_features=3, out_features=3, bias=True)
      -Adagrad-0.01-0"
12,0.6953,0.6931,0.5010609704342905,0.3338,"MLP20-LeakyReLU(negative_slope=0.01)
      (2): Dropout(p=0.2, inplace=False)
    )
    (1-19): 19 x Sequential(
      (0): Linear(in_features=3, out_features=3, bias=True)
      -Adagrad-0.01-0"
13,0.6942,0.6931,0.5010609704342905,0.3338,"MLP20-LeakyReLU(negative_slope=0.01)
      (2): Dropout(p=0.2, inplace=False)
    )
    (1-19): 19 x Sequential(
      (0): Linear(in_features=3, out_features=3, bias=True)
      -Adagrad-0.01-0"
14,0.6948,0.6931,0.5010609704342905,0.3338,"MLP20-LeakyReLU(negative_slope=0.01)
      (2): Dropout(p=0.2, inplace=False)
    )
    (1-19): 19 x Sequential(
      (0): Linear(in_features=3, out_features=3, bias=True)
      -Adagrad-0.01-0"
15,0.6952,0.6931,0.5010609704342905,0.3338,"MLP20-LeakyReLU(negative_slope=0.01)
      (2): Dropout(p=0.2, inplace=False)
    )
    (1-19): 19 x Sequential(
      (0): Linear(in_features=3, out_features=3, bias=True)
      -Adagrad-0.01-0"
16,0.6935,0.6931,0.5010609704342905,0.3338,"MLP20-LeakyReLU(negative_slope=0.01)
      (2): Dropout(p=0.2, inplace=False)
    )
    (1-19): 19 x Sequential(
      (0): Linear(in_features=3, out_features=3, bias=True)
      -Adagrad-0.01-0"
17,0.6945,0.6931,0.5010609704342905,0.3338,"MLP20-LeakyReLU(negative_slope=0.01)
      (2): Dropout(p=0.2, inplace=False)
    )
    (1-19): 19 x Sequential(
      (0): Linear(in_features=3, out_features=3, bias=True)
      -Adagrad-0.01-0"
18,0.6937,0.6932,0.5010609704342905,0.3338,"MLP20-LeakyReLU(negative_slope=0.01)
      (2): Dropout(p=0.2, inplace=False)
    )
    (1-19): 19 x Sequential(
      (0): Linear(in_features=3, out_features=3, bias=True)
      -Adagrad-0.01-0"
19,0.6946,0.6932,0.5010609704342905,0.3338,"MLP20-LeakyReLU(negative_slope=0.01)
      (2): Dropout(p=0.2, inplace=False)
    )
    (1-19): 19 x Sequential(
      (0): Linear(in_features=3, out_features=3, bias=True)
      -Adagrad-0.01-0"
20,0.6941,0.6932,0.5010609704342905,0.3338,"MLP20-LeakyReLU(negative_slope=0.01)
      (2): Dropout(p=0.2, inplace=False)
    )
    (1-19): 19 x Sequential(
      (0): Linear(in_features=3, out_features=3, bias=True)
      -Adagrad-0.01-0"
21,0.6944,0.6932,0.5010609704342905,0.3338,"MLP20-LeakyReLU(negative_slope=0.01)
      (2): Dropout(p=0.2, inplace=False)
    )
    (1-19): 19 x Sequential(
      (0): Linear(in_features=3, out_features=3, bias=True)
      -Adagrad-0.01-0"
22,0.6939,0.6932,0.5010609704342905,0.3338,"MLP20-LeakyReLU(negative_slope=0.01)
      (2): Dropout(p=0.2, inplace=False)
    )
    (1-19): 19 x Sequential(
      (0): Linear(in_features=3, out_features=3, bias=True)
      -Adagrad-0.01-0"
23,0.694,0.6932,0.5010609704342905,0.3338,"MLP20-LeakyReLU(negative_slope=0.01)
      (2): Dropout(p=0.2, inplace=False)
    )
    (1-19): 19 x Sequential(
      (0): Linear(in_features=3, out_features=3, bias=True)
      -Adagrad-0.01-0"
24,0.6951,0.6931,0.5010609704342905,0.3338,"MLP20-LeakyReLU(negative_slope=0.01)
      (2): Dropout(p=0.2, inplace=False)
    )
    (1-19): 19 x Sequential(
      (0): Linear(in_features=3, out_features=3, bias=True)
      -Adagrad-0.01-0"
25,0.6941,0.6932,0.5010609704342905,0.3338,"MLP20-LeakyReLU(negative_slope=0.01)
      (2): Dropout(p=0.2, inplace=False)
    )
    (1-19): 19 x Sequential(
      (0): Linear(in_features=3, out_features=3, bias=True)
      -Adagrad-0.01-0"
26,0.6938,0.6932,0.5010609704342905,0.3338,"MLP20-LeakyReLU(negative_slope=0.01)
      (2): Dropout(p=0.2, inplace=False)
    )
    (1-19): 19 x Sequential(
      (0): Linear(in_features=3, out_features=3, bias=True)
      -Adagrad-0.01-0"
27,0.6934,0.6932,0.5010609704342905,0.3338,"MLP20-LeakyReLU(negative_slope=0.01)
      (2): Dropout(p=0.2, inplace=False)
    )
    (1-19): 19 x Sequential(
      (0): Linear(in_features=3, out_features=3, bias=True)
      -Adagrad-0.01-0"
28,0.6945,0.6932,0.5010609704342905,0.3338,"MLP20-LeakyReLU(negative_slope=0.01)
      (2): Dropout(p=0.2, inplace=False)
    )
    (1-19): 19 x Sequential(
      (0): Linear(in_features=3, out_features=3, bias=True)
      -Adagrad-0.01-0"
29,0.6946,0.6932,0.5010609704342905,0.3338,"MLP20-LeakyReLU(negative_slope=0.01)
      (2): Dropout(p=0.2, inplace=False)
    )
    (1-19): 19 x Sequential(
      (0): Linear(in_features=3, out_features=3, bias=True)
      -Adagrad-0.01-0"
30,0.6928,0.6932,0.5010609704342905,0.3338,"MLP20-LeakyReLU(negative_slope=0.01)
      (2): Dropout(p=0.2, inplace=False)
    )
    (1-19): 19 x Sequential(
      (0): Linear(in_features=3, out_features=3, bias=True)
      -Adagrad-0.01-0"
31,0.6936,0.6932,0.5010609704342905,0.3338,"MLP20-LeakyReLU(negative_slope=0.01)
      (2): Dropout(p=0.2, inplace=False)
    )
    (1-19): 19 x Sequential(
      (0): Linear(in_features=3, out_features=3, bias=True)
      -Adagrad-0.01-0"
32,0.6938,0.6932,0.5010609704342905,0.3338,"MLP20-LeakyReLU(negative_slope=0.01)
      (2): Dropout(p=0.2, inplace=False)
    )
    (1-19): 19 x Sequential(
      (0): Linear(in_features=3, out_features=3, bias=True)
      -Adagrad-0.01-0"
33,0.6938,0.6932,0.5010609704342905,0.3338,"MLP20-LeakyReLU(negative_slope=0.01)
      (2): Dropout(p=0.2, inplace=False)
    )
    (1-19): 19 x Sequential(
      (0): Linear(in_features=3, out_features=3, bias=True)
      -Adagrad-0.01-0"
34,0.6943,0.6932,0.5010609704342905,0.3338,"MLP20-LeakyReLU(negative_slope=0.01)
      (2): Dropout(p=0.2, inplace=False)
    )
    (1-19): 19 x Sequential(
      (0): Linear(in_features=3, out_features=3, bias=True)
      -Adagrad-0.01-0"
35,0.694,0.6932,0.5010609704342905,0.3338,"MLP20-LeakyReLU(negative_slope=0.01)
      (2): Dropout(p=0.2, inplace=False)
    )
    (1-19): 19 x Sequential(
      (0): Linear(in_features=3, out_features=3, bias=True)
      -Adagrad-0.01-0"
36,0.6938,0.6932,0.5010609704342905,0.3338,"MLP20-LeakyReLU(negative_slope=0.01)
      (2): Dropout(p=0.2, inplace=False)
    )
    (1-19): 19 x Sequential(
      (0): Linear(in_features=3, out_features=3, bias=True)
      -Adagrad-0.01-0"
37,0.6937,0.6932,0.5010609704342905,0.3338,"MLP20-LeakyReLU(negative_slope=0.01)
      (2): Dropout(p=0.2, inplace=False)
    )
    (1-19): 19 x Sequential(
      (0): Linear(in_features=3, out_features=3, bias=True)
      -Adagrad-0.01-0"
38,0.6942,0.6932,0.5010609704342905,0.3338,"MLP20-LeakyReLU(negative_slope=0.01)
      (2): Dropout(p=0.2, inplace=False)
    )
    (1-19): 19 x Sequential(
      (0): Linear(in_features=3, out_features=3, bias=True)
      -Adagrad-0.01-0"
39,0.6933,0.6932,0.5010609704342905,0.3338,"MLP20-LeakyReLU(negative_slope=0.01)
      (2): Dropout(p=0.2, inplace=False)
    )
    (1-19): 19 x Sequential(
      (0): Linear(in_features=3, out_features=3, bias=True)
      -Adagrad-0.01-0"
40,0.6942,0.6932,0.5010609704342905,0.3338,"MLP20-LeakyReLU(negative_slope=0.01)
      (2): Dropout(p=0.2, inplace=False)
    )
    (1-19): 19 x Sequential(
      (0): Linear(in_features=3, out_features=3, bias=True)
      -Adagrad-0.01-0"
41,0.6942,0.6932,0.5010609704342905,0.3338,"MLP20-LeakyReLU(negative_slope=0.01)
      (2): Dropout(p=0.2, inplace=False)
    )
    (1-19): 19 x Sequential(
      (0): Linear(in_features=3, out_features=3, bias=True)
      -Adagrad-0.01-0"
42,0.6942,0.6932,0.5010609704342905,0.3338,"MLP20-LeakyReLU(negative_slope=0.01)
      (2): Dropout(p=0.2, inplace=False)
    )
    (1-19): 19 x Sequential(
      (0): Linear(in_features=3, out_features=3, bias=True)
      -Adagrad-0.01-0"
43,0.6937,0.6932,0.5010609704342905,0.3338,"MLP20-LeakyReLU(negative_slope=0.01)
      (2): Dropout(p=0.2, inplace=False)
    )
    (1-19): 19 x Sequential(
      (0): Linear(in_features=3, out_features=3, bias=True)
      -Adagrad-0.01-0"
44,0.6934,0.6932,0.5010609704342905,0.3338,"MLP20-LeakyReLU(negative_slope=0.01)
      (2): Dropout(p=0.2, inplace=False)
    )
    (1-19): 19 x Sequential(
      (0): Linear(in_features=3, out_features=3, bias=True)
      -Adagrad-0.01-0"
45,0.6939,0.6932,0.5010609704342905,0.3338,"MLP20-LeakyReLU(negative_slope=0.01)
      (2): Dropout(p=0.2, inplace=False)
    )
    (1-19): 19 x Sequential(
      (0): Linear(in_features=3, out_features=3, bias=True)
      -Adagrad-0.01-0"
46,0.6934,0.6932,0.5010609704342905,0.3338,"MLP20-LeakyReLU(negative_slope=0.01)
      (2): Dropout(p=0.2, inplace=False)
    )
    (1-19): 19 x Sequential(
      (0): Linear(in_features=3, out_features=3, bias=True)
      -Adagrad-0.01-0"
47,0.6938,0.6932,0.5010609704342905,0.3338,"MLP20-LeakyReLU(negative_slope=0.01)
      (2): Dropout(p=0.2, inplace=False)
    )
    (1-19): 19 x Sequential(
      (0): Linear(in_features=3, out_features=3, bias=True)
      -Adagrad-0.01-0"
48,0.6933,0.6932,0.5010609704342905,0.3338,"MLP20-LeakyReLU(negative_slope=0.01)
      (2): Dropout(p=0.2, inplace=False)
    )
    (1-19): 19 x Sequential(
      (0): Linear(in_features=3, out_features=3, bias=True)
      -Adagrad-0.01-0"
49,0.6942,0.6932,0.5010609704342905,0.3338,"MLP20-LeakyReLU(negative_slope=0.01)
      (2): Dropout(p=0.2, inplace=False)
    )
    (1-19): 19 x Sequential(
      (0): Linear(in_features=3, out_features=3, bias=True)
      -Adagrad-0.01-0"
50,0.6933,0.6932,0.5010609704342905,0.3338,"MLP20-LeakyReLU(negative_slope=0.01)
      (2): Dropout(p=0.2, inplace=False)
    )
    (1-19): 19 x Sequential(
      (0): Linear(in_features=3, out_features=3, bias=True)
      -Adagrad-0.01-0"
51,0.6933,0.6932,0.5010609704342905,0.3338,"MLP20-LeakyReLU(negative_slope=0.01)
      (2): Dropout(p=0.2, inplace=False)
    )
    (1-19): 19 x Sequential(
      (0): Linear(in_features=3, out_features=3, bias=True)
      -Adagrad-0.01-0"
52,0.6937,0.6932,0.5010609704342905,0.3338,"MLP20-LeakyReLU(negative_slope=0.01)
      (2): Dropout(p=0.2, inplace=False)
    )
    (1-19): 19 x Sequential(
      (0): Linear(in_features=3, out_features=3, bias=True)
      -Adagrad-0.01-0"
53,0.6936,0.6932,0.5010609704342905,0.3338,"MLP20-LeakyReLU(negative_slope=0.01)
      (2): Dropout(p=0.2, inplace=False)
    )
    (1-19): 19 x Sequential(
      (0): Linear(in_features=3, out_features=3, bias=True)
      -Adagrad-0.01-0"
54,0.6934,0.6932,0.5010609704342905,0.3338,"MLP20-LeakyReLU(negative_slope=0.01)
      (2): Dropout(p=0.2, inplace=False)
    )
    (1-19): 19 x Sequential(
      (0): Linear(in_features=3, out_features=3, bias=True)
      -Adagrad-0.01-0"
55,0.6939,0.6932,0.5010609704342905,0.3338,"MLP20-LeakyReLU(negative_slope=0.01)
      (2): Dropout(p=0.2, inplace=False)
    )
    (1-19): 19 x Sequential(
      (0): Linear(in_features=3, out_features=3, bias=True)
      -Adagrad-0.01-0"
56,0.6931,0.6932,0.5010609704342905,0.3338,"MLP20-LeakyReLU(negative_slope=0.01)
      (2): Dropout(p=0.2, inplace=False)
    )
    (1-19): 19 x Sequential(
      (0): Linear(in_features=3, out_features=3, bias=True)
      -Adagrad-0.01-0"
57,0.6937,0.6932,0.5010609704342905,0.3338,"MLP20-LeakyReLU(negative_slope=0.01)
      (2): Dropout(p=0.2, inplace=False)
    )
    (1-19): 19 x Sequential(
      (0): Linear(in_features=3, out_features=3, bias=True)
      -Adagrad-0.01-0"
58,0.6935,0.6932,0.5010609704342905,0.3338,"MLP20-LeakyReLU(negative_slope=0.01)
      (2): Dropout(p=0.2, inplace=False)
    )
    (1-19): 19 x Sequential(
      (0): Linear(in_features=3, out_features=3, bias=True)
      -Adagrad-0.01-0"
59,0.6938,0.6932,0.5010609704342905,0.3338,"MLP20-LeakyReLU(negative_slope=0.01)
      (2): Dropout(p=0.2, inplace=False)
    )
    (1-19): 19 x Sequential(
      (0): Linear(in_features=3, out_features=3, bias=True)
      -Adagrad-0.01-0"
60,0.694,0.6932,0.5010609704342905,0.3338,"MLP20-LeakyReLU(negative_slope=0.01)
      (2): Dropout(p=0.2, inplace=False)
    )
    (1-19): 19 x Sequential(
      (0): Linear(in_features=3, out_features=3, bias=True)
      -Adagrad-0.01-0"
61,0.6931,0.6932,0.5010609704342905,0.3338,"MLP20-LeakyReLU(negative_slope=0.01)
      (2): Dropout(p=0.2, inplace=False)
    )
    (1-19): 19 x Sequential(
      (0): Linear(in_features=3, out_features=3, bias=True)
      -Adagrad-0.01-0"
62,0.693,0.6932,0.5010609704342905,0.3338,"MLP20-LeakyReLU(negative_slope=0.01)
      (2): Dropout(p=0.2, inplace=False)
    )
    (1-19): 19 x Sequential(
      (0): Linear(in_features=3, out_features=3, bias=True)
      -Adagrad-0.01-0"
63,0.6935,0.6932,0.5010609704342905,0.3338,"MLP20-LeakyReLU(negative_slope=0.01)
      (2): Dropout(p=0.2, inplace=False)
    )
    (1-19): 19 x Sequential(
      (0): Linear(in_features=3, out_features=3, bias=True)
      -Adagrad-0.01-0"
64,0.6941,0.6932,0.5010609704342905,0.3338,"MLP20-LeakyReLU(negative_slope=0.01)
      (2): Dropout(p=0.2, inplace=False)
    )
    (1-19): 19 x Sequential(
      (0): Linear(in_features=3, out_features=3, bias=True)
      -Adagrad-0.01-0"
65,0.6938,0.6932,0.5010609704342905,0.3338,"MLP20-LeakyReLU(negative_slope=0.01)
      (2): Dropout(p=0.2, inplace=False)
    )
    (1-19): 19 x Sequential(
      (0): Linear(in_features=3, out_features=3, bias=True)
      -Adagrad-0.01-0"
66,0.6934,0.6932,0.5010609704342905,0.3338,"MLP20-LeakyReLU(negative_slope=0.01)
      (2): Dropout(p=0.2, inplace=False)
    )
    (1-19): 19 x Sequential(
      (0): Linear(in_features=3, out_features=3, bias=True)
      -Adagrad-0.01-0"
67,0.6933,0.6932,0.5010609704342905,0.3338,"MLP20-LeakyReLU(negative_slope=0.01)
      (2): Dropout(p=0.2, inplace=False)
    )
    (1-19): 19 x Sequential(
      (0): Linear(in_features=3, out_features=3, bias=True)
      -Adagrad-0.01-0"
68,0.6938,0.6932,0.5010609704342905,0.3338,"MLP20-LeakyReLU(negative_slope=0.01)
      (2): Dropout(p=0.2, inplace=False)
    )
    (1-19): 19 x Sequential(
      (0): Linear(in_features=3, out_features=3, bias=True)
      -Adagrad-0.01-0"
69,0.6932,0.6932,0.5010609704342905,0.3338,"MLP20-LeakyReLU(negative_slope=0.01)
      (2): Dropout(p=0.2, inplace=False)
    )
    (1-19): 19 x Sequential(
      (0): Linear(in_features=3, out_features=3, bias=True)
      -Adagrad-0.01-0"
70,0.6937,0.6932,0.5010609704342905,0.3338,"MLP20-LeakyReLU(negative_slope=0.01)
      (2): Dropout(p=0.2, inplace=False)
    )
    (1-19): 19 x Sequential(
      (0): Linear(in_features=3, out_features=3, bias=True)
      -Adagrad-0.01-0"
71,0.6937,0.6932,0.5010609704342905,0.3338,"MLP20-LeakyReLU(negative_slope=0.01)
      (2): Dropout(p=0.2, inplace=False)
    )
    (1-19): 19 x Sequential(
      (0): Linear(in_features=3, out_features=3, bias=True)
      -Adagrad-0.01-0"
72,0.6936,0.6932,0.5010609704342905,0.3338,"MLP20-LeakyReLU(negative_slope=0.01)
      (2): Dropout(p=0.2, inplace=False)
    )
    (1-19): 19 x Sequential(
      (0): Linear(in_features=3, out_features=3, bias=True)
      -Adagrad-0.01-0"
73,0.6934,0.6932,0.5010609704342905,0.3338,"MLP20-LeakyReLU(negative_slope=0.01)
      (2): Dropout(p=0.2, inplace=False)
    )
    (1-19): 19 x Sequential(
      (0): Linear(in_features=3, out_features=3, bias=True)
      -Adagrad-0.01-0"
74,0.6934,0.6932,0.5010609704342905,0.3338,"MLP20-LeakyReLU(negative_slope=0.01)
      (2): Dropout(p=0.2, inplace=False)
    )
    (1-19): 19 x Sequential(
      (0): Linear(in_features=3, out_features=3, bias=True)
      -Adagrad-0.01-0"
75,0.6935,0.6932,0.5010609704342905,0.3338,"MLP20-LeakyReLU(negative_slope=0.01)
      (2): Dropout(p=0.2, inplace=False)
    )
    (1-19): 19 x Sequential(
      (0): Linear(in_features=3, out_features=3, bias=True)
      -Adagrad-0.01-0"
76,0.6937,0.6932,0.5010609704342905,0.3338,"MLP20-LeakyReLU(negative_slope=0.01)
      (2): Dropout(p=0.2, inplace=False)
    )
    (1-19): 19 x Sequential(
      (0): Linear(in_features=3, out_features=3, bias=True)
      -Adagrad-0.01-0"
77,0.6934,0.6932,0.5010609704342905,0.3338,"MLP20-LeakyReLU(negative_slope=0.01)
      (2): Dropout(p=0.2, inplace=False)
    )
    (1-19): 19 x Sequential(
      (0): Linear(in_features=3, out_features=3, bias=True)
      -Adagrad-0.01-0"
78,0.6928,0.6932,0.5010609704342905,0.3338,"MLP20-LeakyReLU(negative_slope=0.01)
      (2): Dropout(p=0.2, inplace=False)
    )
    (1-19): 19 x Sequential(
      (0): Linear(in_features=3, out_features=3, bias=True)
      -Adagrad-0.01-0"
79,0.6938,0.6932,0.5010609704342905,0.3338,"MLP20-LeakyReLU(negative_slope=0.01)
      (2): Dropout(p=0.2, inplace=False)
    )
    (1-19): 19 x Sequential(
      (0): Linear(in_features=3, out_features=3, bias=True)
      -Adagrad-0.01-0"
80,0.6938,0.6932,0.5010609704342905,0.3338,"MLP20-LeakyReLU(negative_slope=0.01)
      (2): Dropout(p=0.2, inplace=False)
    )
    (1-19): 19 x Sequential(
      (0): Linear(in_features=3, out_features=3, bias=True)
      -Adagrad-0.01-0"
81,0.6936,0.6932,0.5010609704342905,0.3338,"MLP20-LeakyReLU(negative_slope=0.01)
      (2): Dropout(p=0.2, inplace=False)
    )
    (1-19): 19 x Sequential(
      (0): Linear(in_features=3, out_features=3, bias=True)
      -Adagrad-0.01-0"
82,0.6933,0.6932,0.5010609704342905,0.3338,"MLP20-LeakyReLU(negative_slope=0.01)
      (2): Dropout(p=0.2, inplace=False)
    )
    (1-19): 19 x Sequential(
      (0): Linear(in_features=3, out_features=3, bias=True)
      -Adagrad-0.01-0"
83,0.6937,0.6932,0.5010609704342905,0.3338,"MLP20-LeakyReLU(negative_slope=0.01)
      (2): Dropout(p=0.2, inplace=False)
    )
    (1-19): 19 x Sequential(
      (0): Linear(in_features=3, out_features=3, bias=True)
      -Adagrad-0.01-0"
84,0.6941,0.6932,0.5010609704342905,0.3338,"MLP20-LeakyReLU(negative_slope=0.01)
      (2): Dropout(p=0.2, inplace=False)
    )
    (1-19): 19 x Sequential(
      (0): Linear(in_features=3, out_features=3, bias=True)
      -Adagrad-0.01-0"
85,0.6934,0.6932,0.5010609704342905,0.3338,"MLP20-LeakyReLU(negative_slope=0.01)
      (2): Dropout(p=0.2, inplace=False)
    )
    (1-19): 19 x Sequential(
      (0): Linear(in_features=3, out_features=3, bias=True)
      -Adagrad-0.01-0"
86,0.6938,0.6932,0.5010609704342905,0.3338,"MLP20-LeakyReLU(negative_slope=0.01)
      (2): Dropout(p=0.2, inplace=False)
    )
    (1-19): 19 x Sequential(
      (0): Linear(in_features=3, out_features=3, bias=True)
      -Adagrad-0.01-0"
87,0.6931,0.6932,0.5010609704342905,0.3338,"MLP20-LeakyReLU(negative_slope=0.01)
      (2): Dropout(p=0.2, inplace=False)
    )
    (1-19): 19 x Sequential(
      (0): Linear(in_features=3, out_features=3, bias=True)
      -Adagrad-0.01-0"
88,0.6933,0.6932,0.5010609704342905,0.3338,"MLP20-LeakyReLU(negative_slope=0.01)
      (2): Dropout(p=0.2, inplace=False)
    )
    (1-19): 19 x Sequential(
      (0): Linear(in_features=3, out_features=3, bias=True)
      -Adagrad-0.01-0"
89,0.6936,0.6932,0.5010609704342905,0.3338,"MLP20-LeakyReLU(negative_slope=0.01)
      (2): Dropout(p=0.2, inplace=False)
    )
    (1-19): 19 x Sequential(
      (0): Linear(in_features=3, out_features=3, bias=True)
      -Adagrad-0.01-0"
90,0.6932,0.6932,0.5010609704342905,0.3338,"MLP20-LeakyReLU(negative_slope=0.01)
      (2): Dropout(p=0.2, inplace=False)
    )
    (1-19): 19 x Sequential(
      (0): Linear(in_features=3, out_features=3, bias=True)
      -Adagrad-0.01-0"
91,0.693,0.6932,0.5010609704342905,0.3338,"MLP20-LeakyReLU(negative_slope=0.01)
      (2): Dropout(p=0.2, inplace=False)
    )
    (1-19): 19 x Sequential(
      (0): Linear(in_features=3, out_features=3, bias=True)
      -Adagrad-0.01-0"
92,0.6935,0.6932,0.5010609704342905,0.3338,"MLP20-LeakyReLU(negative_slope=0.01)
      (2): Dropout(p=0.2, inplace=False)
    )
    (1-19): 19 x Sequential(
      (0): Linear(in_features=3, out_features=3, bias=True)
      -Adagrad-0.01-0"
93,0.6937,0.6932,0.5010609704342905,0.3338,"MLP20-LeakyReLU(negative_slope=0.01)
      (2): Dropout(p=0.2, inplace=False)
    )
    (1-19): 19 x Sequential(
      (0): Linear(in_features=3, out_features=3, bias=True)
      -Adagrad-0.01-0"
94,0.6937,0.6932,0.5010609704342905,0.3338,"MLP20-LeakyReLU(negative_slope=0.01)
      (2): Dropout(p=0.2, inplace=False)
    )
    (1-19): 19 x Sequential(
      (0): Linear(in_features=3, out_features=3, bias=True)
      -Adagrad-0.01-0"
95,0.6938,0.6932,0.5010609704342905,0.3338,"MLP20-LeakyReLU(negative_slope=0.01)
      (2): Dropout(p=0.2, inplace=False)
    )
    (1-19): 19 x Sequential(
      (0): Linear(in_features=3, out_features=3, bias=True)
      -Adagrad-0.01-0"
96,0.6933,0.6932,0.5010609704342905,0.3338,"MLP20-LeakyReLU(negative_slope=0.01)
      (2): Dropout(p=0.2, inplace=False)
    )
    (1-19): 19 x Sequential(
      (0): Linear(in_features=3, out_features=3, bias=True)
      -Adagrad-0.01-0"
97,0.694,0.6932,0.5010609704342905,0.3338,"MLP20-LeakyReLU(negative_slope=0.01)
      (2): Dropout(p=0.2, inplace=False)
    )
    (1-19): 19 x Sequential(
      (0): Linear(in_features=3, out_features=3, bias=True)
      -Adagrad-0.01-0"
98,0.6932,0.6932,0.5010609704342905,0.3338,"MLP20-LeakyReLU(negative_slope=0.01)
      (2): Dropout(p=0.2, inplace=False)
    )
    (1-19): 19 x Sequential(
      (0): Linear(in_features=3, out_features=3, bias=True)
      -Adagrad-0.01-0"
99,0.6939,0.6932,0.5010609704342905,0.3338,"MLP20-LeakyReLU(negative_slope=0.01)
      (2): Dropout(p=0.2, inplace=False)
    )
    (1-19): 19 x Sequential(
      (0): Linear(in_features=3, out_features=3, bias=True)
      -Adagrad-0.01-0"
100,0.6933,0.6932,0.5010609704342905,0.3338,"MLP20-LeakyReLU(negative_slope=0.01)
      (2): Dropout(p=0.2, inplace=False)
    )
    (1-19): 19 x Sequential(
      (0): Linear(in_features=3, out_features=3, bias=True)
      -Adagrad-0.01-0"
1,0.7165,0.6995,0.49893902956570946,0.3329,"MLP20-LeakyReLU(negative_slope=0.01)
      (2): Dropout(p=0.4, inplace=False)
    )
    (1-19): 19 x Sequential(
      (0): Linear(in_features=3, out_features=3, bias=True)
      -Adagrad-0.01-0"
2,0.7027,0.695,0.49893902956570946,0.3329,"MLP20-LeakyReLU(negative_slope=0.01)
      (2): Dropout(p=0.4, inplace=False)
    )
    (1-19): 19 x Sequential(
      (0): Linear(in_features=3, out_features=3, bias=True)
      -Adagrad-0.01-0"
3,0.6974,0.6938,0.49893902956570946,0.3329,"MLP20-LeakyReLU(negative_slope=0.01)
      (2): Dropout(p=0.4, inplace=False)
    )
    (1-19): 19 x Sequential(
      (0): Linear(in_features=3, out_features=3, bias=True)
      -Adagrad-0.01-0"
4,0.697,0.6935,0.49893902956570946,0.3329,"MLP20-LeakyReLU(negative_slope=0.01)
      (2): Dropout(p=0.4, inplace=False)
    )
    (1-19): 19 x Sequential(
      (0): Linear(in_features=3, out_features=3, bias=True)
      -Adagrad-0.01-0"
5,0.6979,0.6934,0.49893902956570946,0.3329,"MLP20-LeakyReLU(negative_slope=0.01)
      (2): Dropout(p=0.4, inplace=False)
    )
    (1-19): 19 x Sequential(
      (0): Linear(in_features=3, out_features=3, bias=True)
      -Adagrad-0.01-0"
6,0.6952,0.6932,0.49893902956570946,0.3329,"MLP20-LeakyReLU(negative_slope=0.01)
      (2): Dropout(p=0.4, inplace=False)
    )
    (1-19): 19 x Sequential(
      (0): Linear(in_features=3, out_features=3, bias=True)
      -Adagrad-0.01-0"
7,0.6955,0.6932,0.49893902956570946,0.3329,"MLP20-LeakyReLU(negative_slope=0.01)
      (2): Dropout(p=0.4, inplace=False)
    )
    (1-19): 19 x Sequential(
      (0): Linear(in_features=3, out_features=3, bias=True)
      -Adagrad-0.01-0"
8,0.696,0.6932,0.49893902956570946,0.3329,"MLP20-LeakyReLU(negative_slope=0.01)
      (2): Dropout(p=0.4, inplace=False)
    )
    (1-19): 19 x Sequential(
      (0): Linear(in_features=3, out_features=3, bias=True)
      -Adagrad-0.01-0"
9,0.695,0.6932,0.49893902956570946,0.3329,"MLP20-LeakyReLU(negative_slope=0.01)
      (2): Dropout(p=0.4, inplace=False)
    )
    (1-19): 19 x Sequential(
      (0): Linear(in_features=3, out_features=3, bias=True)
      -Adagrad-0.01-0"
10,0.6947,0.6932,0.49893902956570946,0.3329,"MLP20-LeakyReLU(negative_slope=0.01)
      (2): Dropout(p=0.4, inplace=False)
    )
    (1-19): 19 x Sequential(
      (0): Linear(in_features=3, out_features=3, bias=True)
      -Adagrad-0.01-0"
11,0.6943,0.6932,0.49893902956570946,0.3329,"MLP20-LeakyReLU(negative_slope=0.01)
      (2): Dropout(p=0.4, inplace=False)
    )
    (1-19): 19 x Sequential(
      (0): Linear(in_features=3, out_features=3, bias=True)
      -Adagrad-0.01-0"
12,0.6945,0.6932,0.49893902956570946,0.3329,"MLP20-LeakyReLU(negative_slope=0.01)
      (2): Dropout(p=0.4, inplace=False)
    )
    (1-19): 19 x Sequential(
      (0): Linear(in_features=3, out_features=3, bias=True)
      -Adagrad-0.01-0"
13,0.6939,0.6931,0.49893902956570946,0.3329,"MLP20-LeakyReLU(negative_slope=0.01)
      (2): Dropout(p=0.4, inplace=False)
    )
    (1-19): 19 x Sequential(
      (0): Linear(in_features=3, out_features=3, bias=True)
      -Adagrad-0.01-0"
14,0.6945,0.6931,0.49893902956570946,0.3329,"MLP20-LeakyReLU(negative_slope=0.01)
      (2): Dropout(p=0.4, inplace=False)
    )
    (1-19): 19 x Sequential(
      (0): Linear(in_features=3, out_features=3, bias=True)
      -Adagrad-0.01-0"
15,0.6955,0.6931,0.5010609704342905,0.3338,"MLP20-LeakyReLU(negative_slope=0.01)
      (2): Dropout(p=0.4, inplace=False)
    )
    (1-19): 19 x Sequential(
      (0): Linear(in_features=3, out_features=3, bias=True)
      -Adagrad-0.01-0"
16,0.694,0.6931,0.5010609704342905,0.3338,"MLP20-LeakyReLU(negative_slope=0.01)
      (2): Dropout(p=0.4, inplace=False)
    )
    (1-19): 19 x Sequential(
      (0): Linear(in_features=3, out_features=3, bias=True)
      -Adagrad-0.01-0"
17,0.6938,0.6931,0.5010609704342905,0.3338,"MLP20-LeakyReLU(negative_slope=0.01)
      (2): Dropout(p=0.4, inplace=False)
    )
    (1-19): 19 x Sequential(
      (0): Linear(in_features=3, out_features=3, bias=True)
      -Adagrad-0.01-0"
18,0.6941,0.6931,0.5010609704342905,0.3338,"MLP20-LeakyReLU(negative_slope=0.01)
      (2): Dropout(p=0.4, inplace=False)
    )
    (1-19): 19 x Sequential(
      (0): Linear(in_features=3, out_features=3, bias=True)
      -Adagrad-0.01-0"
19,0.694,0.6931,0.5010609704342905,0.3338,"MLP20-LeakyReLU(negative_slope=0.01)
      (2): Dropout(p=0.4, inplace=False)
    )
    (1-19): 19 x Sequential(
      (0): Linear(in_features=3, out_features=3, bias=True)
      -Adagrad-0.01-0"
20,0.6942,0.6931,0.5010609704342905,0.3338,"MLP20-LeakyReLU(negative_slope=0.01)
      (2): Dropout(p=0.4, inplace=False)
    )
    (1-19): 19 x Sequential(
      (0): Linear(in_features=3, out_features=3, bias=True)
      -Adagrad-0.01-0"
21,0.6932,0.6932,0.5010609704342905,0.3338,"MLP20-LeakyReLU(negative_slope=0.01)
      (2): Dropout(p=0.4, inplace=False)
    )
    (1-19): 19 x Sequential(
      (0): Linear(in_features=3, out_features=3, bias=True)
      -Adagrad-0.01-0"
22,0.6946,0.6932,0.5010609704342905,0.3338,"MLP20-LeakyReLU(negative_slope=0.01)
      (2): Dropout(p=0.4, inplace=False)
    )
    (1-19): 19 x Sequential(
      (0): Linear(in_features=3, out_features=3, bias=True)
      -Adagrad-0.01-0"
23,0.6939,0.6932,0.5010609704342905,0.3338,"MLP20-LeakyReLU(negative_slope=0.01)
      (2): Dropout(p=0.4, inplace=False)
    )
    (1-19): 19 x Sequential(
      (0): Linear(in_features=3, out_features=3, bias=True)
      -Adagrad-0.01-0"
24,0.6928,0.6932,0.5010609704342905,0.3338,"MLP20-LeakyReLU(negative_slope=0.01)
      (2): Dropout(p=0.4, inplace=False)
    )
    (1-19): 19 x Sequential(
      (0): Linear(in_features=3, out_features=3, bias=True)
      -Adagrad-0.01-0"
25,0.6943,0.6932,0.5010609704342905,0.3338,"MLP20-LeakyReLU(negative_slope=0.01)
      (2): Dropout(p=0.4, inplace=False)
    )
    (1-19): 19 x Sequential(
      (0): Linear(in_features=3, out_features=3, bias=True)
      -Adagrad-0.01-0"
26,0.6946,0.6932,0.5010609704342905,0.3338,"MLP20-LeakyReLU(negative_slope=0.01)
      (2): Dropout(p=0.4, inplace=False)
    )
    (1-19): 19 x Sequential(
      (0): Linear(in_features=3, out_features=3, bias=True)
      -Adagrad-0.01-0"
27,0.6934,0.6932,0.5010609704342905,0.3338,"MLP20-LeakyReLU(negative_slope=0.01)
      (2): Dropout(p=0.4, inplace=False)
    )
    (1-19): 19 x Sequential(
      (0): Linear(in_features=3, out_features=3, bias=True)
      -Adagrad-0.01-0"
28,0.6938,0.6932,0.5010609704342905,0.3338,"MLP20-LeakyReLU(negative_slope=0.01)
      (2): Dropout(p=0.4, inplace=False)
    )
    (1-19): 19 x Sequential(
      (0): Linear(in_features=3, out_features=3, bias=True)
      -Adagrad-0.01-0"
29,0.6934,0.6932,0.5010609704342905,0.3338,"MLP20-LeakyReLU(negative_slope=0.01)
      (2): Dropout(p=0.4, inplace=False)
    )
    (1-19): 19 x Sequential(
      (0): Linear(in_features=3, out_features=3, bias=True)
      -Adagrad-0.01-0"
30,0.6934,0.6932,0.5010609704342905,0.3338,"MLP20-LeakyReLU(negative_slope=0.01)
      (2): Dropout(p=0.4, inplace=False)
    )
    (1-19): 19 x Sequential(
      (0): Linear(in_features=3, out_features=3, bias=True)
      -Adagrad-0.01-0"
31,0.6932,0.6932,0.5010609704342905,0.3338,"MLP20-LeakyReLU(negative_slope=0.01)
      (2): Dropout(p=0.4, inplace=False)
    )
    (1-19): 19 x Sequential(
      (0): Linear(in_features=3, out_features=3, bias=True)
      -Adagrad-0.01-0"
32,0.6939,0.6932,0.5010609704342905,0.3338,"MLP20-LeakyReLU(negative_slope=0.01)
      (2): Dropout(p=0.4, inplace=False)
    )
    (1-19): 19 x Sequential(
      (0): Linear(in_features=3, out_features=3, bias=True)
      -Adagrad-0.01-0"
33,0.693,0.6932,0.5010609704342905,0.3338,"MLP20-LeakyReLU(negative_slope=0.01)
      (2): Dropout(p=0.4, inplace=False)
    )
    (1-19): 19 x Sequential(
      (0): Linear(in_features=3, out_features=3, bias=True)
      -Adagrad-0.01-0"
34,0.6931,0.6932,0.5010609704342905,0.3338,"MLP20-LeakyReLU(negative_slope=0.01)
      (2): Dropout(p=0.4, inplace=False)
    )
    (1-19): 19 x Sequential(
      (0): Linear(in_features=3, out_features=3, bias=True)
      -Adagrad-0.01-0"
35,0.6933,0.6932,0.5010609704342905,0.3338,"MLP20-LeakyReLU(negative_slope=0.01)
      (2): Dropout(p=0.4, inplace=False)
    )
    (1-19): 19 x Sequential(
      (0): Linear(in_features=3, out_features=3, bias=True)
      -Adagrad-0.01-0"
36,0.6937,0.6932,0.5010609704342905,0.3338,"MLP20-LeakyReLU(negative_slope=0.01)
      (2): Dropout(p=0.4, inplace=False)
    )
    (1-19): 19 x Sequential(
      (0): Linear(in_features=3, out_features=3, bias=True)
      -Adagrad-0.01-0"
37,0.6933,0.6932,0.5010609704342905,0.3338,"MLP20-LeakyReLU(negative_slope=0.01)
      (2): Dropout(p=0.4, inplace=False)
    )
    (1-19): 19 x Sequential(
      (0): Linear(in_features=3, out_features=3, bias=True)
      -Adagrad-0.01-0"
38,0.6943,0.6932,0.5010609704342905,0.3338,"MLP20-LeakyReLU(negative_slope=0.01)
      (2): Dropout(p=0.4, inplace=False)
    )
    (1-19): 19 x Sequential(
      (0): Linear(in_features=3, out_features=3, bias=True)
      -Adagrad-0.01-0"
39,0.6937,0.6932,0.5010609704342905,0.3338,"MLP20-LeakyReLU(negative_slope=0.01)
      (2): Dropout(p=0.4, inplace=False)
    )
    (1-19): 19 x Sequential(
      (0): Linear(in_features=3, out_features=3, bias=True)
      -Adagrad-0.01-0"
40,0.6937,0.6932,0.5010609704342905,0.3338,"MLP20-LeakyReLU(negative_slope=0.01)
      (2): Dropout(p=0.4, inplace=False)
    )
    (1-19): 19 x Sequential(
      (0): Linear(in_features=3, out_features=3, bias=True)
      -Adagrad-0.01-0"
41,0.693,0.6932,0.5010609704342905,0.3338,"MLP20-LeakyReLU(negative_slope=0.01)
      (2): Dropout(p=0.4, inplace=False)
    )
    (1-19): 19 x Sequential(
      (0): Linear(in_features=3, out_features=3, bias=True)
      -Adagrad-0.01-0"
42,0.6936,0.6932,0.5010609704342905,0.3338,"MLP20-LeakyReLU(negative_slope=0.01)
      (2): Dropout(p=0.4, inplace=False)
    )
    (1-19): 19 x Sequential(
      (0): Linear(in_features=3, out_features=3, bias=True)
      -Adagrad-0.01-0"
43,0.6932,0.6932,0.5010609704342905,0.3338,"MLP20-LeakyReLU(negative_slope=0.01)
      (2): Dropout(p=0.4, inplace=False)
    )
    (1-19): 19 x Sequential(
      (0): Linear(in_features=3, out_features=3, bias=True)
      -Adagrad-0.01-0"
44,0.6931,0.6932,0.5010609704342905,0.3338,"MLP20-LeakyReLU(negative_slope=0.01)
      (2): Dropout(p=0.4, inplace=False)
    )
    (1-19): 19 x Sequential(
      (0): Linear(in_features=3, out_features=3, bias=True)
      -Adagrad-0.01-0"
45,0.6931,0.6932,0.5010609704342905,0.3338,"MLP20-LeakyReLU(negative_slope=0.01)
      (2): Dropout(p=0.4, inplace=False)
    )
    (1-19): 19 x Sequential(
      (0): Linear(in_features=3, out_features=3, bias=True)
      -Adagrad-0.01-0"
46,0.6935,0.6932,0.5010609704342905,0.3338,"MLP20-LeakyReLU(negative_slope=0.01)
      (2): Dropout(p=0.4, inplace=False)
    )
    (1-19): 19 x Sequential(
      (0): Linear(in_features=3, out_features=3, bias=True)
      -Adagrad-0.01-0"
47,0.6934,0.6932,0.5010609704342905,0.3338,"MLP20-LeakyReLU(negative_slope=0.01)
      (2): Dropout(p=0.4, inplace=False)
    )
    (1-19): 19 x Sequential(
      (0): Linear(in_features=3, out_features=3, bias=True)
      -Adagrad-0.01-0"
48,0.6932,0.6932,0.5010609704342905,0.3338,"MLP20-LeakyReLU(negative_slope=0.01)
      (2): Dropout(p=0.4, inplace=False)
    )
    (1-19): 19 x Sequential(
      (0): Linear(in_features=3, out_features=3, bias=True)
      -Adagrad-0.01-0"
49,0.6927,0.6932,0.5010609704342905,0.3338,"MLP20-LeakyReLU(negative_slope=0.01)
      (2): Dropout(p=0.4, inplace=False)
    )
    (1-19): 19 x Sequential(
      (0): Linear(in_features=3, out_features=3, bias=True)
      -Adagrad-0.01-0"
50,0.6934,0.6932,0.5010609704342905,0.3338,"MLP20-LeakyReLU(negative_slope=0.01)
      (2): Dropout(p=0.4, inplace=False)
    )
    (1-19): 19 x Sequential(
      (0): Linear(in_features=3, out_features=3, bias=True)
      -Adagrad-0.01-0"
51,0.6932,0.6932,0.5010609704342905,0.3338,"MLP20-LeakyReLU(negative_slope=0.01)
      (2): Dropout(p=0.4, inplace=False)
    )
    (1-19): 19 x Sequential(
      (0): Linear(in_features=3, out_features=3, bias=True)
      -Adagrad-0.01-0"
52,0.6939,0.6932,0.5010609704342905,0.3338,"MLP20-LeakyReLU(negative_slope=0.01)
      (2): Dropout(p=0.4, inplace=False)
    )
    (1-19): 19 x Sequential(
      (0): Linear(in_features=3, out_features=3, bias=True)
      -Adagrad-0.01-0"
53,0.6935,0.6932,0.5010609704342905,0.3338,"MLP20-LeakyReLU(negative_slope=0.01)
      (2): Dropout(p=0.4, inplace=False)
    )
    (1-19): 19 x Sequential(
      (0): Linear(in_features=3, out_features=3, bias=True)
      -Adagrad-0.01-0"
54,0.6935,0.6932,0.5010609704342905,0.3338,"MLP20-LeakyReLU(negative_slope=0.01)
      (2): Dropout(p=0.4, inplace=False)
    )
    (1-19): 19 x Sequential(
      (0): Linear(in_features=3, out_features=3, bias=True)
      -Adagrad-0.01-0"
55,0.693,0.6932,0.5010609704342905,0.3338,"MLP20-LeakyReLU(negative_slope=0.01)
      (2): Dropout(p=0.4, inplace=False)
    )
    (1-19): 19 x Sequential(
      (0): Linear(in_features=3, out_features=3, bias=True)
      -Adagrad-0.01-0"
56,0.6933,0.6932,0.5010609704342905,0.3338,"MLP20-LeakyReLU(negative_slope=0.01)
      (2): Dropout(p=0.4, inplace=False)
    )
    (1-19): 19 x Sequential(
      (0): Linear(in_features=3, out_features=3, bias=True)
      -Adagrad-0.01-0"
57,0.6935,0.6932,0.5010609704342905,0.3338,"MLP20-LeakyReLU(negative_slope=0.01)
      (2): Dropout(p=0.4, inplace=False)
    )
    (1-19): 19 x Sequential(
      (0): Linear(in_features=3, out_features=3, bias=True)
      -Adagrad-0.01-0"
58,0.6938,0.6932,0.5010609704342905,0.3338,"MLP20-LeakyReLU(negative_slope=0.01)
      (2): Dropout(p=0.4, inplace=False)
    )
    (1-19): 19 x Sequential(
      (0): Linear(in_features=3, out_features=3, bias=True)
      -Adagrad-0.01-0"
59,0.6937,0.6932,0.5010609704342905,0.3338,"MLP20-LeakyReLU(negative_slope=0.01)
      (2): Dropout(p=0.4, inplace=False)
    )
    (1-19): 19 x Sequential(
      (0): Linear(in_features=3, out_features=3, bias=True)
      -Adagrad-0.01-0"
60,0.6932,0.6932,0.5010609704342905,0.3338,"MLP20-LeakyReLU(negative_slope=0.01)
      (2): Dropout(p=0.4, inplace=False)
    )
    (1-19): 19 x Sequential(
      (0): Linear(in_features=3, out_features=3, bias=True)
      -Adagrad-0.01-0"
61,0.6932,0.6932,0.5010609704342905,0.3338,"MLP20-LeakyReLU(negative_slope=0.01)
      (2): Dropout(p=0.4, inplace=False)
    )
    (1-19): 19 x Sequential(
      (0): Linear(in_features=3, out_features=3, bias=True)
      -Adagrad-0.01-0"
62,0.6934,0.6932,0.5010609704342905,0.3338,"MLP20-LeakyReLU(negative_slope=0.01)
      (2): Dropout(p=0.4, inplace=False)
    )
    (1-19): 19 x Sequential(
      (0): Linear(in_features=3, out_features=3, bias=True)
      -Adagrad-0.01-0"
63,0.6939,0.6932,0.5010609704342905,0.3338,"MLP20-LeakyReLU(negative_slope=0.01)
      (2): Dropout(p=0.4, inplace=False)
    )
    (1-19): 19 x Sequential(
      (0): Linear(in_features=3, out_features=3, bias=True)
      -Adagrad-0.01-0"
64,0.6934,0.6932,0.5010609704342905,0.3338,"MLP20-LeakyReLU(negative_slope=0.01)
      (2): Dropout(p=0.4, inplace=False)
    )
    (1-19): 19 x Sequential(
      (0): Linear(in_features=3, out_features=3, bias=True)
      -Adagrad-0.01-0"
65,0.6929,0.6932,0.5010609704342905,0.3338,"MLP20-LeakyReLU(negative_slope=0.01)
      (2): Dropout(p=0.4, inplace=False)
    )
    (1-19): 19 x Sequential(
      (0): Linear(in_features=3, out_features=3, bias=True)
      -Adagrad-0.01-0"
66,0.6931,0.6932,0.5010609704342905,0.3338,"MLP20-LeakyReLU(negative_slope=0.01)
      (2): Dropout(p=0.4, inplace=False)
    )
    (1-19): 19 x Sequential(
      (0): Linear(in_features=3, out_features=3, bias=True)
      -Adagrad-0.01-0"
67,0.693,0.6932,0.5010609704342905,0.3338,"MLP20-LeakyReLU(negative_slope=0.01)
      (2): Dropout(p=0.4, inplace=False)
    )
    (1-19): 19 x Sequential(
      (0): Linear(in_features=3, out_features=3, bias=True)
      -Adagrad-0.01-0"
68,0.6934,0.6932,0.5010609704342905,0.3338,"MLP20-LeakyReLU(negative_slope=0.01)
      (2): Dropout(p=0.4, inplace=False)
    )
    (1-19): 19 x Sequential(
      (0): Linear(in_features=3, out_features=3, bias=True)
      -Adagrad-0.01-0"
69,0.6932,0.6932,0.5010609704342905,0.3338,"MLP20-LeakyReLU(negative_slope=0.01)
      (2): Dropout(p=0.4, inplace=False)
    )
    (1-19): 19 x Sequential(
      (0): Linear(in_features=3, out_features=3, bias=True)
      -Adagrad-0.01-0"
70,0.6929,0.6932,0.5010609704342905,0.3338,"MLP20-LeakyReLU(negative_slope=0.01)
      (2): Dropout(p=0.4, inplace=False)
    )
    (1-19): 19 x Sequential(
      (0): Linear(in_features=3, out_features=3, bias=True)
      -Adagrad-0.01-0"
71,0.6935,0.6932,0.5010609704342905,0.3338,"MLP20-LeakyReLU(negative_slope=0.01)
      (2): Dropout(p=0.4, inplace=False)
    )
    (1-19): 19 x Sequential(
      (0): Linear(in_features=3, out_features=3, bias=True)
      -Adagrad-0.01-0"
72,0.6934,0.6932,0.5010609704342905,0.3338,"MLP20-LeakyReLU(negative_slope=0.01)
      (2): Dropout(p=0.4, inplace=False)
    )
    (1-19): 19 x Sequential(
      (0): Linear(in_features=3, out_features=3, bias=True)
      -Adagrad-0.01-0"
73,0.6934,0.6932,0.5010609704342905,0.3338,"MLP20-LeakyReLU(negative_slope=0.01)
      (2): Dropout(p=0.4, inplace=False)
    )
    (1-19): 19 x Sequential(
      (0): Linear(in_features=3, out_features=3, bias=True)
      -Adagrad-0.01-0"
74,0.6934,0.6932,0.5010609704342905,0.3338,"MLP20-LeakyReLU(negative_slope=0.01)
      (2): Dropout(p=0.4, inplace=False)
    )
    (1-19): 19 x Sequential(
      (0): Linear(in_features=3, out_features=3, bias=True)
      -Adagrad-0.01-0"
75,0.6928,0.6932,0.5010609704342905,0.3338,"MLP20-LeakyReLU(negative_slope=0.01)
      (2): Dropout(p=0.4, inplace=False)
    )
    (1-19): 19 x Sequential(
      (0): Linear(in_features=3, out_features=3, bias=True)
      -Adagrad-0.01-0"
76,0.6935,0.6932,0.5010609704342905,0.3338,"MLP20-LeakyReLU(negative_slope=0.01)
      (2): Dropout(p=0.4, inplace=False)
    )
    (1-19): 19 x Sequential(
      (0): Linear(in_features=3, out_features=3, bias=True)
      -Adagrad-0.01-0"
77,0.6932,0.6932,0.5010609704342905,0.3338,"MLP20-LeakyReLU(negative_slope=0.01)
      (2): Dropout(p=0.4, inplace=False)
    )
    (1-19): 19 x Sequential(
      (0): Linear(in_features=3, out_features=3, bias=True)
      -Adagrad-0.01-0"
78,0.6931,0.6932,0.5010609704342905,0.3338,"MLP20-LeakyReLU(negative_slope=0.01)
      (2): Dropout(p=0.4, inplace=False)
    )
    (1-19): 19 x Sequential(
      (0): Linear(in_features=3, out_features=3, bias=True)
      -Adagrad-0.01-0"
79,0.6934,0.6932,0.5010609704342905,0.3338,"MLP20-LeakyReLU(negative_slope=0.01)
      (2): Dropout(p=0.4, inplace=False)
    )
    (1-19): 19 x Sequential(
      (0): Linear(in_features=3, out_features=3, bias=True)
      -Adagrad-0.01-0"
80,0.6927,0.6932,0.5010609704342905,0.3338,"MLP20-LeakyReLU(negative_slope=0.01)
      (2): Dropout(p=0.4, inplace=False)
    )
    (1-19): 19 x Sequential(
      (0): Linear(in_features=3, out_features=3, bias=True)
      -Adagrad-0.01-0"
81,0.6935,0.6932,0.5010609704342905,0.3338,"MLP20-LeakyReLU(negative_slope=0.01)
      (2): Dropout(p=0.4, inplace=False)
    )
    (1-19): 19 x Sequential(
      (0): Linear(in_features=3, out_features=3, bias=True)
      -Adagrad-0.01-0"
82,0.6937,0.6932,0.5010609704342905,0.3338,"MLP20-LeakyReLU(negative_slope=0.01)
      (2): Dropout(p=0.4, inplace=False)
    )
    (1-19): 19 x Sequential(
      (0): Linear(in_features=3, out_features=3, bias=True)
      -Adagrad-0.01-0"
83,0.693,0.6932,0.5010609704342905,0.3338,"MLP20-LeakyReLU(negative_slope=0.01)
      (2): Dropout(p=0.4, inplace=False)
    )
    (1-19): 19 x Sequential(
      (0): Linear(in_features=3, out_features=3, bias=True)
      -Adagrad-0.01-0"
84,0.6936,0.6932,0.5010609704342905,0.3338,"MLP20-LeakyReLU(negative_slope=0.01)
      (2): Dropout(p=0.4, inplace=False)
    )
    (1-19): 19 x Sequential(
      (0): Linear(in_features=3, out_features=3, bias=True)
      -Adagrad-0.01-0"
85,0.6936,0.6932,0.5010609704342905,0.3338,"MLP20-LeakyReLU(negative_slope=0.01)
      (2): Dropout(p=0.4, inplace=False)
    )
    (1-19): 19 x Sequential(
      (0): Linear(in_features=3, out_features=3, bias=True)
      -Adagrad-0.01-0"
86,0.6932,0.6932,0.5010609704342905,0.3338,"MLP20-LeakyReLU(negative_slope=0.01)
      (2): Dropout(p=0.4, inplace=False)
    )
    (1-19): 19 x Sequential(
      (0): Linear(in_features=3, out_features=3, bias=True)
      -Adagrad-0.01-0"
87,0.6931,0.6932,0.5010609704342905,0.3338,"MLP20-LeakyReLU(negative_slope=0.01)
      (2): Dropout(p=0.4, inplace=False)
    )
    (1-19): 19 x Sequential(
      (0): Linear(in_features=3, out_features=3, bias=True)
      -Adagrad-0.01-0"
88,0.6934,0.6932,0.5010609704342905,0.3338,"MLP20-LeakyReLU(negative_slope=0.01)
      (2): Dropout(p=0.4, inplace=False)
    )
    (1-19): 19 x Sequential(
      (0): Linear(in_features=3, out_features=3, bias=True)
      -Adagrad-0.01-0"
89,0.6932,0.6932,0.5010609704342905,0.3338,"MLP20-LeakyReLU(negative_slope=0.01)
      (2): Dropout(p=0.4, inplace=False)
    )
    (1-19): 19 x Sequential(
      (0): Linear(in_features=3, out_features=3, bias=True)
      -Adagrad-0.01-0"
90,0.6931,0.6932,0.5010609704342905,0.3338,"MLP20-LeakyReLU(negative_slope=0.01)
      (2): Dropout(p=0.4, inplace=False)
    )
    (1-19): 19 x Sequential(
      (0): Linear(in_features=3, out_features=3, bias=True)
      -Adagrad-0.01-0"
91,0.6931,0.6932,0.5010609704342905,0.3338,"MLP20-LeakyReLU(negative_slope=0.01)
      (2): Dropout(p=0.4, inplace=False)
    )
    (1-19): 19 x Sequential(
      (0): Linear(in_features=3, out_features=3, bias=True)
      -Adagrad-0.01-0"
92,0.6932,0.6932,0.5010609704342905,0.3338,"MLP20-LeakyReLU(negative_slope=0.01)
      (2): Dropout(p=0.4, inplace=False)
    )
    (1-19): 19 x Sequential(
      (0): Linear(in_features=3, out_features=3, bias=True)
      -Adagrad-0.01-0"
93,0.6935,0.6932,0.5010609704342905,0.3338,"MLP20-LeakyReLU(negative_slope=0.01)
      (2): Dropout(p=0.4, inplace=False)
    )
    (1-19): 19 x Sequential(
      (0): Linear(in_features=3, out_features=3, bias=True)
      -Adagrad-0.01-0"
94,0.6932,0.6932,0.5010609704342905,0.3338,"MLP20-LeakyReLU(negative_slope=0.01)
      (2): Dropout(p=0.4, inplace=False)
    )
    (1-19): 19 x Sequential(
      (0): Linear(in_features=3, out_features=3, bias=True)
      -Adagrad-0.01-0"
95,0.6933,0.6932,0.5010609704342905,0.3338,"MLP20-LeakyReLU(negative_slope=0.01)
      (2): Dropout(p=0.4, inplace=False)
    )
    (1-19): 19 x Sequential(
      (0): Linear(in_features=3, out_features=3, bias=True)
      -Adagrad-0.01-0"
96,0.6931,0.6932,0.5010609704342905,0.3338,"MLP20-LeakyReLU(negative_slope=0.01)
      (2): Dropout(p=0.4, inplace=False)
    )
    (1-19): 19 x Sequential(
      (0): Linear(in_features=3, out_features=3, bias=True)
      -Adagrad-0.01-0"
97,0.6931,0.6932,0.5010609704342905,0.3338,"MLP20-LeakyReLU(negative_slope=0.01)
      (2): Dropout(p=0.4, inplace=False)
    )
    (1-19): 19 x Sequential(
      (0): Linear(in_features=3, out_features=3, bias=True)
      -Adagrad-0.01-0"
98,0.6931,0.6932,0.5010609704342905,0.3338,"MLP20-LeakyReLU(negative_slope=0.01)
      (2): Dropout(p=0.4, inplace=False)
    )
    (1-19): 19 x Sequential(
      (0): Linear(in_features=3, out_features=3, bias=True)
      -Adagrad-0.01-0"
99,0.6932,0.6932,0.5010609704342905,0.3338,"MLP20-LeakyReLU(negative_slope=0.01)
      (2): Dropout(p=0.4, inplace=False)
    )
    (1-19): 19 x Sequential(
      (0): Linear(in_features=3, out_features=3, bias=True)
      -Adagrad-0.01-0"
100,0.6933,0.6932,0.5010609704342905,0.3338,"MLP20-LeakyReLU(negative_slope=0.01)
      (2): Dropout(p=0.4, inplace=False)
    )
    (1-19): 19 x Sequential(
      (0): Linear(in_features=3, out_features=3, bias=True)
      -Adagrad-0.01-0"
1,0.7426,0.7168,0.49893902956570946,0.3329,"MLP20-LeakyReLU(negative_slope=0.01)
      (2): Dropout(p=0.6, inplace=False)
    )
    (1-19): 19 x Sequential(
      (0): Linear(in_features=3, out_features=3, bias=True)
      -Adagrad-0.01-0"
2,0.7143,0.706,0.49893902956570946,0.3329,"MLP20-LeakyReLU(negative_slope=0.01)
      (2): Dropout(p=0.6, inplace=False)
    )
    (1-19): 19 x Sequential(
      (0): Linear(in_features=3, out_features=3, bias=True)
      -Adagrad-0.01-0"
3,0.7052,0.7005,0.49893902956570946,0.3329,"MLP20-LeakyReLU(negative_slope=0.01)
      (2): Dropout(p=0.6, inplace=False)
    )
    (1-19): 19 x Sequential(
      (0): Linear(in_features=3, out_features=3, bias=True)
      -Adagrad-0.01-0"
4,0.7006,0.6974,0.49893902956570946,0.3329,"MLP20-LeakyReLU(negative_slope=0.01)
      (2): Dropout(p=0.6, inplace=False)
    )
    (1-19): 19 x Sequential(
      (0): Linear(in_features=3, out_features=3, bias=True)
      -Adagrad-0.01-0"
5,0.6979,0.6957,0.49893902956570946,0.3329,"MLP20-LeakyReLU(negative_slope=0.01)
      (2): Dropout(p=0.6, inplace=False)
    )
    (1-19): 19 x Sequential(
      (0): Linear(in_features=3, out_features=3, bias=True)
      -Adagrad-0.01-0"
6,0.6961,0.6947,0.49893902956570946,0.3329,"MLP20-LeakyReLU(negative_slope=0.01)
      (2): Dropout(p=0.6, inplace=False)
    )
    (1-19): 19 x Sequential(
      (0): Linear(in_features=3, out_features=3, bias=True)
      -Adagrad-0.01-0"
7,0.6952,0.694,0.49893902956570946,0.3329,"MLP20-LeakyReLU(negative_slope=0.01)
      (2): Dropout(p=0.6, inplace=False)
    )
    (1-19): 19 x Sequential(
      (0): Linear(in_features=3, out_features=3, bias=True)
      -Adagrad-0.01-0"
8,0.6947,0.6937,0.49893902956570946,0.3329,"MLP20-LeakyReLU(negative_slope=0.01)
      (2): Dropout(p=0.6, inplace=False)
    )
    (1-19): 19 x Sequential(
      (0): Linear(in_features=3, out_features=3, bias=True)
      -Adagrad-0.01-0"
9,0.694,0.6934,0.49893902956570946,0.3329,"MLP20-LeakyReLU(negative_slope=0.01)
      (2): Dropout(p=0.6, inplace=False)
    )
    (1-19): 19 x Sequential(
      (0): Linear(in_features=3, out_features=3, bias=True)
      -Adagrad-0.01-0"
10,0.6936,0.6933,0.49893902956570946,0.3329,"MLP20-LeakyReLU(negative_slope=0.01)
      (2): Dropout(p=0.6, inplace=False)
    )
    (1-19): 19 x Sequential(
      (0): Linear(in_features=3, out_features=3, bias=True)
      -Adagrad-0.01-0"
11,0.6936,0.6932,0.49893902956570946,0.3329,"MLP20-LeakyReLU(negative_slope=0.01)
      (2): Dropout(p=0.6, inplace=False)
    )
    (1-19): 19 x Sequential(
      (0): Linear(in_features=3, out_features=3, bias=True)
      -Adagrad-0.01-0"
12,0.6934,0.6932,0.49893902956570946,0.3329,"MLP20-LeakyReLU(negative_slope=0.01)
      (2): Dropout(p=0.6, inplace=False)
    )
    (1-19): 19 x Sequential(
      (0): Linear(in_features=3, out_features=3, bias=True)
      -Adagrad-0.01-0"
13,0.6932,0.6932,0.49893902956570946,0.3329,"MLP20-LeakyReLU(negative_slope=0.01)
      (2): Dropout(p=0.6, inplace=False)
    )
    (1-19): 19 x Sequential(
      (0): Linear(in_features=3, out_features=3, bias=True)
      -Adagrad-0.01-0"
14,0.6935,0.6931,0.5010609704342905,0.3338,"MLP20-LeakyReLU(negative_slope=0.01)
      (2): Dropout(p=0.6, inplace=False)
    )
    (1-19): 19 x Sequential(
      (0): Linear(in_features=3, out_features=3, bias=True)
      -Adagrad-0.01-0"
15,0.6933,0.6931,0.5010609704342905,0.3338,"MLP20-LeakyReLU(negative_slope=0.01)
      (2): Dropout(p=0.6, inplace=False)
    )
    (1-19): 19 x Sequential(
      (0): Linear(in_features=3, out_features=3, bias=True)
      -Adagrad-0.01-0"
16,0.6932,0.6931,0.5010609704342905,0.3338,"MLP20-LeakyReLU(negative_slope=0.01)
      (2): Dropout(p=0.6, inplace=False)
    )
    (1-19): 19 x Sequential(
      (0): Linear(in_features=3, out_features=3, bias=True)
      -Adagrad-0.01-0"
17,0.6933,0.6932,0.5010609704342905,0.3338,"MLP20-LeakyReLU(negative_slope=0.01)
      (2): Dropout(p=0.6, inplace=False)
    )
    (1-19): 19 x Sequential(
      (0): Linear(in_features=3, out_features=3, bias=True)
      -Adagrad-0.01-0"
18,0.693,0.6932,0.5010609704342905,0.3338,"MLP20-LeakyReLU(negative_slope=0.01)
      (2): Dropout(p=0.6, inplace=False)
    )
    (1-19): 19 x Sequential(
      (0): Linear(in_features=3, out_features=3, bias=True)
      -Adagrad-0.01-0"
19,0.6929,0.6932,0.5010609704342905,0.3338,"MLP20-LeakyReLU(negative_slope=0.01)
      (2): Dropout(p=0.6, inplace=False)
    )
    (1-19): 19 x Sequential(
      (0): Linear(in_features=3, out_features=3, bias=True)
      -Adagrad-0.01-0"
20,0.6931,0.6932,0.5010609704342905,0.3338,"MLP20-LeakyReLU(negative_slope=0.01)
      (2): Dropout(p=0.6, inplace=False)
    )
    (1-19): 19 x Sequential(
      (0): Linear(in_features=3, out_features=3, bias=True)
      -Adagrad-0.01-0"
21,0.6931,0.6932,0.5010609704342905,0.3338,"MLP20-LeakyReLU(negative_slope=0.01)
      (2): Dropout(p=0.6, inplace=False)
    )
    (1-19): 19 x Sequential(
      (0): Linear(in_features=3, out_features=3, bias=True)
      -Adagrad-0.01-0"
22,0.6929,0.6932,0.5010609704342905,0.3338,"MLP20-LeakyReLU(negative_slope=0.01)
      (2): Dropout(p=0.6, inplace=False)
    )
    (1-19): 19 x Sequential(
      (0): Linear(in_features=3, out_features=3, bias=True)
      -Adagrad-0.01-0"
23,0.693,0.6932,0.5010609704342905,0.3338,"MLP20-LeakyReLU(negative_slope=0.01)
      (2): Dropout(p=0.6, inplace=False)
    )
    (1-19): 19 x Sequential(
      (0): Linear(in_features=3, out_features=3, bias=True)
      -Adagrad-0.01-0"
24,0.6932,0.6932,0.5010609704342905,0.3338,"MLP20-LeakyReLU(negative_slope=0.01)
      (2): Dropout(p=0.6, inplace=False)
    )
    (1-19): 19 x Sequential(
      (0): Linear(in_features=3, out_features=3, bias=True)
      -Adagrad-0.01-0"
25,0.6933,0.6932,0.5010609704342905,0.3338,"MLP20-LeakyReLU(negative_slope=0.01)
      (2): Dropout(p=0.6, inplace=False)
    )
    (1-19): 19 x Sequential(
      (0): Linear(in_features=3, out_features=3, bias=True)
      -Adagrad-0.01-0"
26,0.6932,0.6932,0.5010609704342905,0.3338,"MLP20-LeakyReLU(negative_slope=0.01)
      (2): Dropout(p=0.6, inplace=False)
    )
    (1-19): 19 x Sequential(
      (0): Linear(in_features=3, out_features=3, bias=True)
      -Adagrad-0.01-0"
27,0.6931,0.6932,0.5010609704342905,0.3338,"MLP20-LeakyReLU(negative_slope=0.01)
      (2): Dropout(p=0.6, inplace=False)
    )
    (1-19): 19 x Sequential(
      (0): Linear(in_features=3, out_features=3, bias=True)
      -Adagrad-0.01-0"
28,0.693,0.6932,0.5010609704342905,0.3338,"MLP20-LeakyReLU(negative_slope=0.01)
      (2): Dropout(p=0.6, inplace=False)
    )
    (1-19): 19 x Sequential(
      (0): Linear(in_features=3, out_features=3, bias=True)
      -Adagrad-0.01-0"
29,0.6929,0.6932,0.5010609704342905,0.3338,"MLP20-LeakyReLU(negative_slope=0.01)
      (2): Dropout(p=0.6, inplace=False)
    )
    (1-19): 19 x Sequential(
      (0): Linear(in_features=3, out_features=3, bias=True)
      -Adagrad-0.01-0"
30,0.693,0.6932,0.5010609704342905,0.3338,"MLP20-LeakyReLU(negative_slope=0.01)
      (2): Dropout(p=0.6, inplace=False)
    )
    (1-19): 19 x Sequential(
      (0): Linear(in_features=3, out_features=3, bias=True)
      -Adagrad-0.01-0"
31,0.6933,0.6932,0.5010609704342905,0.3338,"MLP20-LeakyReLU(negative_slope=0.01)
      (2): Dropout(p=0.6, inplace=False)
    )
    (1-19): 19 x Sequential(
      (0): Linear(in_features=3, out_features=3, bias=True)
      -Adagrad-0.01-0"
32,0.693,0.6932,0.5010609704342905,0.3338,"MLP20-LeakyReLU(negative_slope=0.01)
      (2): Dropout(p=0.6, inplace=False)
    )
    (1-19): 19 x Sequential(
      (0): Linear(in_features=3, out_features=3, bias=True)
      -Adagrad-0.01-0"
33,0.6929,0.6932,0.5010609704342905,0.3338,"MLP20-LeakyReLU(negative_slope=0.01)
      (2): Dropout(p=0.6, inplace=False)
    )
    (1-19): 19 x Sequential(
      (0): Linear(in_features=3, out_features=3, bias=True)
      -Adagrad-0.01-0"
34,0.6929,0.6932,0.5010609704342905,0.3338,"MLP20-LeakyReLU(negative_slope=0.01)
      (2): Dropout(p=0.6, inplace=False)
    )
    (1-19): 19 x Sequential(
      (0): Linear(in_features=3, out_features=3, bias=True)
      -Adagrad-0.01-0"
35,0.693,0.6932,0.5010609704342905,0.3338,"MLP20-LeakyReLU(negative_slope=0.01)
      (2): Dropout(p=0.6, inplace=False)
    )
    (1-19): 19 x Sequential(
      (0): Linear(in_features=3, out_features=3, bias=True)
      -Adagrad-0.01-0"
36,0.693,0.6932,0.5010609704342905,0.3338,"MLP20-LeakyReLU(negative_slope=0.01)
      (2): Dropout(p=0.6, inplace=False)
    )
    (1-19): 19 x Sequential(
      (0): Linear(in_features=3, out_features=3, bias=True)
      -Adagrad-0.01-0"
37,0.693,0.6932,0.5010609704342905,0.3338,"MLP20-LeakyReLU(negative_slope=0.01)
      (2): Dropout(p=0.6, inplace=False)
    )
    (1-19): 19 x Sequential(
      (0): Linear(in_features=3, out_features=3, bias=True)
      -Adagrad-0.01-0"
38,0.6931,0.6932,0.5010609704342905,0.3338,"MLP20-LeakyReLU(negative_slope=0.01)
      (2): Dropout(p=0.6, inplace=False)
    )
    (1-19): 19 x Sequential(
      (0): Linear(in_features=3, out_features=3, bias=True)
      -Adagrad-0.01-0"
39,0.6932,0.6932,0.5010609704342905,0.3338,"MLP20-LeakyReLU(negative_slope=0.01)
      (2): Dropout(p=0.6, inplace=False)
    )
    (1-19): 19 x Sequential(
      (0): Linear(in_features=3, out_features=3, bias=True)
      -Adagrad-0.01-0"
40,0.6932,0.6932,0.5010609704342905,0.3338,"MLP20-LeakyReLU(negative_slope=0.01)
      (2): Dropout(p=0.6, inplace=False)
    )
    (1-19): 19 x Sequential(
      (0): Linear(in_features=3, out_features=3, bias=True)
      -Adagrad-0.01-0"
41,0.6929,0.6932,0.5010609704342905,0.3338,"MLP20-LeakyReLU(negative_slope=0.01)
      (2): Dropout(p=0.6, inplace=False)
    )
    (1-19): 19 x Sequential(
      (0): Linear(in_features=3, out_features=3, bias=True)
      -Adagrad-0.01-0"
42,0.6926,0.6932,0.5010609704342905,0.3338,"MLP20-LeakyReLU(negative_slope=0.01)
      (2): Dropout(p=0.6, inplace=False)
    )
    (1-19): 19 x Sequential(
      (0): Linear(in_features=3, out_features=3, bias=True)
      -Adagrad-0.01-0"
43,0.693,0.6932,0.5010609704342905,0.3338,"MLP20-LeakyReLU(negative_slope=0.01)
      (2): Dropout(p=0.6, inplace=False)
    )
    (1-19): 19 x Sequential(
      (0): Linear(in_features=3, out_features=3, bias=True)
      -Adagrad-0.01-0"
44,0.6929,0.6932,0.5010609704342905,0.3338,"MLP20-LeakyReLU(negative_slope=0.01)
      (2): Dropout(p=0.6, inplace=False)
    )
    (1-19): 19 x Sequential(
      (0): Linear(in_features=3, out_features=3, bias=True)
      -Adagrad-0.01-0"
45,0.6931,0.6933,0.5010609704342905,0.3338,"MLP20-LeakyReLU(negative_slope=0.01)
      (2): Dropout(p=0.6, inplace=False)
    )
    (1-19): 19 x Sequential(
      (0): Linear(in_features=3, out_features=3, bias=True)
      -Adagrad-0.01-0"
46,0.6931,0.6933,0.5010609704342905,0.3338,"MLP20-LeakyReLU(negative_slope=0.01)
      (2): Dropout(p=0.6, inplace=False)
    )
    (1-19): 19 x Sequential(
      (0): Linear(in_features=3, out_features=3, bias=True)
      -Adagrad-0.01-0"
47,0.6931,0.6933,0.5010609704342905,0.3338,"MLP20-LeakyReLU(negative_slope=0.01)
      (2): Dropout(p=0.6, inplace=False)
    )
    (1-19): 19 x Sequential(
      (0): Linear(in_features=3, out_features=3, bias=True)
      -Adagrad-0.01-0"
48,0.693,0.6933,0.5010609704342905,0.3338,"MLP20-LeakyReLU(negative_slope=0.01)
      (2): Dropout(p=0.6, inplace=False)
    )
    (1-19): 19 x Sequential(
      (0): Linear(in_features=3, out_features=3, bias=True)
      -Adagrad-0.01-0"
49,0.693,0.6933,0.5010609704342905,0.3338,"MLP20-LeakyReLU(negative_slope=0.01)
      (2): Dropout(p=0.6, inplace=False)
    )
    (1-19): 19 x Sequential(
      (0): Linear(in_features=3, out_features=3, bias=True)
      -Adagrad-0.01-0"
50,0.6932,0.6933,0.5010609704342905,0.3338,"MLP20-LeakyReLU(negative_slope=0.01)
      (2): Dropout(p=0.6, inplace=False)
    )
    (1-19): 19 x Sequential(
      (0): Linear(in_features=3, out_features=3, bias=True)
      -Adagrad-0.01-0"
51,0.6931,0.6933,0.5010609704342905,0.3338,"MLP20-LeakyReLU(negative_slope=0.01)
      (2): Dropout(p=0.6, inplace=False)
    )
    (1-19): 19 x Sequential(
      (0): Linear(in_features=3, out_features=3, bias=True)
      -Adagrad-0.01-0"
52,0.6933,0.6933,0.5010609704342905,0.3338,"MLP20-LeakyReLU(negative_slope=0.01)
      (2): Dropout(p=0.6, inplace=False)
    )
    (1-19): 19 x Sequential(
      (0): Linear(in_features=3, out_features=3, bias=True)
      -Adagrad-0.01-0"
53,0.6928,0.6933,0.5010609704342905,0.3338,"MLP20-LeakyReLU(negative_slope=0.01)
      (2): Dropout(p=0.6, inplace=False)
    )
    (1-19): 19 x Sequential(
      (0): Linear(in_features=3, out_features=3, bias=True)
      -Adagrad-0.01-0"
54,0.6932,0.6933,0.5010609704342905,0.3338,"MLP20-LeakyReLU(negative_slope=0.01)
      (2): Dropout(p=0.6, inplace=False)
    )
    (1-19): 19 x Sequential(
      (0): Linear(in_features=3, out_features=3, bias=True)
      -Adagrad-0.01-0"
55,0.6933,0.6933,0.5010609704342905,0.3338,"MLP20-LeakyReLU(negative_slope=0.01)
      (2): Dropout(p=0.6, inplace=False)
    )
    (1-19): 19 x Sequential(
      (0): Linear(in_features=3, out_features=3, bias=True)
      -Adagrad-0.01-0"
56,0.6929,0.6933,0.5010609704342905,0.3338,"MLP20-LeakyReLU(negative_slope=0.01)
      (2): Dropout(p=0.6, inplace=False)
    )
    (1-19): 19 x Sequential(
      (0): Linear(in_features=3, out_features=3, bias=True)
      -Adagrad-0.01-0"
57,0.6931,0.6933,0.5010609704342905,0.3338,"MLP20-LeakyReLU(negative_slope=0.01)
      (2): Dropout(p=0.6, inplace=False)
    )
    (1-19): 19 x Sequential(
      (0): Linear(in_features=3, out_features=3, bias=True)
      -Adagrad-0.01-0"
58,0.6929,0.6933,0.5010609704342905,0.3338,"MLP20-LeakyReLU(negative_slope=0.01)
      (2): Dropout(p=0.6, inplace=False)
    )
    (1-19): 19 x Sequential(
      (0): Linear(in_features=3, out_features=3, bias=True)
      -Adagrad-0.01-0"
59,0.6929,0.6933,0.5010609704342905,0.3338,"MLP20-LeakyReLU(negative_slope=0.01)
      (2): Dropout(p=0.6, inplace=False)
    )
    (1-19): 19 x Sequential(
      (0): Linear(in_features=3, out_features=3, bias=True)
      -Adagrad-0.01-0"
60,0.6931,0.6933,0.5010609704342905,0.3338,"MLP20-LeakyReLU(negative_slope=0.01)
      (2): Dropout(p=0.6, inplace=False)
    )
    (1-19): 19 x Sequential(
      (0): Linear(in_features=3, out_features=3, bias=True)
      -Adagrad-0.01-0"
61,0.693,0.6933,0.5010609704342905,0.3338,"MLP20-LeakyReLU(negative_slope=0.01)
      (2): Dropout(p=0.6, inplace=False)
    )
    (1-19): 19 x Sequential(
      (0): Linear(in_features=3, out_features=3, bias=True)
      -Adagrad-0.01-0"
62,0.693,0.6933,0.5010609704342905,0.3338,"MLP20-LeakyReLU(negative_slope=0.01)
      (2): Dropout(p=0.6, inplace=False)
    )
    (1-19): 19 x Sequential(
      (0): Linear(in_features=3, out_features=3, bias=True)
      -Adagrad-0.01-0"
63,0.6931,0.6933,0.5010609704342905,0.3338,"MLP20-LeakyReLU(negative_slope=0.01)
      (2): Dropout(p=0.6, inplace=False)
    )
    (1-19): 19 x Sequential(
      (0): Linear(in_features=3, out_features=3, bias=True)
      -Adagrad-0.01-0"
64,0.6929,0.6933,0.5010609704342905,0.3338,"MLP20-LeakyReLU(negative_slope=0.01)
      (2): Dropout(p=0.6, inplace=False)
    )
    (1-19): 19 x Sequential(
      (0): Linear(in_features=3, out_features=3, bias=True)
      -Adagrad-0.01-0"
65,0.6932,0.6933,0.5010609704342905,0.3338,"MLP20-LeakyReLU(negative_slope=0.01)
      (2): Dropout(p=0.6, inplace=False)
    )
    (1-19): 19 x Sequential(
      (0): Linear(in_features=3, out_features=3, bias=True)
      -Adagrad-0.01-0"
66,0.6929,0.6933,0.5010609704342905,0.3338,"MLP20-LeakyReLU(negative_slope=0.01)
      (2): Dropout(p=0.6, inplace=False)
    )
    (1-19): 19 x Sequential(
      (0): Linear(in_features=3, out_features=3, bias=True)
      -Adagrad-0.01-0"
67,0.693,0.6933,0.5010609704342905,0.3338,"MLP20-LeakyReLU(negative_slope=0.01)
      (2): Dropout(p=0.6, inplace=False)
    )
    (1-19): 19 x Sequential(
      (0): Linear(in_features=3, out_features=3, bias=True)
      -Adagrad-0.01-0"
68,0.6931,0.6933,0.5010609704342905,0.3338,"MLP20-LeakyReLU(negative_slope=0.01)
      (2): Dropout(p=0.6, inplace=False)
    )
    (1-19): 19 x Sequential(
      (0): Linear(in_features=3, out_features=3, bias=True)
      -Adagrad-0.01-0"
69,0.6932,0.6933,0.5010609704342905,0.3338,"MLP20-LeakyReLU(negative_slope=0.01)
      (2): Dropout(p=0.6, inplace=False)
    )
    (1-19): 19 x Sequential(
      (0): Linear(in_features=3, out_features=3, bias=True)
      -Adagrad-0.01-0"
70,0.6929,0.6933,0.5010609704342905,0.3338,"MLP20-LeakyReLU(negative_slope=0.01)
      (2): Dropout(p=0.6, inplace=False)
    )
    (1-19): 19 x Sequential(
      (0): Linear(in_features=3, out_features=3, bias=True)
      -Adagrad-0.01-0"
71,0.6931,0.6933,0.5010609704342905,0.3338,"MLP20-LeakyReLU(negative_slope=0.01)
      (2): Dropout(p=0.6, inplace=False)
    )
    (1-19): 19 x Sequential(
      (0): Linear(in_features=3, out_features=3, bias=True)
      -Adagrad-0.01-0"
72,0.6931,0.6933,0.5010609704342905,0.3338,"MLP20-LeakyReLU(negative_slope=0.01)
      (2): Dropout(p=0.6, inplace=False)
    )
    (1-19): 19 x Sequential(
      (0): Linear(in_features=3, out_features=3, bias=True)
      -Adagrad-0.01-0"
73,0.6932,0.6933,0.5010609704342905,0.3338,"MLP20-LeakyReLU(negative_slope=0.01)
      (2): Dropout(p=0.6, inplace=False)
    )
    (1-19): 19 x Sequential(
      (0): Linear(in_features=3, out_features=3, bias=True)
      -Adagrad-0.01-0"
74,0.6931,0.6933,0.5010609704342905,0.3338,"MLP20-LeakyReLU(negative_slope=0.01)
      (2): Dropout(p=0.6, inplace=False)
    )
    (1-19): 19 x Sequential(
      (0): Linear(in_features=3, out_features=3, bias=True)
      -Adagrad-0.01-0"
75,0.6931,0.6933,0.5010609704342905,0.3338,"MLP20-LeakyReLU(negative_slope=0.01)
      (2): Dropout(p=0.6, inplace=False)
    )
    (1-19): 19 x Sequential(
      (0): Linear(in_features=3, out_features=3, bias=True)
      -Adagrad-0.01-0"
76,0.693,0.6933,0.5010609704342905,0.3338,"MLP20-LeakyReLU(negative_slope=0.01)
      (2): Dropout(p=0.6, inplace=False)
    )
    (1-19): 19 x Sequential(
      (0): Linear(in_features=3, out_features=3, bias=True)
      -Adagrad-0.01-0"
77,0.6928,0.6933,0.5010609704342905,0.3338,"MLP20-LeakyReLU(negative_slope=0.01)
      (2): Dropout(p=0.6, inplace=False)
    )
    (1-19): 19 x Sequential(
      (0): Linear(in_features=3, out_features=3, bias=True)
      -Adagrad-0.01-0"
78,0.6931,0.6933,0.5010609704342905,0.3338,"MLP20-LeakyReLU(negative_slope=0.01)
      (2): Dropout(p=0.6, inplace=False)
    )
    (1-19): 19 x Sequential(
      (0): Linear(in_features=3, out_features=3, bias=True)
      -Adagrad-0.01-0"
79,0.693,0.6933,0.5010609704342905,0.3338,"MLP20-LeakyReLU(negative_slope=0.01)
      (2): Dropout(p=0.6, inplace=False)
    )
    (1-19): 19 x Sequential(
      (0): Linear(in_features=3, out_features=3, bias=True)
      -Adagrad-0.01-0"
80,0.693,0.6933,0.5010609704342905,0.3338,"MLP20-LeakyReLU(negative_slope=0.01)
      (2): Dropout(p=0.6, inplace=False)
    )
    (1-19): 19 x Sequential(
      (0): Linear(in_features=3, out_features=3, bias=True)
      -Adagrad-0.01-0"
81,0.693,0.6933,0.5010609704342905,0.3338,"MLP20-LeakyReLU(negative_slope=0.01)
      (2): Dropout(p=0.6, inplace=False)
    )
    (1-19): 19 x Sequential(
      (0): Linear(in_features=3, out_features=3, bias=True)
      -Adagrad-0.01-0"
82,0.6931,0.6933,0.5010609704342905,0.3338,"MLP20-LeakyReLU(negative_slope=0.01)
      (2): Dropout(p=0.6, inplace=False)
    )
    (1-19): 19 x Sequential(
      (0): Linear(in_features=3, out_features=3, bias=True)
      -Adagrad-0.01-0"
83,0.6932,0.6933,0.5010609704342905,0.3338,"MLP20-LeakyReLU(negative_slope=0.01)
      (2): Dropout(p=0.6, inplace=False)
    )
    (1-19): 19 x Sequential(
      (0): Linear(in_features=3, out_features=3, bias=True)
      -Adagrad-0.01-0"
84,0.6931,0.6933,0.5010609704342905,0.3338,"MLP20-LeakyReLU(negative_slope=0.01)
      (2): Dropout(p=0.6, inplace=False)
    )
    (1-19): 19 x Sequential(
      (0): Linear(in_features=3, out_features=3, bias=True)
      -Adagrad-0.01-0"
85,0.6929,0.6933,0.5010609704342905,0.3338,"MLP20-LeakyReLU(negative_slope=0.01)
      (2): Dropout(p=0.6, inplace=False)
    )
    (1-19): 19 x Sequential(
      (0): Linear(in_features=3, out_features=3, bias=True)
      -Adagrad-0.01-0"
86,0.6929,0.6933,0.5010609704342905,0.3338,"MLP20-LeakyReLU(negative_slope=0.01)
      (2): Dropout(p=0.6, inplace=False)
    )
    (1-19): 19 x Sequential(
      (0): Linear(in_features=3, out_features=3, bias=True)
      -Adagrad-0.01-0"
87,0.6931,0.6933,0.5010609704342905,0.3338,"MLP20-LeakyReLU(negative_slope=0.01)
      (2): Dropout(p=0.6, inplace=False)
    )
    (1-19): 19 x Sequential(
      (0): Linear(in_features=3, out_features=3, bias=True)
      -Adagrad-0.01-0"
88,0.693,0.6933,0.5010609704342905,0.3338,"MLP20-LeakyReLU(negative_slope=0.01)
      (2): Dropout(p=0.6, inplace=False)
    )
    (1-19): 19 x Sequential(
      (0): Linear(in_features=3, out_features=3, bias=True)
      -Adagrad-0.01-0"
89,0.6929,0.6933,0.5010609704342905,0.3338,"MLP20-LeakyReLU(negative_slope=0.01)
      (2): Dropout(p=0.6, inplace=False)
    )
    (1-19): 19 x Sequential(
      (0): Linear(in_features=3, out_features=3, bias=True)
      -Adagrad-0.01-0"
90,0.693,0.6933,0.5010609704342905,0.3338,"MLP20-LeakyReLU(negative_slope=0.01)
      (2): Dropout(p=0.6, inplace=False)
    )
    (1-19): 19 x Sequential(
      (0): Linear(in_features=3, out_features=3, bias=True)
      -Adagrad-0.01-0"
91,0.6931,0.6933,0.5010609704342905,0.3338,"MLP20-LeakyReLU(negative_slope=0.01)
      (2): Dropout(p=0.6, inplace=False)
    )
    (1-19): 19 x Sequential(
      (0): Linear(in_features=3, out_features=3, bias=True)
      -Adagrad-0.01-0"
92,0.6932,0.6933,0.5010609704342905,0.3338,"MLP20-LeakyReLU(negative_slope=0.01)
      (2): Dropout(p=0.6, inplace=False)
    )
    (1-19): 19 x Sequential(
      (0): Linear(in_features=3, out_features=3, bias=True)
      -Adagrad-0.01-0"
93,0.6931,0.6933,0.5010609704342905,0.3338,"MLP20-LeakyReLU(negative_slope=0.01)
      (2): Dropout(p=0.6, inplace=False)
    )
    (1-19): 19 x Sequential(
      (0): Linear(in_features=3, out_features=3, bias=True)
      -Adagrad-0.01-0"
94,0.693,0.6933,0.5010609704342905,0.3338,"MLP20-LeakyReLU(negative_slope=0.01)
      (2): Dropout(p=0.6, inplace=False)
    )
    (1-19): 19 x Sequential(
      (0): Linear(in_features=3, out_features=3, bias=True)
      -Adagrad-0.01-0"
95,0.6931,0.6933,0.5010609704342905,0.3338,"MLP20-LeakyReLU(negative_slope=0.01)
      (2): Dropout(p=0.6, inplace=False)
    )
    (1-19): 19 x Sequential(
      (0): Linear(in_features=3, out_features=3, bias=True)
      -Adagrad-0.01-0"
96,0.6932,0.6933,0.5010609704342905,0.3338,"MLP20-LeakyReLU(negative_slope=0.01)
      (2): Dropout(p=0.6, inplace=False)
    )
    (1-19): 19 x Sequential(
      (0): Linear(in_features=3, out_features=3, bias=True)
      -Adagrad-0.01-0"
97,0.693,0.6933,0.5010609704342905,0.3338,"MLP20-LeakyReLU(negative_slope=0.01)
      (2): Dropout(p=0.6, inplace=False)
    )
    (1-19): 19 x Sequential(
      (0): Linear(in_features=3, out_features=3, bias=True)
      -Adagrad-0.01-0"
98,0.6929,0.6933,0.5010609704342905,0.3338,"MLP20-LeakyReLU(negative_slope=0.01)
      (2): Dropout(p=0.6, inplace=False)
    )
    (1-19): 19 x Sequential(
      (0): Linear(in_features=3, out_features=3, bias=True)
      -Adagrad-0.01-0"
99,0.693,0.6933,0.5010609704342905,0.3338,"MLP20-LeakyReLU(negative_slope=0.01)
      (2): Dropout(p=0.6, inplace=False)
    )
    (1-19): 19 x Sequential(
      (0): Linear(in_features=3, out_features=3, bias=True)
      -Adagrad-0.01-0"
100,0.6932,0.6933,0.5010609704342905,0.3338,"MLP20-LeakyReLU(negative_slope=0.01)
      (2): Dropout(p=0.6, inplace=False)
    )
    (1-19): 19 x Sequential(
      (0): Linear(in_features=3, out_features=3, bias=True)
      -Adagrad-0.01-0"
