epoch,epoch_training_loss,epoch_validation_loss,validation_accuracy,validation_f1,model-activation-optimizer-lr-wd
1,0.6975,0.6966,0.49370490875654266,0.3305,"MLP20-LeakyReLU(negative_slope=0.01)
      (2): Dropout(p=0.0, inplace=False)
    )
    (1-19): 19 x Sequential(
      (0): Linear(in_features=3, out_features=3, bias=True)
      -SGD-0.1-0"
2,0.6951,0.6965,0.49370490875654266,0.3305,"MLP20-LeakyReLU(negative_slope=0.01)
      (2): Dropout(p=0.0, inplace=False)
    )
    (1-19): 19 x Sequential(
      (0): Linear(in_features=3, out_features=3, bias=True)
      -SGD-0.1-0"
3,0.695,0.6932,0.5062950912434574,0.3361,"MLP20-LeakyReLU(negative_slope=0.01)
      (2): Dropout(p=0.0, inplace=False)
    )
    (1-19): 19 x Sequential(
      (0): Linear(in_features=3, out_features=3, bias=True)
      -SGD-0.1-0"
4,0.6949,0.6934,0.49370490875654266,0.3305,"MLP20-LeakyReLU(negative_slope=0.01)
      (2): Dropout(p=0.0, inplace=False)
    )
    (1-19): 19 x Sequential(
      (0): Linear(in_features=3, out_features=3, bias=True)
      -SGD-0.1-0"
5,0.6944,0.6938,0.49370490875654266,0.3305,"MLP20-LeakyReLU(negative_slope=0.01)
      (2): Dropout(p=0.0, inplace=False)
    )
    (1-19): 19 x Sequential(
      (0): Linear(in_features=3, out_features=3, bias=True)
      -SGD-0.1-0"
6,0.6943,0.6963,0.5062950912434574,0.3361,"MLP20-LeakyReLU(negative_slope=0.01)
      (2): Dropout(p=0.0, inplace=False)
    )
    (1-19): 19 x Sequential(
      (0): Linear(in_features=3, out_features=3, bias=True)
      -SGD-0.1-0"
7,0.6967,0.6931,0.5062950912434574,0.3361,"MLP20-LeakyReLU(negative_slope=0.01)
      (2): Dropout(p=0.0, inplace=False)
    )
    (1-19): 19 x Sequential(
      (0): Linear(in_features=3, out_features=3, bias=True)
      -SGD-0.1-0"
8,0.6947,0.7013,0.49370490875654266,0.3305,"MLP20-LeakyReLU(negative_slope=0.01)
      (2): Dropout(p=0.0, inplace=False)
    )
    (1-19): 19 x Sequential(
      (0): Linear(in_features=3, out_features=3, bias=True)
      -SGD-0.1-0"
9,0.6945,0.699,0.49370490875654266,0.3305,"MLP20-LeakyReLU(negative_slope=0.01)
      (2): Dropout(p=0.0, inplace=False)
    )
    (1-19): 19 x Sequential(
      (0): Linear(in_features=3, out_features=3, bias=True)
      -SGD-0.1-0"
10,0.6971,0.6936,0.5062950912434574,0.3361,"MLP20-LeakyReLU(negative_slope=0.01)
      (2): Dropout(p=0.0, inplace=False)
    )
    (1-19): 19 x Sequential(
      (0): Linear(in_features=3, out_features=3, bias=True)
      -SGD-0.1-0"
11,0.6959,0.6948,0.5062950912434574,0.3361,"MLP20-LeakyReLU(negative_slope=0.01)
      (2): Dropout(p=0.0, inplace=False)
    )
    (1-19): 19 x Sequential(
      (0): Linear(in_features=3, out_features=3, bias=True)
      -SGD-0.1-0"
12,0.6947,0.6931,0.5062950912434574,0.3361,"MLP20-LeakyReLU(negative_slope=0.01)
      (2): Dropout(p=0.0, inplace=False)
    )
    (1-19): 19 x Sequential(
      (0): Linear(in_features=3, out_features=3, bias=True)
      -SGD-0.1-0"
13,0.6948,0.6933,0.5062950912434574,0.3361,"MLP20-LeakyReLU(negative_slope=0.01)
      (2): Dropout(p=0.0, inplace=False)
    )
    (1-19): 19 x Sequential(
      (0): Linear(in_features=3, out_features=3, bias=True)
      -SGD-0.1-0"
14,0.6947,0.6954,0.5062950912434574,0.3361,"MLP20-LeakyReLU(negative_slope=0.01)
      (2): Dropout(p=0.0, inplace=False)
    )
    (1-19): 19 x Sequential(
      (0): Linear(in_features=3, out_features=3, bias=True)
      -SGD-0.1-0"
15,0.6946,0.7039,0.49370490875654266,0.3305,"MLP20-LeakyReLU(negative_slope=0.01)
      (2): Dropout(p=0.0, inplace=False)
    )
    (1-19): 19 x Sequential(
      (0): Linear(in_features=3, out_features=3, bias=True)
      -SGD-0.1-0"
16,0.6954,0.6931,0.5062950912434574,0.3361,"MLP20-LeakyReLU(negative_slope=0.01)
      (2): Dropout(p=0.0, inplace=False)
    )
    (1-19): 19 x Sequential(
      (0): Linear(in_features=3, out_features=3, bias=True)
      -SGD-0.1-0"
17,0.695,0.695,0.49370490875654266,0.3305,"MLP20-LeakyReLU(negative_slope=0.01)
      (2): Dropout(p=0.0, inplace=False)
    )
    (1-19): 19 x Sequential(
      (0): Linear(in_features=3, out_features=3, bias=True)
      -SGD-0.1-0"
18,0.6952,0.6967,0.49370490875654266,0.3305,"MLP20-LeakyReLU(negative_slope=0.01)
      (2): Dropout(p=0.0, inplace=False)
    )
    (1-19): 19 x Sequential(
      (0): Linear(in_features=3, out_features=3, bias=True)
      -SGD-0.1-0"
19,0.6949,0.6949,0.5062950912434574,0.3361,"MLP20-LeakyReLU(negative_slope=0.01)
      (2): Dropout(p=0.0, inplace=False)
    )
    (1-19): 19 x Sequential(
      (0): Linear(in_features=3, out_features=3, bias=True)
      -SGD-0.1-0"
20,0.6936,0.6931,0.5062950912434574,0.3361,"MLP20-LeakyReLU(negative_slope=0.01)
      (2): Dropout(p=0.0, inplace=False)
    )
    (1-19): 19 x Sequential(
      (0): Linear(in_features=3, out_features=3, bias=True)
      -SGD-0.1-0"
21,0.6949,0.6951,0.49370490875654266,0.3305,"MLP20-LeakyReLU(negative_slope=0.01)
      (2): Dropout(p=0.0, inplace=False)
    )
    (1-19): 19 x Sequential(
      (0): Linear(in_features=3, out_features=3, bias=True)
      -SGD-0.1-0"
22,0.6961,0.6948,0.49370490875654266,0.3305,"MLP20-LeakyReLU(negative_slope=0.01)
      (2): Dropout(p=0.0, inplace=False)
    )
    (1-19): 19 x Sequential(
      (0): Linear(in_features=3, out_features=3, bias=True)
      -SGD-0.1-0"
23,0.6957,0.6946,0.49370490875654266,0.3305,"MLP20-LeakyReLU(negative_slope=0.01)
      (2): Dropout(p=0.0, inplace=False)
    )
    (1-19): 19 x Sequential(
      (0): Linear(in_features=3, out_features=3, bias=True)
      -SGD-0.1-0"
24,0.6962,0.6965,0.49370490875654266,0.3305,"MLP20-LeakyReLU(negative_slope=0.01)
      (2): Dropout(p=0.0, inplace=False)
    )
    (1-19): 19 x Sequential(
      (0): Linear(in_features=3, out_features=3, bias=True)
      -SGD-0.1-0"
25,0.6965,0.6939,0.49370490875654266,0.3305,"MLP20-LeakyReLU(negative_slope=0.01)
      (2): Dropout(p=0.0, inplace=False)
    )
    (1-19): 19 x Sequential(
      (0): Linear(in_features=3, out_features=3, bias=True)
      -SGD-0.1-0"
26,0.6944,0.6931,0.5062950912434574,0.3361,"MLP20-LeakyReLU(negative_slope=0.01)
      (2): Dropout(p=0.0, inplace=False)
    )
    (1-19): 19 x Sequential(
      (0): Linear(in_features=3, out_features=3, bias=True)
      -SGD-0.1-0"
27,0.6959,0.7011,0.49370490875654266,0.3305,"MLP20-LeakyReLU(negative_slope=0.01)
      (2): Dropout(p=0.0, inplace=False)
    )
    (1-19): 19 x Sequential(
      (0): Linear(in_features=3, out_features=3, bias=True)
      -SGD-0.1-0"
28,0.6954,0.6947,0.5062950912434574,0.3361,"MLP20-LeakyReLU(negative_slope=0.01)
      (2): Dropout(p=0.0, inplace=False)
    )
    (1-19): 19 x Sequential(
      (0): Linear(in_features=3, out_features=3, bias=True)
      -SGD-0.1-0"
29,0.696,0.6931,0.5062950912434574,0.3361,"MLP20-LeakyReLU(negative_slope=0.01)
      (2): Dropout(p=0.0, inplace=False)
    )
    (1-19): 19 x Sequential(
      (0): Linear(in_features=3, out_features=3, bias=True)
      -SGD-0.1-0"
30,0.6943,0.6931,0.5062950912434574,0.3361,"MLP20-LeakyReLU(negative_slope=0.01)
      (2): Dropout(p=0.0, inplace=False)
    )
    (1-19): 19 x Sequential(
      (0): Linear(in_features=3, out_features=3, bias=True)
      -SGD-0.1-0"
31,0.6957,0.6931,0.5062950912434574,0.3361,"MLP20-LeakyReLU(negative_slope=0.01)
      (2): Dropout(p=0.0, inplace=False)
    )
    (1-19): 19 x Sequential(
      (0): Linear(in_features=3, out_features=3, bias=True)
      -SGD-0.1-0"
32,0.6967,0.6931,0.5062950912434574,0.3361,"MLP20-LeakyReLU(negative_slope=0.01)
      (2): Dropout(p=0.0, inplace=False)
    )
    (1-19): 19 x Sequential(
      (0): Linear(in_features=3, out_features=3, bias=True)
      -SGD-0.1-0"
33,0.6967,0.6936,0.49370490875654266,0.3305,"MLP20-LeakyReLU(negative_slope=0.01)
      (2): Dropout(p=0.0, inplace=False)
    )
    (1-19): 19 x Sequential(
      (0): Linear(in_features=3, out_features=3, bias=True)
      -SGD-0.1-0"
34,0.694,0.6931,0.5062950912434574,0.3361,"MLP20-LeakyReLU(negative_slope=0.01)
      (2): Dropout(p=0.0, inplace=False)
    )
    (1-19): 19 x Sequential(
      (0): Linear(in_features=3, out_features=3, bias=True)
      -SGD-0.1-0"
35,0.6965,0.6957,0.49370490875654266,0.3305,"MLP20-LeakyReLU(negative_slope=0.01)
      (2): Dropout(p=0.0, inplace=False)
    )
    (1-19): 19 x Sequential(
      (0): Linear(in_features=3, out_features=3, bias=True)
      -SGD-0.1-0"
36,0.6945,0.6977,0.49370490875654266,0.3305,"MLP20-LeakyReLU(negative_slope=0.01)
      (2): Dropout(p=0.0, inplace=False)
    )
    (1-19): 19 x Sequential(
      (0): Linear(in_features=3, out_features=3, bias=True)
      -SGD-0.1-0"
37,0.694,0.694,0.49370490875654266,0.3305,"MLP20-LeakyReLU(negative_slope=0.01)
      (2): Dropout(p=0.0, inplace=False)
    )
    (1-19): 19 x Sequential(
      (0): Linear(in_features=3, out_features=3, bias=True)
      -SGD-0.1-0"
38,0.6955,0.6931,0.5062950912434574,0.3361,"MLP20-LeakyReLU(negative_slope=0.01)
      (2): Dropout(p=0.0, inplace=False)
    )
    (1-19): 19 x Sequential(
      (0): Linear(in_features=3, out_features=3, bias=True)
      -SGD-0.1-0"
39,0.6954,0.6962,0.5062950912434574,0.3361,"MLP20-LeakyReLU(negative_slope=0.01)
      (2): Dropout(p=0.0, inplace=False)
    )
    (1-19): 19 x Sequential(
      (0): Linear(in_features=3, out_features=3, bias=True)
      -SGD-0.1-0"
40,0.6972,0.6944,0.49370490875654266,0.3305,"MLP20-LeakyReLU(negative_slope=0.01)
      (2): Dropout(p=0.0, inplace=False)
    )
    (1-19): 19 x Sequential(
      (0): Linear(in_features=3, out_features=3, bias=True)
      -SGD-0.1-0"
41,0.6954,0.6932,0.49370490875654266,0.3305,"MLP20-LeakyReLU(negative_slope=0.01)
      (2): Dropout(p=0.0, inplace=False)
    )
    (1-19): 19 x Sequential(
      (0): Linear(in_features=3, out_features=3, bias=True)
      -SGD-0.1-0"
42,0.6946,0.6935,0.49370490875654266,0.3305,"MLP20-LeakyReLU(negative_slope=0.01)
      (2): Dropout(p=0.0, inplace=False)
    )
    (1-19): 19 x Sequential(
      (0): Linear(in_features=3, out_features=3, bias=True)
      -SGD-0.1-0"
43,0.6966,0.6956,0.49370490875654266,0.3305,"MLP20-LeakyReLU(negative_slope=0.01)
      (2): Dropout(p=0.0, inplace=False)
    )
    (1-19): 19 x Sequential(
      (0): Linear(in_features=3, out_features=3, bias=True)
      -SGD-0.1-0"
44,0.6946,0.6993,0.49370490875654266,0.3305,"MLP20-LeakyReLU(negative_slope=0.01)
      (2): Dropout(p=0.0, inplace=False)
    )
    (1-19): 19 x Sequential(
      (0): Linear(in_features=3, out_features=3, bias=True)
      -SGD-0.1-0"
45,0.6974,0.6961,0.5062950912434574,0.3361,"MLP20-LeakyReLU(negative_slope=0.01)
      (2): Dropout(p=0.0, inplace=False)
    )
    (1-19): 19 x Sequential(
      (0): Linear(in_features=3, out_features=3, bias=True)
      -SGD-0.1-0"
46,0.6949,0.6931,0.5062950912434574,0.3361,"MLP20-LeakyReLU(negative_slope=0.01)
      (2): Dropout(p=0.0, inplace=False)
    )
    (1-19): 19 x Sequential(
      (0): Linear(in_features=3, out_features=3, bias=True)
      -SGD-0.1-0"
47,0.6943,0.6942,0.49370490875654266,0.3305,"MLP20-LeakyReLU(negative_slope=0.01)
      (2): Dropout(p=0.0, inplace=False)
    )
    (1-19): 19 x Sequential(
      (0): Linear(in_features=3, out_features=3, bias=True)
      -SGD-0.1-0"
48,0.6944,0.6957,0.49370490875654266,0.3305,"MLP20-LeakyReLU(negative_slope=0.01)
      (2): Dropout(p=0.0, inplace=False)
    )
    (1-19): 19 x Sequential(
      (0): Linear(in_features=3, out_features=3, bias=True)
      -SGD-0.1-0"
49,0.6974,0.6941,0.5062950912434574,0.3361,"MLP20-LeakyReLU(negative_slope=0.01)
      (2): Dropout(p=0.0, inplace=False)
    )
    (1-19): 19 x Sequential(
      (0): Linear(in_features=3, out_features=3, bias=True)
      -SGD-0.1-0"
50,0.6955,0.6971,0.49370490875654266,0.3305,"MLP20-LeakyReLU(negative_slope=0.01)
      (2): Dropout(p=0.0, inplace=False)
    )
    (1-19): 19 x Sequential(
      (0): Linear(in_features=3, out_features=3, bias=True)
      -SGD-0.1-0"
51,0.6953,0.6936,0.5062950912434574,0.3361,"MLP20-LeakyReLU(negative_slope=0.01)
      (2): Dropout(p=0.0, inplace=False)
    )
    (1-19): 19 x Sequential(
      (0): Linear(in_features=3, out_features=3, bias=True)
      -SGD-0.1-0"
52,0.6958,0.6955,0.49370490875654266,0.3305,"MLP20-LeakyReLU(negative_slope=0.01)
      (2): Dropout(p=0.0, inplace=False)
    )
    (1-19): 19 x Sequential(
      (0): Linear(in_features=3, out_features=3, bias=True)
      -SGD-0.1-0"
53,0.6948,0.6983,0.49370490875654266,0.3305,"MLP20-LeakyReLU(negative_slope=0.01)
      (2): Dropout(p=0.0, inplace=False)
    )
    (1-19): 19 x Sequential(
      (0): Linear(in_features=3, out_features=3, bias=True)
      -SGD-0.1-0"
54,0.6966,0.6936,0.5062950912434574,0.3361,"MLP20-LeakyReLU(negative_slope=0.01)
      (2): Dropout(p=0.0, inplace=False)
    )
    (1-19): 19 x Sequential(
      (0): Linear(in_features=3, out_features=3, bias=True)
      -SGD-0.1-0"
55,0.6949,0.6952,0.49370490875654266,0.3305,"MLP20-LeakyReLU(negative_slope=0.01)
      (2): Dropout(p=0.0, inplace=False)
    )
    (1-19): 19 x Sequential(
      (0): Linear(in_features=3, out_features=3, bias=True)
      -SGD-0.1-0"
56,0.694,0.6941,0.5062950912434574,0.3361,"MLP20-LeakyReLU(negative_slope=0.01)
      (2): Dropout(p=0.0, inplace=False)
    )
    (1-19): 19 x Sequential(
      (0): Linear(in_features=3, out_features=3, bias=True)
      -SGD-0.1-0"
57,0.6943,0.6974,0.49370490875654266,0.3305,"MLP20-LeakyReLU(negative_slope=0.01)
      (2): Dropout(p=0.0, inplace=False)
    )
    (1-19): 19 x Sequential(
      (0): Linear(in_features=3, out_features=3, bias=True)
      -SGD-0.1-0"
58,0.6956,0.6941,0.49370490875654266,0.3305,"MLP20-LeakyReLU(negative_slope=0.01)
      (2): Dropout(p=0.0, inplace=False)
    )
    (1-19): 19 x Sequential(
      (0): Linear(in_features=3, out_features=3, bias=True)
      -SGD-0.1-0"
59,0.6945,0.6932,0.5062950912434574,0.3361,"MLP20-LeakyReLU(negative_slope=0.01)
      (2): Dropout(p=0.0, inplace=False)
    )
    (1-19): 19 x Sequential(
      (0): Linear(in_features=3, out_features=3, bias=True)
      -SGD-0.1-0"
60,0.6955,0.7005,0.49370490875654266,0.3305,"MLP20-LeakyReLU(negative_slope=0.01)
      (2): Dropout(p=0.0, inplace=False)
    )
    (1-19): 19 x Sequential(
      (0): Linear(in_features=3, out_features=3, bias=True)
      -SGD-0.1-0"
61,0.6949,0.6968,0.49370490875654266,0.3305,"MLP20-LeakyReLU(negative_slope=0.01)
      (2): Dropout(p=0.0, inplace=False)
    )
    (1-19): 19 x Sequential(
      (0): Linear(in_features=3, out_features=3, bias=True)
      -SGD-0.1-0"
62,0.6944,0.6985,0.49370490875654266,0.3305,"MLP20-LeakyReLU(negative_slope=0.01)
      (2): Dropout(p=0.0, inplace=False)
    )
    (1-19): 19 x Sequential(
      (0): Linear(in_features=3, out_features=3, bias=True)
      -SGD-0.1-0"
63,0.6948,0.6964,0.49370490875654266,0.3305,"MLP20-LeakyReLU(negative_slope=0.01)
      (2): Dropout(p=0.0, inplace=False)
    )
    (1-19): 19 x Sequential(
      (0): Linear(in_features=3, out_features=3, bias=True)
      -SGD-0.1-0"
64,0.6949,0.6935,0.49370490875654266,0.3305,"MLP20-LeakyReLU(negative_slope=0.01)
      (2): Dropout(p=0.0, inplace=False)
    )
    (1-19): 19 x Sequential(
      (0): Linear(in_features=3, out_features=3, bias=True)
      -SGD-0.1-0"
65,0.6951,0.6934,0.49370490875654266,0.3305,"MLP20-LeakyReLU(negative_slope=0.01)
      (2): Dropout(p=0.0, inplace=False)
    )
    (1-19): 19 x Sequential(
      (0): Linear(in_features=3, out_features=3, bias=True)
      -SGD-0.1-0"
66,0.6951,0.6978,0.5062950912434574,0.3361,"MLP20-LeakyReLU(negative_slope=0.01)
      (2): Dropout(p=0.0, inplace=False)
    )
    (1-19): 19 x Sequential(
      (0): Linear(in_features=3, out_features=3, bias=True)
      -SGD-0.1-0"
67,0.6959,0.6941,0.49370490875654266,0.3305,"MLP20-LeakyReLU(negative_slope=0.01)
      (2): Dropout(p=0.0, inplace=False)
    )
    (1-19): 19 x Sequential(
      (0): Linear(in_features=3, out_features=3, bias=True)
      -SGD-0.1-0"
68,0.6949,0.6931,0.5062950912434574,0.3361,"MLP20-LeakyReLU(negative_slope=0.01)
      (2): Dropout(p=0.0, inplace=False)
    )
    (1-19): 19 x Sequential(
      (0): Linear(in_features=3, out_features=3, bias=True)
      -SGD-0.1-0"
69,0.6972,0.6931,0.5062950912434574,0.3361,"MLP20-LeakyReLU(negative_slope=0.01)
      (2): Dropout(p=0.0, inplace=False)
    )
    (1-19): 19 x Sequential(
      (0): Linear(in_features=3, out_features=3, bias=True)
      -SGD-0.1-0"
70,0.6943,0.7202,0.49370490875654266,0.3305,"MLP20-LeakyReLU(negative_slope=0.01)
      (2): Dropout(p=0.0, inplace=False)
    )
    (1-19): 19 x Sequential(
      (0): Linear(in_features=3, out_features=3, bias=True)
      -SGD-0.1-0"
71,0.6973,0.6931,0.5062950912434574,0.3361,"MLP20-LeakyReLU(negative_slope=0.01)
      (2): Dropout(p=0.0, inplace=False)
    )
    (1-19): 19 x Sequential(
      (0): Linear(in_features=3, out_features=3, bias=True)
      -SGD-0.1-0"
72,0.6948,0.6931,0.5062950912434574,0.3361,"MLP20-LeakyReLU(negative_slope=0.01)
      (2): Dropout(p=0.0, inplace=False)
    )
    (1-19): 19 x Sequential(
      (0): Linear(in_features=3, out_features=3, bias=True)
      -SGD-0.1-0"
73,0.6949,0.6986,0.49370490875654266,0.3305,"MLP20-LeakyReLU(negative_slope=0.01)
      (2): Dropout(p=0.0, inplace=False)
    )
    (1-19): 19 x Sequential(
      (0): Linear(in_features=3, out_features=3, bias=True)
      -SGD-0.1-0"
74,0.6954,0.6932,0.49370490875654266,0.3305,"MLP20-LeakyReLU(negative_slope=0.01)
      (2): Dropout(p=0.0, inplace=False)
    )
    (1-19): 19 x Sequential(
      (0): Linear(in_features=3, out_features=3, bias=True)
      -SGD-0.1-0"
75,0.6968,0.6963,0.49370490875654266,0.3305,"MLP20-LeakyReLU(negative_slope=0.01)
      (2): Dropout(p=0.0, inplace=False)
    )
    (1-19): 19 x Sequential(
      (0): Linear(in_features=3, out_features=3, bias=True)
      -SGD-0.1-0"
76,0.6955,0.6938,0.5062950912434574,0.3361,"MLP20-LeakyReLU(negative_slope=0.01)
      (2): Dropout(p=0.0, inplace=False)
    )
    (1-19): 19 x Sequential(
      (0): Linear(in_features=3, out_features=3, bias=True)
      -SGD-0.1-0"
77,0.6946,0.6957,0.49370490875654266,0.3305,"MLP20-LeakyReLU(negative_slope=0.01)
      (2): Dropout(p=0.0, inplace=False)
    )
    (1-19): 19 x Sequential(
      (0): Linear(in_features=3, out_features=3, bias=True)
      -SGD-0.1-0"
78,0.6952,0.6937,0.5062950912434574,0.3361,"MLP20-LeakyReLU(negative_slope=0.01)
      (2): Dropout(p=0.0, inplace=False)
    )
    (1-19): 19 x Sequential(
      (0): Linear(in_features=3, out_features=3, bias=True)
      -SGD-0.1-0"
79,0.6948,0.6931,0.5062950912434574,0.3361,"MLP20-LeakyReLU(negative_slope=0.01)
      (2): Dropout(p=0.0, inplace=False)
    )
    (1-19): 19 x Sequential(
      (0): Linear(in_features=3, out_features=3, bias=True)
      -SGD-0.1-0"
80,0.6954,0.6931,0.5062950912434574,0.3361,"MLP20-LeakyReLU(negative_slope=0.01)
      (2): Dropout(p=0.0, inplace=False)
    )
    (1-19): 19 x Sequential(
      (0): Linear(in_features=3, out_features=3, bias=True)
      -SGD-0.1-0"
81,0.6948,0.697,0.49370490875654266,0.3305,"MLP20-LeakyReLU(negative_slope=0.01)
      (2): Dropout(p=0.0, inplace=False)
    )
    (1-19): 19 x Sequential(
      (0): Linear(in_features=3, out_features=3, bias=True)
      -SGD-0.1-0"
82,0.6953,0.6933,0.49370490875654266,0.3305,"MLP20-LeakyReLU(negative_slope=0.01)
      (2): Dropout(p=0.0, inplace=False)
    )
    (1-19): 19 x Sequential(
      (0): Linear(in_features=3, out_features=3, bias=True)
      -SGD-0.1-0"
83,0.6951,0.6931,0.5062950912434574,0.3361,"MLP20-LeakyReLU(negative_slope=0.01)
      (2): Dropout(p=0.0, inplace=False)
    )
    (1-19): 19 x Sequential(
      (0): Linear(in_features=3, out_features=3, bias=True)
      -SGD-0.1-0"
84,0.6934,0.7052,0.49370490875654266,0.3305,"MLP20-LeakyReLU(negative_slope=0.01)
      (2): Dropout(p=0.0, inplace=False)
    )
    (1-19): 19 x Sequential(
      (0): Linear(in_features=3, out_features=3, bias=True)
      -SGD-0.1-0"
85,0.6976,0.6931,0.5062950912434574,0.3361,"MLP20-LeakyReLU(negative_slope=0.01)
      (2): Dropout(p=0.0, inplace=False)
    )
    (1-19): 19 x Sequential(
      (0): Linear(in_features=3, out_features=3, bias=True)
      -SGD-0.1-0"
86,0.6968,0.701,0.5062950912434574,0.3361,"MLP20-LeakyReLU(negative_slope=0.01)
      (2): Dropout(p=0.0, inplace=False)
    )
    (1-19): 19 x Sequential(
      (0): Linear(in_features=3, out_features=3, bias=True)
      -SGD-0.1-0"
87,0.6965,0.7003,0.5062950912434574,0.3361,"MLP20-LeakyReLU(negative_slope=0.01)
      (2): Dropout(p=0.0, inplace=False)
    )
    (1-19): 19 x Sequential(
      (0): Linear(in_features=3, out_features=3, bias=True)
      -SGD-0.1-0"
88,0.695,0.6931,0.5062950912434574,0.3361,"MLP20-LeakyReLU(negative_slope=0.01)
      (2): Dropout(p=0.0, inplace=False)
    )
    (1-19): 19 x Sequential(
      (0): Linear(in_features=3, out_features=3, bias=True)
      -SGD-0.1-0"
89,0.6948,0.6932,0.5062950912434574,0.3361,"MLP20-LeakyReLU(negative_slope=0.01)
      (2): Dropout(p=0.0, inplace=False)
    )
    (1-19): 19 x Sequential(
      (0): Linear(in_features=3, out_features=3, bias=True)
      -SGD-0.1-0"
90,0.6945,0.6964,0.49370490875654266,0.3305,"MLP20-LeakyReLU(negative_slope=0.01)
      (2): Dropout(p=0.0, inplace=False)
    )
    (1-19): 19 x Sequential(
      (0): Linear(in_features=3, out_features=3, bias=True)
      -SGD-0.1-0"
91,0.6963,0.6946,0.49370490875654266,0.3305,"MLP20-LeakyReLU(negative_slope=0.01)
      (2): Dropout(p=0.0, inplace=False)
    )
    (1-19): 19 x Sequential(
      (0): Linear(in_features=3, out_features=3, bias=True)
      -SGD-0.1-0"
92,0.6939,0.6933,0.5062950912434574,0.3361,"MLP20-LeakyReLU(negative_slope=0.01)
      (2): Dropout(p=0.0, inplace=False)
    )
    (1-19): 19 x Sequential(
      (0): Linear(in_features=3, out_features=3, bias=True)
      -SGD-0.1-0"
93,0.694,0.6935,0.49370490875654266,0.3305,"MLP20-LeakyReLU(negative_slope=0.01)
      (2): Dropout(p=0.0, inplace=False)
    )
    (1-19): 19 x Sequential(
      (0): Linear(in_features=3, out_features=3, bias=True)
      -SGD-0.1-0"
94,0.6952,0.6948,0.5062950912434574,0.3361,"MLP20-LeakyReLU(negative_slope=0.01)
      (2): Dropout(p=0.0, inplace=False)
    )
    (1-19): 19 x Sequential(
      (0): Linear(in_features=3, out_features=3, bias=True)
      -SGD-0.1-0"
95,0.6958,0.6937,0.49370490875654266,0.3305,"MLP20-LeakyReLU(negative_slope=0.01)
      (2): Dropout(p=0.0, inplace=False)
    )
    (1-19): 19 x Sequential(
      (0): Linear(in_features=3, out_features=3, bias=True)
      -SGD-0.1-0"
96,0.6953,0.6945,0.49370490875654266,0.3305,"MLP20-LeakyReLU(negative_slope=0.01)
      (2): Dropout(p=0.0, inplace=False)
    )
    (1-19): 19 x Sequential(
      (0): Linear(in_features=3, out_features=3, bias=True)
      -SGD-0.1-0"
97,0.6951,0.6991,0.49370490875654266,0.3305,"MLP20-LeakyReLU(negative_slope=0.01)
      (2): Dropout(p=0.0, inplace=False)
    )
    (1-19): 19 x Sequential(
      (0): Linear(in_features=3, out_features=3, bias=True)
      -SGD-0.1-0"
98,0.6947,0.6972,0.49370490875654266,0.3305,"MLP20-LeakyReLU(negative_slope=0.01)
      (2): Dropout(p=0.0, inplace=False)
    )
    (1-19): 19 x Sequential(
      (0): Linear(in_features=3, out_features=3, bias=True)
      -SGD-0.1-0"
99,0.6949,0.6977,0.5062950912434574,0.3361,"MLP20-LeakyReLU(negative_slope=0.01)
      (2): Dropout(p=0.0, inplace=False)
    )
    (1-19): 19 x Sequential(
      (0): Linear(in_features=3, out_features=3, bias=True)
      -SGD-0.1-0"
100,0.6971,0.6934,0.49370490875654266,0.3305,"MLP20-LeakyReLU(negative_slope=0.01)
      (2): Dropout(p=0.0, inplace=False)
    )
    (1-19): 19 x Sequential(
      (0): Linear(in_features=3, out_features=3, bias=True)
      -SGD-0.1-0"
1,0.6985,0.694,0.5062950912434574,0.3361,"MLP20-LeakyReLU(negative_slope=0.01)
      (2): Dropout(p=0.0, inplace=False)
    )
    (1-19): 19 x Sequential(
      (0): Linear(in_features=3, out_features=3, bias=True)
      -Adagrad-0.1-0"
2,0.6939,0.6933,0.49370490875654266,0.3305,"MLP20-LeakyReLU(negative_slope=0.01)
      (2): Dropout(p=0.0, inplace=False)
    )
    (1-19): 19 x Sequential(
      (0): Linear(in_features=3, out_features=3, bias=True)
      -Adagrad-0.1-0"
3,0.6935,0.6942,0.49370490875654266,0.3305,"MLP20-LeakyReLU(negative_slope=0.01)
      (2): Dropout(p=0.0, inplace=False)
    )
    (1-19): 19 x Sequential(
      (0): Linear(in_features=3, out_features=3, bias=True)
      -Adagrad-0.1-0"
4,0.6933,0.6933,0.5062950912434574,0.3361,"MLP20-LeakyReLU(negative_slope=0.01)
      (2): Dropout(p=0.0, inplace=False)
    )
    (1-19): 19 x Sequential(
      (0): Linear(in_features=3, out_features=3, bias=True)
      -Adagrad-0.1-0"
5,0.6936,0.6931,0.5062950912434574,0.3361,"MLP20-LeakyReLU(negative_slope=0.01)
      (2): Dropout(p=0.0, inplace=False)
    )
    (1-19): 19 x Sequential(
      (0): Linear(in_features=3, out_features=3, bias=True)
      -Adagrad-0.1-0"
6,0.6935,0.6932,0.49370490875654266,0.3305,"MLP20-LeakyReLU(negative_slope=0.01)
      (2): Dropout(p=0.0, inplace=False)
    )
    (1-19): 19 x Sequential(
      (0): Linear(in_features=3, out_features=3, bias=True)
      -Adagrad-0.1-0"
7,0.6935,0.6931,0.5062950912434574,0.3361,"MLP20-LeakyReLU(negative_slope=0.01)
      (2): Dropout(p=0.0, inplace=False)
    )
    (1-19): 19 x Sequential(
      (0): Linear(in_features=3, out_features=3, bias=True)
      -Adagrad-0.1-0"
8,0.6936,0.6933,0.49370490875654266,0.3305,"MLP20-LeakyReLU(negative_slope=0.01)
      (2): Dropout(p=0.0, inplace=False)
    )
    (1-19): 19 x Sequential(
      (0): Linear(in_features=3, out_features=3, bias=True)
      -Adagrad-0.1-0"
9,0.6934,0.6936,0.49370490875654266,0.3305,"MLP20-LeakyReLU(negative_slope=0.01)
      (2): Dropout(p=0.0, inplace=False)
    )
    (1-19): 19 x Sequential(
      (0): Linear(in_features=3, out_features=3, bias=True)
      -Adagrad-0.1-0"
10,0.6934,0.6931,0.5062950912434574,0.3361,"MLP20-LeakyReLU(negative_slope=0.01)
      (2): Dropout(p=0.0, inplace=False)
    )
    (1-19): 19 x Sequential(
      (0): Linear(in_features=3, out_features=3, bias=True)
      -Adagrad-0.1-0"
11,0.6934,0.6931,0.5062950912434574,0.3361,"MLP20-LeakyReLU(negative_slope=0.01)
      (2): Dropout(p=0.0, inplace=False)
    )
    (1-19): 19 x Sequential(
      (0): Linear(in_features=3, out_features=3, bias=True)
      -Adagrad-0.1-0"
12,0.6933,0.6937,0.49370490875654266,0.3305,"MLP20-LeakyReLU(negative_slope=0.01)
      (2): Dropout(p=0.0, inplace=False)
    )
    (1-19): 19 x Sequential(
      (0): Linear(in_features=3, out_features=3, bias=True)
      -Adagrad-0.1-0"
13,0.6933,0.6931,0.5062950912434574,0.3361,"MLP20-LeakyReLU(negative_slope=0.01)
      (2): Dropout(p=0.0, inplace=False)
    )
    (1-19): 19 x Sequential(
      (0): Linear(in_features=3, out_features=3, bias=True)
      -Adagrad-0.1-0"
14,0.6934,0.6932,0.49370490875654266,0.3305,"MLP20-LeakyReLU(negative_slope=0.01)
      (2): Dropout(p=0.0, inplace=False)
    )
    (1-19): 19 x Sequential(
      (0): Linear(in_features=3, out_features=3, bias=True)
      -Adagrad-0.1-0"
15,0.693,0.6939,0.49370490875654266,0.3305,"MLP20-LeakyReLU(negative_slope=0.01)
      (2): Dropout(p=0.0, inplace=False)
    )
    (1-19): 19 x Sequential(
      (0): Linear(in_features=3, out_features=3, bias=True)
      -Adagrad-0.1-0"
16,0.6934,0.6934,0.49370490875654266,0.3305,"MLP20-LeakyReLU(negative_slope=0.01)
      (2): Dropout(p=0.0, inplace=False)
    )
    (1-19): 19 x Sequential(
      (0): Linear(in_features=3, out_features=3, bias=True)
      -Adagrad-0.1-0"
17,0.6933,0.6934,0.49370490875654266,0.3305,"MLP20-LeakyReLU(negative_slope=0.01)
      (2): Dropout(p=0.0, inplace=False)
    )
    (1-19): 19 x Sequential(
      (0): Linear(in_features=3, out_features=3, bias=True)
      -Adagrad-0.1-0"
18,0.6934,0.6936,0.49370490875654266,0.3305,"MLP20-LeakyReLU(negative_slope=0.01)
      (2): Dropout(p=0.0, inplace=False)
    )
    (1-19): 19 x Sequential(
      (0): Linear(in_features=3, out_features=3, bias=True)
      -Adagrad-0.1-0"
19,0.6933,0.6932,0.49370490875654266,0.3305,"MLP20-LeakyReLU(negative_slope=0.01)
      (2): Dropout(p=0.0, inplace=False)
    )
    (1-19): 19 x Sequential(
      (0): Linear(in_features=3, out_features=3, bias=True)
      -Adagrad-0.1-0"
20,0.6933,0.6933,0.49370490875654266,0.3305,"MLP20-LeakyReLU(negative_slope=0.01)
      (2): Dropout(p=0.0, inplace=False)
    )
    (1-19): 19 x Sequential(
      (0): Linear(in_features=3, out_features=3, bias=True)
      -Adagrad-0.1-0"
21,0.6933,0.6932,0.49370490875654266,0.3305,"MLP20-LeakyReLU(negative_slope=0.01)
      (2): Dropout(p=0.0, inplace=False)
    )
    (1-19): 19 x Sequential(
      (0): Linear(in_features=3, out_features=3, bias=True)
      -Adagrad-0.1-0"
22,0.6933,0.6934,0.49370490875654266,0.3305,"MLP20-LeakyReLU(negative_slope=0.01)
      (2): Dropout(p=0.0, inplace=False)
    )
    (1-19): 19 x Sequential(
      (0): Linear(in_features=3, out_features=3, bias=True)
      -Adagrad-0.1-0"
23,0.6933,0.6934,0.49370490875654266,0.3305,"MLP20-LeakyReLU(negative_slope=0.01)
      (2): Dropout(p=0.0, inplace=False)
    )
    (1-19): 19 x Sequential(
      (0): Linear(in_features=3, out_features=3, bias=True)
      -Adagrad-0.1-0"
24,0.6934,0.6931,0.5062950912434574,0.3361,"MLP20-LeakyReLU(negative_slope=0.01)
      (2): Dropout(p=0.0, inplace=False)
    )
    (1-19): 19 x Sequential(
      (0): Linear(in_features=3, out_features=3, bias=True)
      -Adagrad-0.1-0"
25,0.6934,0.6931,0.5062950912434574,0.3361,"MLP20-LeakyReLU(negative_slope=0.01)
      (2): Dropout(p=0.0, inplace=False)
    )
    (1-19): 19 x Sequential(
      (0): Linear(in_features=3, out_features=3, bias=True)
      -Adagrad-0.1-0"
26,0.6934,0.6931,0.5062950912434574,0.3361,"MLP20-LeakyReLU(negative_slope=0.01)
      (2): Dropout(p=0.0, inplace=False)
    )
    (1-19): 19 x Sequential(
      (0): Linear(in_features=3, out_features=3, bias=True)
      -Adagrad-0.1-0"
27,0.6934,0.6933,0.49370490875654266,0.3305,"MLP20-LeakyReLU(negative_slope=0.01)
      (2): Dropout(p=0.0, inplace=False)
    )
    (1-19): 19 x Sequential(
      (0): Linear(in_features=3, out_features=3, bias=True)
      -Adagrad-0.1-0"
28,0.6934,0.6931,0.5062950912434574,0.3361,"MLP20-LeakyReLU(negative_slope=0.01)
      (2): Dropout(p=0.0, inplace=False)
    )
    (1-19): 19 x Sequential(
      (0): Linear(in_features=3, out_features=3, bias=True)
      -Adagrad-0.1-0"
29,0.6933,0.6934,0.49370490875654266,0.3305,"MLP20-LeakyReLU(negative_slope=0.01)
      (2): Dropout(p=0.0, inplace=False)
    )
    (1-19): 19 x Sequential(
      (0): Linear(in_features=3, out_features=3, bias=True)
      -Adagrad-0.1-0"
30,0.6933,0.6934,0.49370490875654266,0.3305,"MLP20-LeakyReLU(negative_slope=0.01)
      (2): Dropout(p=0.0, inplace=False)
    )
    (1-19): 19 x Sequential(
      (0): Linear(in_features=3, out_features=3, bias=True)
      -Adagrad-0.1-0"
31,0.6933,0.6931,0.5062950912434574,0.3361,"MLP20-LeakyReLU(negative_slope=0.01)
      (2): Dropout(p=0.0, inplace=False)
    )
    (1-19): 19 x Sequential(
      (0): Linear(in_features=3, out_features=3, bias=True)
      -Adagrad-0.1-0"
32,0.6933,0.6932,0.49370490875654266,0.3305,"MLP20-LeakyReLU(negative_slope=0.01)
      (2): Dropout(p=0.0, inplace=False)
    )
    (1-19): 19 x Sequential(
      (0): Linear(in_features=3, out_features=3, bias=True)
      -Adagrad-0.1-0"
33,0.6933,0.6932,0.49370490875654266,0.3305,"MLP20-LeakyReLU(negative_slope=0.01)
      (2): Dropout(p=0.0, inplace=False)
    )
    (1-19): 19 x Sequential(
      (0): Linear(in_features=3, out_features=3, bias=True)
      -Adagrad-0.1-0"
34,0.6932,0.6933,0.49370490875654266,0.3305,"MLP20-LeakyReLU(negative_slope=0.01)
      (2): Dropout(p=0.0, inplace=False)
    )
    (1-19): 19 x Sequential(
      (0): Linear(in_features=3, out_features=3, bias=True)
      -Adagrad-0.1-0"
35,0.6931,0.6938,0.49370490875654266,0.3305,"MLP20-LeakyReLU(negative_slope=0.01)
      (2): Dropout(p=0.0, inplace=False)
    )
    (1-19): 19 x Sequential(
      (0): Linear(in_features=3, out_features=3, bias=True)
      -Adagrad-0.1-0"
36,0.6932,0.6931,0.5062950912434574,0.3361,"MLP20-LeakyReLU(negative_slope=0.01)
      (2): Dropout(p=0.0, inplace=False)
    )
    (1-19): 19 x Sequential(
      (0): Linear(in_features=3, out_features=3, bias=True)
      -Adagrad-0.1-0"
37,0.6933,0.6931,0.5062950912434574,0.3361,"MLP20-LeakyReLU(negative_slope=0.01)
      (2): Dropout(p=0.0, inplace=False)
    )
    (1-19): 19 x Sequential(
      (0): Linear(in_features=3, out_features=3, bias=True)
      -Adagrad-0.1-0"
38,0.6933,0.6932,0.49370490875654266,0.3305,"MLP20-LeakyReLU(negative_slope=0.01)
      (2): Dropout(p=0.0, inplace=False)
    )
    (1-19): 19 x Sequential(
      (0): Linear(in_features=3, out_features=3, bias=True)
      -Adagrad-0.1-0"
39,0.6933,0.6931,0.5062950912434574,0.3361,"MLP20-LeakyReLU(negative_slope=0.01)
      (2): Dropout(p=0.0, inplace=False)
    )
    (1-19): 19 x Sequential(
      (0): Linear(in_features=3, out_features=3, bias=True)
      -Adagrad-0.1-0"
40,0.6933,0.6932,0.49370490875654266,0.3305,"MLP20-LeakyReLU(negative_slope=0.01)
      (2): Dropout(p=0.0, inplace=False)
    )
    (1-19): 19 x Sequential(
      (0): Linear(in_features=3, out_features=3, bias=True)
      -Adagrad-0.1-0"
41,0.6933,0.6932,0.49370490875654266,0.3305,"MLP20-LeakyReLU(negative_slope=0.01)
      (2): Dropout(p=0.0, inplace=False)
    )
    (1-19): 19 x Sequential(
      (0): Linear(in_features=3, out_features=3, bias=True)
      -Adagrad-0.1-0"
42,0.6933,0.6931,0.5062950912434574,0.3361,"MLP20-LeakyReLU(negative_slope=0.01)
      (2): Dropout(p=0.0, inplace=False)
    )
    (1-19): 19 x Sequential(
      (0): Linear(in_features=3, out_features=3, bias=True)
      -Adagrad-0.1-0"
43,0.6932,0.6933,0.49370490875654266,0.3305,"MLP20-LeakyReLU(negative_slope=0.01)
      (2): Dropout(p=0.0, inplace=False)
    )
    (1-19): 19 x Sequential(
      (0): Linear(in_features=3, out_features=3, bias=True)
      -Adagrad-0.1-0"
44,0.6933,0.6931,0.5062950912434574,0.3361,"MLP20-LeakyReLU(negative_slope=0.01)
      (2): Dropout(p=0.0, inplace=False)
    )
    (1-19): 19 x Sequential(
      (0): Linear(in_features=3, out_features=3, bias=True)
      -Adagrad-0.1-0"
45,0.6933,0.6934,0.49370490875654266,0.3305,"MLP20-LeakyReLU(negative_slope=0.01)
      (2): Dropout(p=0.0, inplace=False)
    )
    (1-19): 19 x Sequential(
      (0): Linear(in_features=3, out_features=3, bias=True)
      -Adagrad-0.1-0"
46,0.6933,0.6934,0.49370490875654266,0.3305,"MLP20-LeakyReLU(negative_slope=0.01)
      (2): Dropout(p=0.0, inplace=False)
    )
    (1-19): 19 x Sequential(
      (0): Linear(in_features=3, out_features=3, bias=True)
      -Adagrad-0.1-0"
47,0.6933,0.6933,0.49370490875654266,0.3305,"MLP20-LeakyReLU(negative_slope=0.01)
      (2): Dropout(p=0.0, inplace=False)
    )
    (1-19): 19 x Sequential(
      (0): Linear(in_features=3, out_features=3, bias=True)
      -Adagrad-0.1-0"
48,0.6933,0.6932,0.49370490875654266,0.3305,"MLP20-LeakyReLU(negative_slope=0.01)
      (2): Dropout(p=0.0, inplace=False)
    )
    (1-19): 19 x Sequential(
      (0): Linear(in_features=3, out_features=3, bias=True)
      -Adagrad-0.1-0"
49,0.6932,0.6931,0.5062950912434574,0.3361,"MLP20-LeakyReLU(negative_slope=0.01)
      (2): Dropout(p=0.0, inplace=False)
    )
    (1-19): 19 x Sequential(
      (0): Linear(in_features=3, out_features=3, bias=True)
      -Adagrad-0.1-0"
50,0.6933,0.6931,0.5062950912434574,0.3361,"MLP20-LeakyReLU(negative_slope=0.01)
      (2): Dropout(p=0.0, inplace=False)
    )
    (1-19): 19 x Sequential(
      (0): Linear(in_features=3, out_features=3, bias=True)
      -Adagrad-0.1-0"
51,0.6933,0.6933,0.49370490875654266,0.3305,"MLP20-LeakyReLU(negative_slope=0.01)
      (2): Dropout(p=0.0, inplace=False)
    )
    (1-19): 19 x Sequential(
      (0): Linear(in_features=3, out_features=3, bias=True)
      -Adagrad-0.1-0"
52,0.6932,0.6932,0.49370490875654266,0.3305,"MLP20-LeakyReLU(negative_slope=0.01)
      (2): Dropout(p=0.0, inplace=False)
    )
    (1-19): 19 x Sequential(
      (0): Linear(in_features=3, out_features=3, bias=True)
      -Adagrad-0.1-0"
53,0.6932,0.6934,0.49370490875654266,0.3305,"MLP20-LeakyReLU(negative_slope=0.01)
      (2): Dropout(p=0.0, inplace=False)
    )
    (1-19): 19 x Sequential(
      (0): Linear(in_features=3, out_features=3, bias=True)
      -Adagrad-0.1-0"
54,0.6933,0.6933,0.49370490875654266,0.3305,"MLP20-LeakyReLU(negative_slope=0.01)
      (2): Dropout(p=0.0, inplace=False)
    )
    (1-19): 19 x Sequential(
      (0): Linear(in_features=3, out_features=3, bias=True)
      -Adagrad-0.1-0"
55,0.6932,0.6933,0.49370490875654266,0.3305,"MLP20-LeakyReLU(negative_slope=0.01)
      (2): Dropout(p=0.0, inplace=False)
    )
    (1-19): 19 x Sequential(
      (0): Linear(in_features=3, out_features=3, bias=True)
      -Adagrad-0.1-0"
56,0.6933,0.6932,0.49370490875654266,0.3305,"MLP20-LeakyReLU(negative_slope=0.01)
      (2): Dropout(p=0.0, inplace=False)
    )
    (1-19): 19 x Sequential(
      (0): Linear(in_features=3, out_features=3, bias=True)
      -Adagrad-0.1-0"
57,0.6932,0.6932,0.49370490875654266,0.3305,"MLP20-LeakyReLU(negative_slope=0.01)
      (2): Dropout(p=0.0, inplace=False)
    )
    (1-19): 19 x Sequential(
      (0): Linear(in_features=3, out_features=3, bias=True)
      -Adagrad-0.1-0"
58,0.6932,0.6931,0.5062950912434574,0.3361,"MLP20-LeakyReLU(negative_slope=0.01)
      (2): Dropout(p=0.0, inplace=False)
    )
    (1-19): 19 x Sequential(
      (0): Linear(in_features=3, out_features=3, bias=True)
      -Adagrad-0.1-0"
59,0.6933,0.6932,0.49370490875654266,0.3305,"MLP20-LeakyReLU(negative_slope=0.01)
      (2): Dropout(p=0.0, inplace=False)
    )
    (1-19): 19 x Sequential(
      (0): Linear(in_features=3, out_features=3, bias=True)
      -Adagrad-0.1-0"
60,0.6933,0.6931,0.5062950912434574,0.3361,"MLP20-LeakyReLU(negative_slope=0.01)
      (2): Dropout(p=0.0, inplace=False)
    )
    (1-19): 19 x Sequential(
      (0): Linear(in_features=3, out_features=3, bias=True)
      -Adagrad-0.1-0"
61,0.6932,0.6931,0.5062950912434574,0.3361,"MLP20-LeakyReLU(negative_slope=0.01)
      (2): Dropout(p=0.0, inplace=False)
    )
    (1-19): 19 x Sequential(
      (0): Linear(in_features=3, out_features=3, bias=True)
      -Adagrad-0.1-0"
62,0.6933,0.6932,0.49370490875654266,0.3305,"MLP20-LeakyReLU(negative_slope=0.01)
      (2): Dropout(p=0.0, inplace=False)
    )
    (1-19): 19 x Sequential(
      (0): Linear(in_features=3, out_features=3, bias=True)
      -Adagrad-0.1-0"
63,0.6933,0.6932,0.49370490875654266,0.3305,"MLP20-LeakyReLU(negative_slope=0.01)
      (2): Dropout(p=0.0, inplace=False)
    )
    (1-19): 19 x Sequential(
      (0): Linear(in_features=3, out_features=3, bias=True)
      -Adagrad-0.1-0"
64,0.6932,0.6931,0.5062950912434574,0.3361,"MLP20-LeakyReLU(negative_slope=0.01)
      (2): Dropout(p=0.0, inplace=False)
    )
    (1-19): 19 x Sequential(
      (0): Linear(in_features=3, out_features=3, bias=True)
      -Adagrad-0.1-0"
65,0.6933,0.6932,0.49370490875654266,0.3305,"MLP20-LeakyReLU(negative_slope=0.01)
      (2): Dropout(p=0.0, inplace=False)
    )
    (1-19): 19 x Sequential(
      (0): Linear(in_features=3, out_features=3, bias=True)
      -Adagrad-0.1-0"
66,0.6933,0.6932,0.49370490875654266,0.3305,"MLP20-LeakyReLU(negative_slope=0.01)
      (2): Dropout(p=0.0, inplace=False)
    )
    (1-19): 19 x Sequential(
      (0): Linear(in_features=3, out_features=3, bias=True)
      -Adagrad-0.1-0"
67,0.6933,0.6932,0.49370490875654266,0.3305,"MLP20-LeakyReLU(negative_slope=0.01)
      (2): Dropout(p=0.0, inplace=False)
    )
    (1-19): 19 x Sequential(
      (0): Linear(in_features=3, out_features=3, bias=True)
      -Adagrad-0.1-0"
68,0.6932,0.6931,0.5062950912434574,0.3361,"MLP20-LeakyReLU(negative_slope=0.01)
      (2): Dropout(p=0.0, inplace=False)
    )
    (1-19): 19 x Sequential(
      (0): Linear(in_features=3, out_features=3, bias=True)
      -Adagrad-0.1-0"
69,0.6933,0.6932,0.49370490875654266,0.3305,"MLP20-LeakyReLU(negative_slope=0.01)
      (2): Dropout(p=0.0, inplace=False)
    )
    (1-19): 19 x Sequential(
      (0): Linear(in_features=3, out_features=3, bias=True)
      -Adagrad-0.1-0"
70,0.6932,0.6932,0.49370490875654266,0.3305,"MLP20-LeakyReLU(negative_slope=0.01)
      (2): Dropout(p=0.0, inplace=False)
    )
    (1-19): 19 x Sequential(
      (0): Linear(in_features=3, out_features=3, bias=True)
      -Adagrad-0.1-0"
71,0.6932,0.6931,0.5062950912434574,0.3361,"MLP20-LeakyReLU(negative_slope=0.01)
      (2): Dropout(p=0.0, inplace=False)
    )
    (1-19): 19 x Sequential(
      (0): Linear(in_features=3, out_features=3, bias=True)
      -Adagrad-0.1-0"
72,0.6932,0.6933,0.49370490875654266,0.3305,"MLP20-LeakyReLU(negative_slope=0.01)
      (2): Dropout(p=0.0, inplace=False)
    )
    (1-19): 19 x Sequential(
      (0): Linear(in_features=3, out_features=3, bias=True)
      -Adagrad-0.1-0"
73,0.6932,0.6932,0.49370490875654266,0.3305,"MLP20-LeakyReLU(negative_slope=0.01)
      (2): Dropout(p=0.0, inplace=False)
    )
    (1-19): 19 x Sequential(
      (0): Linear(in_features=3, out_features=3, bias=True)
      -Adagrad-0.1-0"
74,0.6932,0.6932,0.49370490875654266,0.3305,"MLP20-LeakyReLU(negative_slope=0.01)
      (2): Dropout(p=0.0, inplace=False)
    )
    (1-19): 19 x Sequential(
      (0): Linear(in_features=3, out_features=3, bias=True)
      -Adagrad-0.1-0"
75,0.6933,0.6932,0.49370490875654266,0.3305,"MLP20-LeakyReLU(negative_slope=0.01)
      (2): Dropout(p=0.0, inplace=False)
    )
    (1-19): 19 x Sequential(
      (0): Linear(in_features=3, out_features=3, bias=True)
      -Adagrad-0.1-0"
76,0.6932,0.6931,0.5062950912434574,0.3361,"MLP20-LeakyReLU(negative_slope=0.01)
      (2): Dropout(p=0.0, inplace=False)
    )
    (1-19): 19 x Sequential(
      (0): Linear(in_features=3, out_features=3, bias=True)
      -Adagrad-0.1-0"
77,0.6933,0.6932,0.49370490875654266,0.3305,"MLP20-LeakyReLU(negative_slope=0.01)
      (2): Dropout(p=0.0, inplace=False)
    )
    (1-19): 19 x Sequential(
      (0): Linear(in_features=3, out_features=3, bias=True)
      -Adagrad-0.1-0"
78,0.6932,0.6932,0.49370490875654266,0.3305,"MLP20-LeakyReLU(negative_slope=0.01)
      (2): Dropout(p=0.0, inplace=False)
    )
    (1-19): 19 x Sequential(
      (0): Linear(in_features=3, out_features=3, bias=True)
      -Adagrad-0.1-0"
79,0.6932,0.6933,0.49370490875654266,0.3305,"MLP20-LeakyReLU(negative_slope=0.01)
      (2): Dropout(p=0.0, inplace=False)
    )
    (1-19): 19 x Sequential(
      (0): Linear(in_features=3, out_features=3, bias=True)
      -Adagrad-0.1-0"
80,0.6932,0.6933,0.49370490875654266,0.3305,"MLP20-LeakyReLU(negative_slope=0.01)
      (2): Dropout(p=0.0, inplace=False)
    )
    (1-19): 19 x Sequential(
      (0): Linear(in_features=3, out_features=3, bias=True)
      -Adagrad-0.1-0"
81,0.6933,0.6933,0.49370490875654266,0.3305,"MLP20-LeakyReLU(negative_slope=0.01)
      (2): Dropout(p=0.0, inplace=False)
    )
    (1-19): 19 x Sequential(
      (0): Linear(in_features=3, out_features=3, bias=True)
      -Adagrad-0.1-0"
82,0.6932,0.6932,0.49370490875654266,0.3305,"MLP20-LeakyReLU(negative_slope=0.01)
      (2): Dropout(p=0.0, inplace=False)
    )
    (1-19): 19 x Sequential(
      (0): Linear(in_features=3, out_features=3, bias=True)
      -Adagrad-0.1-0"
83,0.6932,0.6932,0.49370490875654266,0.3305,"MLP20-LeakyReLU(negative_slope=0.01)
      (2): Dropout(p=0.0, inplace=False)
    )
    (1-19): 19 x Sequential(
      (0): Linear(in_features=3, out_features=3, bias=True)
      -Adagrad-0.1-0"
84,0.6933,0.6933,0.49370490875654266,0.3305,"MLP20-LeakyReLU(negative_slope=0.01)
      (2): Dropout(p=0.0, inplace=False)
    )
    (1-19): 19 x Sequential(
      (0): Linear(in_features=3, out_features=3, bias=True)
      -Adagrad-0.1-0"
85,0.6932,0.6932,0.49370490875654266,0.3305,"MLP20-LeakyReLU(negative_slope=0.01)
      (2): Dropout(p=0.0, inplace=False)
    )
    (1-19): 19 x Sequential(
      (0): Linear(in_features=3, out_features=3, bias=True)
      -Adagrad-0.1-0"
86,0.6932,0.6931,0.5062950912434574,0.3361,"MLP20-LeakyReLU(negative_slope=0.01)
      (2): Dropout(p=0.0, inplace=False)
    )
    (1-19): 19 x Sequential(
      (0): Linear(in_features=3, out_features=3, bias=True)
      -Adagrad-0.1-0"
87,0.6932,0.6932,0.49370490875654266,0.3305,"MLP20-LeakyReLU(negative_slope=0.01)
      (2): Dropout(p=0.0, inplace=False)
    )
    (1-19): 19 x Sequential(
      (0): Linear(in_features=3, out_features=3, bias=True)
      -Adagrad-0.1-0"
88,0.6931,0.6935,0.49370490875654266,0.3305,"MLP20-LeakyReLU(negative_slope=0.01)
      (2): Dropout(p=0.0, inplace=False)
    )
    (1-19): 19 x Sequential(
      (0): Linear(in_features=3, out_features=3, bias=True)
      -Adagrad-0.1-0"
89,0.6932,0.6932,0.49370490875654266,0.3305,"MLP20-LeakyReLU(negative_slope=0.01)
      (2): Dropout(p=0.0, inplace=False)
    )
    (1-19): 19 x Sequential(
      (0): Linear(in_features=3, out_features=3, bias=True)
      -Adagrad-0.1-0"
90,0.6932,0.6931,0.5062950912434574,0.3361,"MLP20-LeakyReLU(negative_slope=0.01)
      (2): Dropout(p=0.0, inplace=False)
    )
    (1-19): 19 x Sequential(
      (0): Linear(in_features=3, out_features=3, bias=True)
      -Adagrad-0.1-0"
91,0.6932,0.6932,0.49370490875654266,0.3305,"MLP20-LeakyReLU(negative_slope=0.01)
      (2): Dropout(p=0.0, inplace=False)
    )
    (1-19): 19 x Sequential(
      (0): Linear(in_features=3, out_features=3, bias=True)
      -Adagrad-0.1-0"
92,0.6933,0.6932,0.49370490875654266,0.3305,"MLP20-LeakyReLU(negative_slope=0.01)
      (2): Dropout(p=0.0, inplace=False)
    )
    (1-19): 19 x Sequential(
      (0): Linear(in_features=3, out_features=3, bias=True)
      -Adagrad-0.1-0"
93,0.6932,0.6933,0.49370490875654266,0.3305,"MLP20-LeakyReLU(negative_slope=0.01)
      (2): Dropout(p=0.0, inplace=False)
    )
    (1-19): 19 x Sequential(
      (0): Linear(in_features=3, out_features=3, bias=True)
      -Adagrad-0.1-0"
94,0.6932,0.6932,0.49370490875654266,0.3305,"MLP20-LeakyReLU(negative_slope=0.01)
      (2): Dropout(p=0.0, inplace=False)
    )
    (1-19): 19 x Sequential(
      (0): Linear(in_features=3, out_features=3, bias=True)
      -Adagrad-0.1-0"
95,0.6932,0.6931,0.5062950912434574,0.3361,"MLP20-LeakyReLU(negative_slope=0.01)
      (2): Dropout(p=0.0, inplace=False)
    )
    (1-19): 19 x Sequential(
      (0): Linear(in_features=3, out_features=3, bias=True)
      -Adagrad-0.1-0"
96,0.6933,0.6932,0.49370490875654266,0.3305,"MLP20-LeakyReLU(negative_slope=0.01)
      (2): Dropout(p=0.0, inplace=False)
    )
    (1-19): 19 x Sequential(
      (0): Linear(in_features=3, out_features=3, bias=True)
      -Adagrad-0.1-0"
97,0.6932,0.6932,0.49370490875654266,0.3305,"MLP20-LeakyReLU(negative_slope=0.01)
      (2): Dropout(p=0.0, inplace=False)
    )
    (1-19): 19 x Sequential(
      (0): Linear(in_features=3, out_features=3, bias=True)
      -Adagrad-0.1-0"
98,0.6933,0.6932,0.49370490875654266,0.3305,"MLP20-LeakyReLU(negative_slope=0.01)
      (2): Dropout(p=0.0, inplace=False)
    )
    (1-19): 19 x Sequential(
      (0): Linear(in_features=3, out_features=3, bias=True)
      -Adagrad-0.1-0"
99,0.6932,0.6933,0.49370490875654266,0.3305,"MLP20-LeakyReLU(negative_slope=0.01)
      (2): Dropout(p=0.0, inplace=False)
    )
    (1-19): 19 x Sequential(
      (0): Linear(in_features=3, out_features=3, bias=True)
      -Adagrad-0.1-0"
100,0.6932,0.6932,0.49370490875654266,0.3305,"MLP20-LeakyReLU(negative_slope=0.01)
      (2): Dropout(p=0.0, inplace=False)
    )
    (1-19): 19 x Sequential(
      (0): Linear(in_features=3, out_features=3, bias=True)
      -Adagrad-0.1-0"
1,100.3135,0.6931,0.5062950912434574,0.3361,"MLP20-LeakyReLU(negative_slope=0.01)
      (2): Dropout(p=0.0, inplace=False)
    )
    (1-19): 19 x Sequential(
      (0): Linear(in_features=3, out_features=3, bias=True)
      -RMSprop-0.1-0"
2,0.6978,0.6943,0.49370490875654266,0.3305,"MLP20-LeakyReLU(negative_slope=0.01)
      (2): Dropout(p=0.0, inplace=False)
    )
    (1-19): 19 x Sequential(
      (0): Linear(in_features=3, out_features=3, bias=True)
      -RMSprop-0.1-0"
3,0.6966,0.723,0.49370490875654266,0.3305,"MLP20-LeakyReLU(negative_slope=0.01)
      (2): Dropout(p=0.0, inplace=False)
    )
    (1-19): 19 x Sequential(
      (0): Linear(in_features=3, out_features=3, bias=True)
      -RMSprop-0.1-0"
4,0.6975,0.6954,0.49370490875654266,0.3305,"MLP20-LeakyReLU(negative_slope=0.01)
      (2): Dropout(p=0.0, inplace=False)
    )
    (1-19): 19 x Sequential(
      (0): Linear(in_features=3, out_features=3, bias=True)
      -RMSprop-0.1-0"
5,0.6981,0.6933,0.49370490875654266,0.3305,"MLP20-LeakyReLU(negative_slope=0.01)
      (2): Dropout(p=0.0, inplace=False)
    )
    (1-19): 19 x Sequential(
      (0): Linear(in_features=3, out_features=3, bias=True)
      -RMSprop-0.1-0"
6,0.6969,0.6931,0.5062950912434574,0.3361,"MLP20-LeakyReLU(negative_slope=0.01)
      (2): Dropout(p=0.0, inplace=False)
    )
    (1-19): 19 x Sequential(
      (0): Linear(in_features=3, out_features=3, bias=True)
      -RMSprop-0.1-0"
7,0.6959,0.7231,0.5062950912434574,0.3361,"MLP20-LeakyReLU(negative_slope=0.01)
      (2): Dropout(p=0.0, inplace=False)
    )
    (1-19): 19 x Sequential(
      (0): Linear(in_features=3, out_features=3, bias=True)
      -RMSprop-0.1-0"
8,0.6968,0.6948,0.5062950912434574,0.3361,"MLP20-LeakyReLU(negative_slope=0.01)
      (2): Dropout(p=0.0, inplace=False)
    )
    (1-19): 19 x Sequential(
      (0): Linear(in_features=3, out_features=3, bias=True)
      -RMSprop-0.1-0"
9,0.6966,0.6934,0.49370490875654266,0.3305,"MLP20-LeakyReLU(negative_slope=0.01)
      (2): Dropout(p=0.0, inplace=False)
    )
    (1-19): 19 x Sequential(
      (0): Linear(in_features=3, out_features=3, bias=True)
      -RMSprop-0.1-0"
10,0.6954,0.7007,0.49370490875654266,0.3305,"MLP20-LeakyReLU(negative_slope=0.01)
      (2): Dropout(p=0.0, inplace=False)
    )
    (1-19): 19 x Sequential(
      (0): Linear(in_features=3, out_features=3, bias=True)
      -RMSprop-0.1-0"
11,0.6966,0.712,0.49370490875654266,0.3305,"MLP20-LeakyReLU(negative_slope=0.01)
      (2): Dropout(p=0.0, inplace=False)
    )
    (1-19): 19 x Sequential(
      (0): Linear(in_features=3, out_features=3, bias=True)
      -RMSprop-0.1-0"
12,0.6964,0.6936,0.5062950912434574,0.3361,"MLP20-LeakyReLU(negative_slope=0.01)
      (2): Dropout(p=0.0, inplace=False)
    )
    (1-19): 19 x Sequential(
      (0): Linear(in_features=3, out_features=3, bias=True)
      -RMSprop-0.1-0"
13,0.6977,0.6931,0.5062950912434574,0.3361,"MLP20-LeakyReLU(negative_slope=0.01)
      (2): Dropout(p=0.0, inplace=False)
    )
    (1-19): 19 x Sequential(
      (0): Linear(in_features=3, out_features=3, bias=True)
      -RMSprop-0.1-0"
14,0.6971,0.6931,0.5062950912434574,0.3361,"MLP20-LeakyReLU(negative_slope=0.01)
      (2): Dropout(p=0.0, inplace=False)
    )
    (1-19): 19 x Sequential(
      (0): Linear(in_features=3, out_features=3, bias=True)
      -RMSprop-0.1-0"
15,0.6986,0.6947,0.5062950912434574,0.3361,"MLP20-LeakyReLU(negative_slope=0.01)
      (2): Dropout(p=0.0, inplace=False)
    )
    (1-19): 19 x Sequential(
      (0): Linear(in_features=3, out_features=3, bias=True)
      -RMSprop-0.1-0"
16,0.6973,0.6931,0.5062950912434574,0.3361,"MLP20-LeakyReLU(negative_slope=0.01)
      (2): Dropout(p=0.0, inplace=False)
    )
    (1-19): 19 x Sequential(
      (0): Linear(in_features=3, out_features=3, bias=True)
      -RMSprop-0.1-0"
17,0.735,0.7334,0.49370490875654266,0.3305,"MLP20-LeakyReLU(negative_slope=0.01)
      (2): Dropout(p=0.0, inplace=False)
    )
    (1-19): 19 x Sequential(
      (0): Linear(in_features=3, out_features=3, bias=True)
      -RMSprop-0.1-0"
18,0.6975,0.7085,0.5062950912434574,0.3361,"MLP20-LeakyReLU(negative_slope=0.01)
      (2): Dropout(p=0.0, inplace=False)
    )
    (1-19): 19 x Sequential(
      (0): Linear(in_features=3, out_features=3, bias=True)
      -RMSprop-0.1-0"
19,0.6969,0.6997,0.49370490875654266,0.3305,"MLP20-LeakyReLU(negative_slope=0.01)
      (2): Dropout(p=0.0, inplace=False)
    )
    (1-19): 19 x Sequential(
      (0): Linear(in_features=3, out_features=3, bias=True)
      -RMSprop-0.1-0"
20,0.6975,0.6936,0.5062950912434574,0.3361,"MLP20-LeakyReLU(negative_slope=0.01)
      (2): Dropout(p=0.0, inplace=False)
    )
    (1-19): 19 x Sequential(
      (0): Linear(in_features=3, out_features=3, bias=True)
      -RMSprop-0.1-0"
21,0.6958,0.7051,0.5062950912434574,0.3361,"MLP20-LeakyReLU(negative_slope=0.01)
      (2): Dropout(p=0.0, inplace=False)
    )
    (1-19): 19 x Sequential(
      (0): Linear(in_features=3, out_features=3, bias=True)
      -RMSprop-0.1-0"
22,0.6989,0.6961,0.5062950912434574,0.3361,"MLP20-LeakyReLU(negative_slope=0.01)
      (2): Dropout(p=0.0, inplace=False)
    )
    (1-19): 19 x Sequential(
      (0): Linear(in_features=3, out_features=3, bias=True)
      -RMSprop-0.1-0"
23,0.6974,0.6933,0.5062950912434574,0.3361,"MLP20-LeakyReLU(negative_slope=0.01)
      (2): Dropout(p=0.0, inplace=False)
    )
    (1-19): 19 x Sequential(
      (0): Linear(in_features=3, out_features=3, bias=True)
      -RMSprop-0.1-0"
24,0.6971,0.6981,0.49370490875654266,0.3305,"MLP20-LeakyReLU(negative_slope=0.01)
      (2): Dropout(p=0.0, inplace=False)
    )
    (1-19): 19 x Sequential(
      (0): Linear(in_features=3, out_features=3, bias=True)
      -RMSprop-0.1-0"
25,0.6961,0.6933,0.49370490875654266,0.3305,"MLP20-LeakyReLU(negative_slope=0.01)
      (2): Dropout(p=0.0, inplace=False)
    )
    (1-19): 19 x Sequential(
      (0): Linear(in_features=3, out_features=3, bias=True)
      -RMSprop-0.1-0"
26,0.6975,0.6933,0.5062950912434574,0.3361,"MLP20-LeakyReLU(negative_slope=0.01)
      (2): Dropout(p=0.0, inplace=False)
    )
    (1-19): 19 x Sequential(
      (0): Linear(in_features=3, out_features=3, bias=True)
      -RMSprop-0.1-0"
27,0.6972,0.7254,0.49370490875654266,0.3305,"MLP20-LeakyReLU(negative_slope=0.01)
      (2): Dropout(p=0.0, inplace=False)
    )
    (1-19): 19 x Sequential(
      (0): Linear(in_features=3, out_features=3, bias=True)
      -RMSprop-0.1-0"
28,0.7106,0.6956,0.5062950912434574,0.3361,"MLP20-LeakyReLU(negative_slope=0.01)
      (2): Dropout(p=0.0, inplace=False)
    )
    (1-19): 19 x Sequential(
      (0): Linear(in_features=3, out_features=3, bias=True)
      -RMSprop-0.1-0"
29,0.696,0.6976,0.49370490875654266,0.3305,"MLP20-LeakyReLU(negative_slope=0.01)
      (2): Dropout(p=0.0, inplace=False)
    )
    (1-19): 19 x Sequential(
      (0): Linear(in_features=3, out_features=3, bias=True)
      -RMSprop-0.1-0"
30,0.6979,0.6938,0.49370490875654266,0.3305,"MLP20-LeakyReLU(negative_slope=0.01)
      (2): Dropout(p=0.0, inplace=False)
    )
    (1-19): 19 x Sequential(
      (0): Linear(in_features=3, out_features=3, bias=True)
      -RMSprop-0.1-0"
31,0.6968,0.6935,0.49370490875654266,0.3305,"MLP20-LeakyReLU(negative_slope=0.01)
      (2): Dropout(p=0.0, inplace=False)
    )
    (1-19): 19 x Sequential(
      (0): Linear(in_features=3, out_features=3, bias=True)
      -RMSprop-0.1-0"
32,1.2005,0.698,0.49370490875654266,0.3305,"MLP20-LeakyReLU(negative_slope=0.01)
      (2): Dropout(p=0.0, inplace=False)
    )
    (1-19): 19 x Sequential(
      (0): Linear(in_features=3, out_features=3, bias=True)
      -RMSprop-0.1-0"
33,0.7704,0.6947,0.5062950912434574,0.3361,"MLP20-LeakyReLU(negative_slope=0.01)
      (2): Dropout(p=0.0, inplace=False)
    )
    (1-19): 19 x Sequential(
      (0): Linear(in_features=3, out_features=3, bias=True)
      -RMSprop-0.1-0"
34,0.6964,0.6936,0.5062950912434574,0.3361,"MLP20-LeakyReLU(negative_slope=0.01)
      (2): Dropout(p=0.0, inplace=False)
    )
    (1-19): 19 x Sequential(
      (0): Linear(in_features=3, out_features=3, bias=True)
      -RMSprop-0.1-0"
35,0.6968,0.6949,0.5062950912434574,0.3361,"MLP20-LeakyReLU(negative_slope=0.01)
      (2): Dropout(p=0.0, inplace=False)
    )
    (1-19): 19 x Sequential(
      (0): Linear(in_features=3, out_features=3, bias=True)
      -RMSprop-0.1-0"
36,0.697,0.696,0.49370490875654266,0.3305,"MLP20-LeakyReLU(negative_slope=0.01)
      (2): Dropout(p=0.0, inplace=False)
    )
    (1-19): 19 x Sequential(
      (0): Linear(in_features=3, out_features=3, bias=True)
      -RMSprop-0.1-0"
37,0.6969,0.6994,0.49370490875654266,0.3305,"MLP20-LeakyReLU(negative_slope=0.01)
      (2): Dropout(p=0.0, inplace=False)
    )
    (1-19): 19 x Sequential(
      (0): Linear(in_features=3, out_features=3, bias=True)
      -RMSprop-0.1-0"
38,0.6973,0.7053,0.5062950912434574,0.3361,"MLP20-LeakyReLU(negative_slope=0.01)
      (2): Dropout(p=0.0, inplace=False)
    )
    (1-19): 19 x Sequential(
      (0): Linear(in_features=3, out_features=3, bias=True)
      -RMSprop-0.1-0"
39,0.6993,0.7054,0.5062950912434574,0.3361,"MLP20-LeakyReLU(negative_slope=0.01)
      (2): Dropout(p=0.0, inplace=False)
    )
    (1-19): 19 x Sequential(
      (0): Linear(in_features=3, out_features=3, bias=True)
      -RMSprop-0.1-0"
40,0.6964,0.7126,0.5062950912434574,0.3361,"MLP20-LeakyReLU(negative_slope=0.01)
      (2): Dropout(p=0.0, inplace=False)
    )
    (1-19): 19 x Sequential(
      (0): Linear(in_features=3, out_features=3, bias=True)
      -RMSprop-0.1-0"
41,0.6977,0.6949,0.5062950912434574,0.3361,"MLP20-LeakyReLU(negative_slope=0.01)
      (2): Dropout(p=0.0, inplace=False)
    )
    (1-19): 19 x Sequential(
      (0): Linear(in_features=3, out_features=3, bias=True)
      -RMSprop-0.1-0"
42,0.6976,0.6941,0.49370490875654266,0.3305,"MLP20-LeakyReLU(negative_slope=0.01)
      (2): Dropout(p=0.0, inplace=False)
    )
    (1-19): 19 x Sequential(
      (0): Linear(in_features=3, out_features=3, bias=True)
      -RMSprop-0.1-0"
43,0.697,0.6936,0.5062950912434574,0.3361,"MLP20-LeakyReLU(negative_slope=0.01)
      (2): Dropout(p=0.0, inplace=False)
    )
    (1-19): 19 x Sequential(
      (0): Linear(in_features=3, out_features=3, bias=True)
      -RMSprop-0.1-0"
44,0.697,0.6942,0.49370490875654266,0.3305,"MLP20-LeakyReLU(negative_slope=0.01)
      (2): Dropout(p=0.0, inplace=False)
    )
    (1-19): 19 x Sequential(
      (0): Linear(in_features=3, out_features=3, bias=True)
      -RMSprop-0.1-0"
45,0.6972,0.7074,0.49370490875654266,0.3305,"MLP20-LeakyReLU(negative_slope=0.01)
      (2): Dropout(p=0.0, inplace=False)
    )
    (1-19): 19 x Sequential(
      (0): Linear(in_features=3, out_features=3, bias=True)
      -RMSprop-0.1-0"
46,0.6979,0.7006,0.49370490875654266,0.3305,"MLP20-LeakyReLU(negative_slope=0.01)
      (2): Dropout(p=0.0, inplace=False)
    )
    (1-19): 19 x Sequential(
      (0): Linear(in_features=3, out_features=3, bias=True)
      -RMSprop-0.1-0"
47,0.6969,0.7204,0.49370490875654266,0.3305,"MLP20-LeakyReLU(negative_slope=0.01)
      (2): Dropout(p=0.0, inplace=False)
    )
    (1-19): 19 x Sequential(
      (0): Linear(in_features=3, out_features=3, bias=True)
      -RMSprop-0.1-0"
48,0.7486,0.7036,0.49370490875654266,0.3305,"MLP20-LeakyReLU(negative_slope=0.01)
      (2): Dropout(p=0.0, inplace=False)
    )
    (1-19): 19 x Sequential(
      (0): Linear(in_features=3, out_features=3, bias=True)
      -RMSprop-0.1-0"
49,0.6963,0.6974,0.49370490875654266,0.3305,"MLP20-LeakyReLU(negative_slope=0.01)
      (2): Dropout(p=0.0, inplace=False)
    )
    (1-19): 19 x Sequential(
      (0): Linear(in_features=3, out_features=3, bias=True)
      -RMSprop-0.1-0"
50,0.6979,0.6978,0.5062950912434574,0.3361,"MLP20-LeakyReLU(negative_slope=0.01)
      (2): Dropout(p=0.0, inplace=False)
    )
    (1-19): 19 x Sequential(
      (0): Linear(in_features=3, out_features=3, bias=True)
      -RMSprop-0.1-0"
51,0.6969,0.6933,0.5062950912434574,0.3361,"MLP20-LeakyReLU(negative_slope=0.01)
      (2): Dropout(p=0.0, inplace=False)
    )
    (1-19): 19 x Sequential(
      (0): Linear(in_features=3, out_features=3, bias=True)
      -RMSprop-0.1-0"
52,0.6973,0.7001,0.5062950912434574,0.3361,"MLP20-LeakyReLU(negative_slope=0.01)
      (2): Dropout(p=0.0, inplace=False)
    )
    (1-19): 19 x Sequential(
      (0): Linear(in_features=3, out_features=3, bias=True)
      -RMSprop-0.1-0"
53,0.6976,0.6969,0.5062950912434574,0.3361,"MLP20-LeakyReLU(negative_slope=0.01)
      (2): Dropout(p=0.0, inplace=False)
    )
    (1-19): 19 x Sequential(
      (0): Linear(in_features=3, out_features=3, bias=True)
      -RMSprop-0.1-0"
54,0.6976,0.6947,0.49370490875654266,0.3305,"MLP20-LeakyReLU(negative_slope=0.01)
      (2): Dropout(p=0.0, inplace=False)
    )
    (1-19): 19 x Sequential(
      (0): Linear(in_features=3, out_features=3, bias=True)
      -RMSprop-0.1-0"
55,0.6979,0.7069,0.5062950912434574,0.3361,"MLP20-LeakyReLU(negative_slope=0.01)
      (2): Dropout(p=0.0, inplace=False)
    )
    (1-19): 19 x Sequential(
      (0): Linear(in_features=3, out_features=3, bias=True)
      -RMSprop-0.1-0"
56,0.6966,0.7009,0.5062950912434574,0.3361,"MLP20-LeakyReLU(negative_slope=0.01)
      (2): Dropout(p=0.0, inplace=False)
    )
    (1-19): 19 x Sequential(
      (0): Linear(in_features=3, out_features=3, bias=True)
      -RMSprop-0.1-0"
57,0.6965,0.7011,0.49370490875654266,0.3305,"MLP20-LeakyReLU(negative_slope=0.01)
      (2): Dropout(p=0.0, inplace=False)
    )
    (1-19): 19 x Sequential(
      (0): Linear(in_features=3, out_features=3, bias=True)
      -RMSprop-0.1-0"
58,0.6973,0.7051,0.5062950912434574,0.3361,"MLP20-LeakyReLU(negative_slope=0.01)
      (2): Dropout(p=0.0, inplace=False)
    )
    (1-19): 19 x Sequential(
      (0): Linear(in_features=3, out_features=3, bias=True)
      -RMSprop-0.1-0"
59,0.698,0.6934,0.49370490875654266,0.3305,"MLP20-LeakyReLU(negative_slope=0.01)
      (2): Dropout(p=0.0, inplace=False)
    )
    (1-19): 19 x Sequential(
      (0): Linear(in_features=3, out_features=3, bias=True)
      -RMSprop-0.1-0"
60,0.6956,0.6997,0.5062950912434574,0.3361,"MLP20-LeakyReLU(negative_slope=0.01)
      (2): Dropout(p=0.0, inplace=False)
    )
    (1-19): 19 x Sequential(
      (0): Linear(in_features=3, out_features=3, bias=True)
      -RMSprop-0.1-0"
61,0.6968,0.7058,0.49370490875654266,0.3305,"MLP20-LeakyReLU(negative_slope=0.01)
      (2): Dropout(p=0.0, inplace=False)
    )
    (1-19): 19 x Sequential(
      (0): Linear(in_features=3, out_features=3, bias=True)
      -RMSprop-0.1-0"
62,0.704,0.7063,0.5062950912434574,0.3361,"MLP20-LeakyReLU(negative_slope=0.01)
      (2): Dropout(p=0.0, inplace=False)
    )
    (1-19): 19 x Sequential(
      (0): Linear(in_features=3, out_features=3, bias=True)
      -RMSprop-0.1-0"
63,0.6972,0.697,0.5062950912434574,0.3361,"MLP20-LeakyReLU(negative_slope=0.01)
      (2): Dropout(p=0.0, inplace=False)
    )
    (1-19): 19 x Sequential(
      (0): Linear(in_features=3, out_features=3, bias=True)
      -RMSprop-0.1-0"
64,0.6974,0.7009,0.49370490875654266,0.3305,"MLP20-LeakyReLU(negative_slope=0.01)
      (2): Dropout(p=0.0, inplace=False)
    )
    (1-19): 19 x Sequential(
      (0): Linear(in_features=3, out_features=3, bias=True)
      -RMSprop-0.1-0"
65,0.6968,0.6946,0.5062950912434574,0.3361,"MLP20-LeakyReLU(negative_slope=0.01)
      (2): Dropout(p=0.0, inplace=False)
    )
    (1-19): 19 x Sequential(
      (0): Linear(in_features=3, out_features=3, bias=True)
      -RMSprop-0.1-0"
66,0.6964,0.7049,0.5062950912434574,0.3361,"MLP20-LeakyReLU(negative_slope=0.01)
      (2): Dropout(p=0.0, inplace=False)
    )
    (1-19): 19 x Sequential(
      (0): Linear(in_features=3, out_features=3, bias=True)
      -RMSprop-0.1-0"
67,0.6976,0.7072,0.5062950912434574,0.3361,"MLP20-LeakyReLU(negative_slope=0.01)
      (2): Dropout(p=0.0, inplace=False)
    )
    (1-19): 19 x Sequential(
      (0): Linear(in_features=3, out_features=3, bias=True)
      -RMSprop-0.1-0"
68,0.6969,0.6935,0.49370490875654266,0.3305,"MLP20-LeakyReLU(negative_slope=0.01)
      (2): Dropout(p=0.0, inplace=False)
    )
    (1-19): 19 x Sequential(
      (0): Linear(in_features=3, out_features=3, bias=True)
      -RMSprop-0.1-0"
69,0.6968,0.7028,0.49370490875654266,0.3305,"MLP20-LeakyReLU(negative_slope=0.01)
      (2): Dropout(p=0.0, inplace=False)
    )
    (1-19): 19 x Sequential(
      (0): Linear(in_features=3, out_features=3, bias=True)
      -RMSprop-0.1-0"
70,0.6976,0.6953,0.49370490875654266,0.3305,"MLP20-LeakyReLU(negative_slope=0.01)
      (2): Dropout(p=0.0, inplace=False)
    )
    (1-19): 19 x Sequential(
      (0): Linear(in_features=3, out_features=3, bias=True)
      -RMSprop-0.1-0"
71,0.6979,0.6945,0.5062950912434574,0.3361,"MLP20-LeakyReLU(negative_slope=0.01)
      (2): Dropout(p=0.0, inplace=False)
    )
    (1-19): 19 x Sequential(
      (0): Linear(in_features=3, out_features=3, bias=True)
      -RMSprop-0.1-0"
72,0.7042,0.7007,0.49370490875654266,0.3305,"MLP20-LeakyReLU(negative_slope=0.01)
      (2): Dropout(p=0.0, inplace=False)
    )
    (1-19): 19 x Sequential(
      (0): Linear(in_features=3, out_features=3, bias=True)
      -RMSprop-0.1-0"
73,0.6965,0.7,0.49370490875654266,0.3305,"MLP20-LeakyReLU(negative_slope=0.01)
      (2): Dropout(p=0.0, inplace=False)
    )
    (1-19): 19 x Sequential(
      (0): Linear(in_features=3, out_features=3, bias=True)
      -RMSprop-0.1-0"
74,0.6965,0.7324,0.5062950912434574,0.3361,"MLP20-LeakyReLU(negative_slope=0.01)
      (2): Dropout(p=0.0, inplace=False)
    )
    (1-19): 19 x Sequential(
      (0): Linear(in_features=3, out_features=3, bias=True)
      -RMSprop-0.1-0"
75,0.6969,0.7138,0.5062950912434574,0.3361,"MLP20-LeakyReLU(negative_slope=0.01)
      (2): Dropout(p=0.0, inplace=False)
    )
    (1-19): 19 x Sequential(
      (0): Linear(in_features=3, out_features=3, bias=True)
      -RMSprop-0.1-0"
76,0.6978,0.6931,0.5062950912434574,0.3361,"MLP20-LeakyReLU(negative_slope=0.01)
      (2): Dropout(p=0.0, inplace=False)
    )
    (1-19): 19 x Sequential(
      (0): Linear(in_features=3, out_features=3, bias=True)
      -RMSprop-0.1-0"
77,0.696,0.7331,0.49370490875654266,0.3305,"MLP20-LeakyReLU(negative_slope=0.01)
      (2): Dropout(p=0.0, inplace=False)
    )
    (1-19): 19 x Sequential(
      (0): Linear(in_features=3, out_features=3, bias=True)
      -RMSprop-0.1-0"
78,0.6976,0.6959,0.49370490875654266,0.3305,"MLP20-LeakyReLU(negative_slope=0.01)
      (2): Dropout(p=0.0, inplace=False)
    )
    (1-19): 19 x Sequential(
      (0): Linear(in_features=3, out_features=3, bias=True)
      -RMSprop-0.1-0"
79,0.6957,0.6964,0.5062950912434574,0.3361,"MLP20-LeakyReLU(negative_slope=0.01)
      (2): Dropout(p=0.0, inplace=False)
    )
    (1-19): 19 x Sequential(
      (0): Linear(in_features=3, out_features=3, bias=True)
      -RMSprop-0.1-0"
80,0.7062,0.6955,0.49370490875654266,0.3305,"MLP20-LeakyReLU(negative_slope=0.01)
      (2): Dropout(p=0.0, inplace=False)
    )
    (1-19): 19 x Sequential(
      (0): Linear(in_features=3, out_features=3, bias=True)
      -RMSprop-0.1-0"
81,0.6963,0.6931,0.5062950912434574,0.3361,"MLP20-LeakyReLU(negative_slope=0.01)
      (2): Dropout(p=0.0, inplace=False)
    )
    (1-19): 19 x Sequential(
      (0): Linear(in_features=3, out_features=3, bias=True)
      -RMSprop-0.1-0"
82,0.6963,0.6932,0.49370490875654266,0.3305,"MLP20-LeakyReLU(negative_slope=0.01)
      (2): Dropout(p=0.0, inplace=False)
    )
    (1-19): 19 x Sequential(
      (0): Linear(in_features=3, out_features=3, bias=True)
      -RMSprop-0.1-0"
83,0.6976,0.719,0.5062950912434574,0.3361,"MLP20-LeakyReLU(negative_slope=0.01)
      (2): Dropout(p=0.0, inplace=False)
    )
    (1-19): 19 x Sequential(
      (0): Linear(in_features=3, out_features=3, bias=True)
      -RMSprop-0.1-0"
84,0.6974,0.6934,0.5062950912434574,0.3361,"MLP20-LeakyReLU(negative_slope=0.01)
      (2): Dropout(p=0.0, inplace=False)
    )
    (1-19): 19 x Sequential(
      (0): Linear(in_features=3, out_features=3, bias=True)
      -RMSprop-0.1-0"
85,0.6974,0.6936,0.49370490875654266,0.3305,"MLP20-LeakyReLU(negative_slope=0.01)
      (2): Dropout(p=0.0, inplace=False)
    )
    (1-19): 19 x Sequential(
      (0): Linear(in_features=3, out_features=3, bias=True)
      -RMSprop-0.1-0"
86,0.6964,0.7192,0.49370490875654266,0.3305,"MLP20-LeakyReLU(negative_slope=0.01)
      (2): Dropout(p=0.0, inplace=False)
    )
    (1-19): 19 x Sequential(
      (0): Linear(in_features=3, out_features=3, bias=True)
      -RMSprop-0.1-0"
87,0.6969,0.7136,0.5062950912434574,0.3361,"MLP20-LeakyReLU(negative_slope=0.01)
      (2): Dropout(p=0.0, inplace=False)
    )
    (1-19): 19 x Sequential(
      (0): Linear(in_features=3, out_features=3, bias=True)
      -RMSprop-0.1-0"
88,0.6974,0.6958,0.49370490875654266,0.3305,"MLP20-LeakyReLU(negative_slope=0.01)
      (2): Dropout(p=0.0, inplace=False)
    )
    (1-19): 19 x Sequential(
      (0): Linear(in_features=3, out_features=3, bias=True)
      -RMSprop-0.1-0"
89,0.6964,0.694,0.5062950912434574,0.3361,"MLP20-LeakyReLU(negative_slope=0.01)
      (2): Dropout(p=0.0, inplace=False)
    )
    (1-19): 19 x Sequential(
      (0): Linear(in_features=3, out_features=3, bias=True)
      -RMSprop-0.1-0"
90,0.6979,0.699,0.49370490875654266,0.3305,"MLP20-LeakyReLU(negative_slope=0.01)
      (2): Dropout(p=0.0, inplace=False)
    )
    (1-19): 19 x Sequential(
      (0): Linear(in_features=3, out_features=3, bias=True)
      -RMSprop-0.1-0"
91,0.6972,0.6946,0.5062950912434574,0.3361,"MLP20-LeakyReLU(negative_slope=0.01)
      (2): Dropout(p=0.0, inplace=False)
    )
    (1-19): 19 x Sequential(
      (0): Linear(in_features=3, out_features=3, bias=True)
      -RMSprop-0.1-0"
92,0.6966,0.6954,0.5062950912434574,0.3361,"MLP20-LeakyReLU(negative_slope=0.01)
      (2): Dropout(p=0.0, inplace=False)
    )
    (1-19): 19 x Sequential(
      (0): Linear(in_features=3, out_features=3, bias=True)
      -RMSprop-0.1-0"
93,0.7025,0.6985,0.5062950912434574,0.3361,"MLP20-LeakyReLU(negative_slope=0.01)
      (2): Dropout(p=0.0, inplace=False)
    )
    (1-19): 19 x Sequential(
      (0): Linear(in_features=3, out_features=3, bias=True)
      -RMSprop-0.1-0"
94,0.6994,0.7233,0.5062950912434574,0.3361,"MLP20-LeakyReLU(negative_slope=0.01)
      (2): Dropout(p=0.0, inplace=False)
    )
    (1-19): 19 x Sequential(
      (0): Linear(in_features=3, out_features=3, bias=True)
      -RMSprop-0.1-0"
95,0.6963,0.6995,0.49370490875654266,0.3305,"MLP20-LeakyReLU(negative_slope=0.01)
      (2): Dropout(p=0.0, inplace=False)
    )
    (1-19): 19 x Sequential(
      (0): Linear(in_features=3, out_features=3, bias=True)
      -RMSprop-0.1-0"
96,0.6969,0.6935,0.5062950912434574,0.3361,"MLP20-LeakyReLU(negative_slope=0.01)
      (2): Dropout(p=0.0, inplace=False)
    )
    (1-19): 19 x Sequential(
      (0): Linear(in_features=3, out_features=3, bias=True)
      -RMSprop-0.1-0"
97,0.6953,0.6932,0.49370490875654266,0.3305,"MLP20-LeakyReLU(negative_slope=0.01)
      (2): Dropout(p=0.0, inplace=False)
    )
    (1-19): 19 x Sequential(
      (0): Linear(in_features=3, out_features=3, bias=True)
      -RMSprop-0.1-0"
98,0.6967,0.7165,0.49370490875654266,0.3305,"MLP20-LeakyReLU(negative_slope=0.01)
      (2): Dropout(p=0.0, inplace=False)
    )
    (1-19): 19 x Sequential(
      (0): Linear(in_features=3, out_features=3, bias=True)
      -RMSprop-0.1-0"
99,0.6993,0.6931,0.5062950912434574,0.3361,"MLP20-LeakyReLU(negative_slope=0.01)
      (2): Dropout(p=0.0, inplace=False)
    )
    (1-19): 19 x Sequential(
      (0): Linear(in_features=3, out_features=3, bias=True)
      -RMSprop-0.1-0"
100,0.6953,0.7047,0.5062950912434574,0.3361,"MLP20-LeakyReLU(negative_slope=0.01)
      (2): Dropout(p=0.0, inplace=False)
    )
    (1-19): 19 x Sequential(
      (0): Linear(in_features=3, out_features=3, bias=True)
      -RMSprop-0.1-0"
1,0.6954,0.7041,0.49370490875654266,0.3305,"MLP20-LeakyReLU(negative_slope=0.01)
      (2): Dropout(p=0.0, inplace=False)
    )
    (1-19): 19 x Sequential(
      (0): Linear(in_features=3, out_features=3, bias=True)
      -Adam-0.1-0"
2,0.6976,0.7031,0.49370490875654266,0.3305,"MLP20-LeakyReLU(negative_slope=0.01)
      (2): Dropout(p=0.0, inplace=False)
    )
    (1-19): 19 x Sequential(
      (0): Linear(in_features=3, out_features=3, bias=True)
      -Adam-0.1-0"
3,0.698,0.6935,0.49370490875654266,0.3305,"MLP20-LeakyReLU(negative_slope=0.01)
      (2): Dropout(p=0.0, inplace=False)
    )
    (1-19): 19 x Sequential(
      (0): Linear(in_features=3, out_features=3, bias=True)
      -Adam-0.1-0"
4,0.6943,0.6939,0.49370490875654266,0.3305,"MLP20-LeakyReLU(negative_slope=0.01)
      (2): Dropout(p=0.0, inplace=False)
    )
    (1-19): 19 x Sequential(
      (0): Linear(in_features=3, out_features=3, bias=True)
      -Adam-0.1-0"
5,0.6946,0.6932,0.5062950912434574,0.3361,"MLP20-LeakyReLU(negative_slope=0.01)
      (2): Dropout(p=0.0, inplace=False)
    )
    (1-19): 19 x Sequential(
      (0): Linear(in_features=3, out_features=3, bias=True)
      -Adam-0.1-0"
6,0.6968,0.6931,0.5062950912434574,0.3361,"MLP20-LeakyReLU(negative_slope=0.01)
      (2): Dropout(p=0.0, inplace=False)
    )
    (1-19): 19 x Sequential(
      (0): Linear(in_features=3, out_features=3, bias=True)
      -Adam-0.1-0"
7,0.6959,0.6942,0.49370490875654266,0.3305,"MLP20-LeakyReLU(negative_slope=0.01)
      (2): Dropout(p=0.0, inplace=False)
    )
    (1-19): 19 x Sequential(
      (0): Linear(in_features=3, out_features=3, bias=True)
      -Adam-0.1-0"
8,0.6973,0.6932,0.5062950912434574,0.3361,"MLP20-LeakyReLU(negative_slope=0.01)
      (2): Dropout(p=0.0, inplace=False)
    )
    (1-19): 19 x Sequential(
      (0): Linear(in_features=3, out_features=3, bias=True)
      -Adam-0.1-0"
9,0.7289,0.6957,0.49370490875654266,0.3305,"MLP20-LeakyReLU(negative_slope=0.01)
      (2): Dropout(p=0.0, inplace=False)
    )
    (1-19): 19 x Sequential(
      (0): Linear(in_features=3, out_features=3, bias=True)
      -Adam-0.1-0"
10,0.696,0.6942,0.49370490875654266,0.3305,"MLP20-LeakyReLU(negative_slope=0.01)
      (2): Dropout(p=0.0, inplace=False)
    )
    (1-19): 19 x Sequential(
      (0): Linear(in_features=3, out_features=3, bias=True)
      -Adam-0.1-0"
11,0.6962,0.6989,0.49370490875654266,0.3305,"MLP20-LeakyReLU(negative_slope=0.01)
      (2): Dropout(p=0.0, inplace=False)
    )
    (1-19): 19 x Sequential(
      (0): Linear(in_features=3, out_features=3, bias=True)
      -Adam-0.1-0"
12,0.6944,0.6932,0.5062950912434574,0.3361,"MLP20-LeakyReLU(negative_slope=0.01)
      (2): Dropout(p=0.0, inplace=False)
    )
    (1-19): 19 x Sequential(
      (0): Linear(in_features=3, out_features=3, bias=True)
      -Adam-0.1-0"
13,0.6977,0.7017,0.5062950912434574,0.3361,"MLP20-LeakyReLU(negative_slope=0.01)
      (2): Dropout(p=0.0, inplace=False)
    )
    (1-19): 19 x Sequential(
      (0): Linear(in_features=3, out_features=3, bias=True)
      -Adam-0.1-0"
14,0.696,0.6935,0.49370490875654266,0.3305,"MLP20-LeakyReLU(negative_slope=0.01)
      (2): Dropout(p=0.0, inplace=False)
    )
    (1-19): 19 x Sequential(
      (0): Linear(in_features=3, out_features=3, bias=True)
      -Adam-0.1-0"
15,0.6958,0.6933,0.5062950912434574,0.3361,"MLP20-LeakyReLU(negative_slope=0.01)
      (2): Dropout(p=0.0, inplace=False)
    )
    (1-19): 19 x Sequential(
      (0): Linear(in_features=3, out_features=3, bias=True)
      -Adam-0.1-0"
16,0.6972,0.6931,0.5062950912434574,0.3361,"MLP20-LeakyReLU(negative_slope=0.01)
      (2): Dropout(p=0.0, inplace=False)
    )
    (1-19): 19 x Sequential(
      (0): Linear(in_features=3, out_features=3, bias=True)
      -Adam-0.1-0"
17,0.6956,0.6986,0.49370490875654266,0.3305,"MLP20-LeakyReLU(negative_slope=0.01)
      (2): Dropout(p=0.0, inplace=False)
    )
    (1-19): 19 x Sequential(
      (0): Linear(in_features=3, out_features=3, bias=True)
      -Adam-0.1-0"
18,0.6972,0.6943,0.49370490875654266,0.3305,"MLP20-LeakyReLU(negative_slope=0.01)
      (2): Dropout(p=0.0, inplace=False)
    )
    (1-19): 19 x Sequential(
      (0): Linear(in_features=3, out_features=3, bias=True)
      -Adam-0.1-0"
19,0.6958,0.694,0.49370490875654266,0.3305,"MLP20-LeakyReLU(negative_slope=0.01)
      (2): Dropout(p=0.0, inplace=False)
    )
    (1-19): 19 x Sequential(
      (0): Linear(in_features=3, out_features=3, bias=True)
      -Adam-0.1-0"
20,0.6946,0.6931,0.5062950912434574,0.3361,"MLP20-LeakyReLU(negative_slope=0.01)
      (2): Dropout(p=0.0, inplace=False)
    )
    (1-19): 19 x Sequential(
      (0): Linear(in_features=3, out_features=3, bias=True)
      -Adam-0.1-0"
21,0.701,0.6997,0.49370490875654266,0.3305,"MLP20-LeakyReLU(negative_slope=0.01)
      (2): Dropout(p=0.0, inplace=False)
    )
    (1-19): 19 x Sequential(
      (0): Linear(in_features=3, out_features=3, bias=True)
      -Adam-0.1-0"
22,0.695,0.6931,0.5062950912434574,0.3361,"MLP20-LeakyReLU(negative_slope=0.01)
      (2): Dropout(p=0.0, inplace=False)
    )
    (1-19): 19 x Sequential(
      (0): Linear(in_features=3, out_features=3, bias=True)
      -Adam-0.1-0"
23,0.6986,0.6985,0.49370490875654266,0.3305,"MLP20-LeakyReLU(negative_slope=0.01)
      (2): Dropout(p=0.0, inplace=False)
    )
    (1-19): 19 x Sequential(
      (0): Linear(in_features=3, out_features=3, bias=True)
      -Adam-0.1-0"
24,0.6969,0.6997,0.49370490875654266,0.3305,"MLP20-LeakyReLU(negative_slope=0.01)
      (2): Dropout(p=0.0, inplace=False)
    )
    (1-19): 19 x Sequential(
      (0): Linear(in_features=3, out_features=3, bias=True)
      -Adam-0.1-0"
25,0.696,0.6948,0.5062950912434574,0.3361,"MLP20-LeakyReLU(negative_slope=0.01)
      (2): Dropout(p=0.0, inplace=False)
    )
    (1-19): 19 x Sequential(
      (0): Linear(in_features=3, out_features=3, bias=True)
      -Adam-0.1-0"
26,0.6946,0.7066,0.5062950912434574,0.3361,"MLP20-LeakyReLU(negative_slope=0.01)
      (2): Dropout(p=0.0, inplace=False)
    )
    (1-19): 19 x Sequential(
      (0): Linear(in_features=3, out_features=3, bias=True)
      -Adam-0.1-0"
27,0.6987,0.6932,0.49370490875654266,0.3305,"MLP20-LeakyReLU(negative_slope=0.01)
      (2): Dropout(p=0.0, inplace=False)
    )
    (1-19): 19 x Sequential(
      (0): Linear(in_features=3, out_features=3, bias=True)
      -Adam-0.1-0"
28,0.6959,0.6951,0.49370490875654266,0.3305,"MLP20-LeakyReLU(negative_slope=0.01)
      (2): Dropout(p=0.0, inplace=False)
    )
    (1-19): 19 x Sequential(
      (0): Linear(in_features=3, out_features=3, bias=True)
      -Adam-0.1-0"
29,0.6946,0.6943,0.49370490875654266,0.3305,"MLP20-LeakyReLU(negative_slope=0.01)
      (2): Dropout(p=0.0, inplace=False)
    )
    (1-19): 19 x Sequential(
      (0): Linear(in_features=3, out_features=3, bias=True)
      -Adam-0.1-0"
30,0.6964,0.6938,0.5062950912434574,0.3361,"MLP20-LeakyReLU(negative_slope=0.01)
      (2): Dropout(p=0.0, inplace=False)
    )
    (1-19): 19 x Sequential(
      (0): Linear(in_features=3, out_features=3, bias=True)
      -Adam-0.1-0"
31,0.6957,0.6948,0.49370490875654266,0.3305,"MLP20-LeakyReLU(negative_slope=0.01)
      (2): Dropout(p=0.0, inplace=False)
    )
    (1-19): 19 x Sequential(
      (0): Linear(in_features=3, out_features=3, bias=True)
      -Adam-0.1-0"
32,0.6954,0.6985,0.49370490875654266,0.3305,"MLP20-LeakyReLU(negative_slope=0.01)
      (2): Dropout(p=0.0, inplace=False)
    )
    (1-19): 19 x Sequential(
      (0): Linear(in_features=3, out_features=3, bias=True)
      -Adam-0.1-0"
33,0.6954,0.6967,0.5062950912434574,0.3361,"MLP20-LeakyReLU(negative_slope=0.01)
      (2): Dropout(p=0.0, inplace=False)
    )
    (1-19): 19 x Sequential(
      (0): Linear(in_features=3, out_features=3, bias=True)
      -Adam-0.1-0"
34,0.6952,0.6932,0.49370490875654266,0.3305,"MLP20-LeakyReLU(negative_slope=0.01)
      (2): Dropout(p=0.0, inplace=False)
    )
    (1-19): 19 x Sequential(
      (0): Linear(in_features=3, out_features=3, bias=True)
      -Adam-0.1-0"
35,0.6958,0.6933,0.49370490875654266,0.3305,"MLP20-LeakyReLU(negative_slope=0.01)
      (2): Dropout(p=0.0, inplace=False)
    )
    (1-19): 19 x Sequential(
      (0): Linear(in_features=3, out_features=3, bias=True)
      -Adam-0.1-0"
36,0.6959,0.6945,0.49370490875654266,0.3305,"MLP20-LeakyReLU(negative_slope=0.01)
      (2): Dropout(p=0.0, inplace=False)
    )
    (1-19): 19 x Sequential(
      (0): Linear(in_features=3, out_features=3, bias=True)
      -Adam-0.1-0"
37,0.6942,0.6966,0.5062950912434574,0.3361,"MLP20-LeakyReLU(negative_slope=0.01)
      (2): Dropout(p=0.0, inplace=False)
    )
    (1-19): 19 x Sequential(
      (0): Linear(in_features=3, out_features=3, bias=True)
      -Adam-0.1-0"
38,0.6965,0.6953,0.49370490875654266,0.3305,"MLP20-LeakyReLU(negative_slope=0.01)
      (2): Dropout(p=0.0, inplace=False)
    )
    (1-19): 19 x Sequential(
      (0): Linear(in_features=3, out_features=3, bias=True)
      -Adam-0.1-0"
39,0.6941,0.6933,0.5062950912434574,0.3361,"MLP20-LeakyReLU(negative_slope=0.01)
      (2): Dropout(p=0.0, inplace=False)
    )
    (1-19): 19 x Sequential(
      (0): Linear(in_features=3, out_features=3, bias=True)
      -Adam-0.1-0"
40,0.6962,0.6935,0.49370490875654266,0.3305,"MLP20-LeakyReLU(negative_slope=0.01)
      (2): Dropout(p=0.0, inplace=False)
    )
    (1-19): 19 x Sequential(
      (0): Linear(in_features=3, out_features=3, bias=True)
      -Adam-0.1-0"
41,0.6946,0.6955,0.49370490875654266,0.3305,"MLP20-LeakyReLU(negative_slope=0.01)
      (2): Dropout(p=0.0, inplace=False)
    )
    (1-19): 19 x Sequential(
      (0): Linear(in_features=3, out_features=3, bias=True)
      -Adam-0.1-0"
42,0.6956,0.6933,0.5062950912434574,0.3361,"MLP20-LeakyReLU(negative_slope=0.01)
      (2): Dropout(p=0.0, inplace=False)
    )
    (1-19): 19 x Sequential(
      (0): Linear(in_features=3, out_features=3, bias=True)
      -Adam-0.1-0"
43,0.6947,0.6931,0.5062950912434574,0.3361,"MLP20-LeakyReLU(negative_slope=0.01)
      (2): Dropout(p=0.0, inplace=False)
    )
    (1-19): 19 x Sequential(
      (0): Linear(in_features=3, out_features=3, bias=True)
      -Adam-0.1-0"
44,0.6962,0.701,0.49370490875654266,0.3305,"MLP20-LeakyReLU(negative_slope=0.01)
      (2): Dropout(p=0.0, inplace=False)
    )
    (1-19): 19 x Sequential(
      (0): Linear(in_features=3, out_features=3, bias=True)
      -Adam-0.1-0"
45,0.696,0.6933,0.49370490875654266,0.3305,"MLP20-LeakyReLU(negative_slope=0.01)
      (2): Dropout(p=0.0, inplace=False)
    )
    (1-19): 19 x Sequential(
      (0): Linear(in_features=3, out_features=3, bias=True)
      -Adam-0.1-0"
46,0.6956,0.6933,0.49370490875654266,0.3305,"MLP20-LeakyReLU(negative_slope=0.01)
      (2): Dropout(p=0.0, inplace=False)
    )
    (1-19): 19 x Sequential(
      (0): Linear(in_features=3, out_features=3, bias=True)
      -Adam-0.1-0"
47,0.6954,0.6951,0.5062950912434574,0.3361,"MLP20-LeakyReLU(negative_slope=0.01)
      (2): Dropout(p=0.0, inplace=False)
    )
    (1-19): 19 x Sequential(
      (0): Linear(in_features=3, out_features=3, bias=True)
      -Adam-0.1-0"
48,0.6967,0.6931,0.5062950912434574,0.3361,"MLP20-LeakyReLU(negative_slope=0.01)
      (2): Dropout(p=0.0, inplace=False)
    )
    (1-19): 19 x Sequential(
      (0): Linear(in_features=3, out_features=3, bias=True)
      -Adam-0.1-0"
49,0.6969,0.6939,0.5062950912434574,0.3361,"MLP20-LeakyReLU(negative_slope=0.01)
      (2): Dropout(p=0.0, inplace=False)
    )
    (1-19): 19 x Sequential(
      (0): Linear(in_features=3, out_features=3, bias=True)
      -Adam-0.1-0"
50,0.6962,0.6933,0.5062950912434574,0.3361,"MLP20-LeakyReLU(negative_slope=0.01)
      (2): Dropout(p=0.0, inplace=False)
    )
    (1-19): 19 x Sequential(
      (0): Linear(in_features=3, out_features=3, bias=True)
      -Adam-0.1-0"
51,0.6956,0.6954,0.49370490875654266,0.3305,"MLP20-LeakyReLU(negative_slope=0.01)
      (2): Dropout(p=0.0, inplace=False)
    )
    (1-19): 19 x Sequential(
      (0): Linear(in_features=3, out_features=3, bias=True)
      -Adam-0.1-0"
52,0.7006,0.7018,0.5062950912434574,0.3361,"MLP20-LeakyReLU(negative_slope=0.01)
      (2): Dropout(p=0.0, inplace=False)
    )
    (1-19): 19 x Sequential(
      (0): Linear(in_features=3, out_features=3, bias=True)
      -Adam-0.1-0"
53,0.6951,0.695,0.49370490875654266,0.3305,"MLP20-LeakyReLU(negative_slope=0.01)
      (2): Dropout(p=0.0, inplace=False)
    )
    (1-19): 19 x Sequential(
      (0): Linear(in_features=3, out_features=3, bias=True)
      -Adam-0.1-0"
54,0.697,0.6948,0.49370490875654266,0.3305,"MLP20-LeakyReLU(negative_slope=0.01)
      (2): Dropout(p=0.0, inplace=False)
    )
    (1-19): 19 x Sequential(
      (0): Linear(in_features=3, out_features=3, bias=True)
      -Adam-0.1-0"
55,0.695,0.6985,0.49370490875654266,0.3305,"MLP20-LeakyReLU(negative_slope=0.01)
      (2): Dropout(p=0.0, inplace=False)
    )
    (1-19): 19 x Sequential(
      (0): Linear(in_features=3, out_features=3, bias=True)
      -Adam-0.1-0"
56,0.6959,0.6931,0.5062950912434574,0.3361,"MLP20-LeakyReLU(negative_slope=0.01)
      (2): Dropout(p=0.0, inplace=False)
    )
    (1-19): 19 x Sequential(
      (0): Linear(in_features=3, out_features=3, bias=True)
      -Adam-0.1-0"
57,0.6954,0.6935,0.49370490875654266,0.3305,"MLP20-LeakyReLU(negative_slope=0.01)
      (2): Dropout(p=0.0, inplace=False)
    )
    (1-19): 19 x Sequential(
      (0): Linear(in_features=3, out_features=3, bias=True)
      -Adam-0.1-0"
58,0.6962,0.7008,0.49370490875654266,0.3305,"MLP20-LeakyReLU(negative_slope=0.01)
      (2): Dropout(p=0.0, inplace=False)
    )
    (1-19): 19 x Sequential(
      (0): Linear(in_features=3, out_features=3, bias=True)
      -Adam-0.1-0"
59,0.6963,0.6986,0.49370490875654266,0.3305,"MLP20-LeakyReLU(negative_slope=0.01)
      (2): Dropout(p=0.0, inplace=False)
    )
    (1-19): 19 x Sequential(
      (0): Linear(in_features=3, out_features=3, bias=True)
      -Adam-0.1-0"
60,0.6966,0.6935,0.5062950912434574,0.3361,"MLP20-LeakyReLU(negative_slope=0.01)
      (2): Dropout(p=0.0, inplace=False)
    )
    (1-19): 19 x Sequential(
      (0): Linear(in_features=3, out_features=3, bias=True)
      -Adam-0.1-0"
61,0.695,0.6941,0.5062950912434574,0.3361,"MLP20-LeakyReLU(negative_slope=0.01)
      (2): Dropout(p=0.0, inplace=False)
    )
    (1-19): 19 x Sequential(
      (0): Linear(in_features=3, out_features=3, bias=True)
      -Adam-0.1-0"
62,0.6959,0.6952,0.49370490875654266,0.3305,"MLP20-LeakyReLU(negative_slope=0.01)
      (2): Dropout(p=0.0, inplace=False)
    )
    (1-19): 19 x Sequential(
      (0): Linear(in_features=3, out_features=3, bias=True)
      -Adam-0.1-0"
63,0.6956,0.7031,0.49370490875654266,0.3305,"MLP20-LeakyReLU(negative_slope=0.01)
      (2): Dropout(p=0.0, inplace=False)
    )
    (1-19): 19 x Sequential(
      (0): Linear(in_features=3, out_features=3, bias=True)
      -Adam-0.1-0"
64,0.6969,0.6954,0.49370490875654266,0.3305,"MLP20-LeakyReLU(negative_slope=0.01)
      (2): Dropout(p=0.0, inplace=False)
    )
    (1-19): 19 x Sequential(
      (0): Linear(in_features=3, out_features=3, bias=True)
      -Adam-0.1-0"
65,0.6957,0.695,0.49370490875654266,0.3305,"MLP20-LeakyReLU(negative_slope=0.01)
      (2): Dropout(p=0.0, inplace=False)
    )
    (1-19): 19 x Sequential(
      (0): Linear(in_features=3, out_features=3, bias=True)
      -Adam-0.1-0"
66,0.694,0.6932,0.5062950912434574,0.3361,"MLP20-LeakyReLU(negative_slope=0.01)
      (2): Dropout(p=0.0, inplace=False)
    )
    (1-19): 19 x Sequential(
      (0): Linear(in_features=3, out_features=3, bias=True)
      -Adam-0.1-0"
67,0.6962,0.6946,0.49370490875654266,0.3305,"MLP20-LeakyReLU(negative_slope=0.01)
      (2): Dropout(p=0.0, inplace=False)
    )
    (1-19): 19 x Sequential(
      (0): Linear(in_features=3, out_features=3, bias=True)
      -Adam-0.1-0"
68,0.6966,0.6932,0.5062950912434574,0.3361,"MLP20-LeakyReLU(negative_slope=0.01)
      (2): Dropout(p=0.0, inplace=False)
    )
    (1-19): 19 x Sequential(
      (0): Linear(in_features=3, out_features=3, bias=True)
      -Adam-0.1-0"
69,0.6965,0.6944,0.49370490875654266,0.3305,"MLP20-LeakyReLU(negative_slope=0.01)
      (2): Dropout(p=0.0, inplace=False)
    )
    (1-19): 19 x Sequential(
      (0): Linear(in_features=3, out_features=3, bias=True)
      -Adam-0.1-0"
70,0.6958,0.6931,0.5062950912434574,0.3361,"MLP20-LeakyReLU(negative_slope=0.01)
      (2): Dropout(p=0.0, inplace=False)
    )
    (1-19): 19 x Sequential(
      (0): Linear(in_features=3, out_features=3, bias=True)
      -Adam-0.1-0"
71,0.6949,0.6941,0.5062950912434574,0.3361,"MLP20-LeakyReLU(negative_slope=0.01)
      (2): Dropout(p=0.0, inplace=False)
    )
    (1-19): 19 x Sequential(
      (0): Linear(in_features=3, out_features=3, bias=True)
      -Adam-0.1-0"
72,0.6947,0.6951,0.5062950912434574,0.3361,"MLP20-LeakyReLU(negative_slope=0.01)
      (2): Dropout(p=0.0, inplace=False)
    )
    (1-19): 19 x Sequential(
      (0): Linear(in_features=3, out_features=3, bias=True)
      -Adam-0.1-0"
73,0.6975,0.6942,0.49370490875654266,0.3305,"MLP20-LeakyReLU(negative_slope=0.01)
      (2): Dropout(p=0.0, inplace=False)
    )
    (1-19): 19 x Sequential(
      (0): Linear(in_features=3, out_features=3, bias=True)
      -Adam-0.1-0"
74,0.6972,0.6932,0.49370490875654266,0.3305,"MLP20-LeakyReLU(negative_slope=0.01)
      (2): Dropout(p=0.0, inplace=False)
    )
    (1-19): 19 x Sequential(
      (0): Linear(in_features=3, out_features=3, bias=True)
      -Adam-0.1-0"
75,0.6955,0.6946,0.49370490875654266,0.3305,"MLP20-LeakyReLU(negative_slope=0.01)
      (2): Dropout(p=0.0, inplace=False)
    )
    (1-19): 19 x Sequential(
      (0): Linear(in_features=3, out_features=3, bias=True)
      -Adam-0.1-0"
76,0.6947,0.6941,0.49370490875654266,0.3305,"MLP20-LeakyReLU(negative_slope=0.01)
      (2): Dropout(p=0.0, inplace=False)
    )
    (1-19): 19 x Sequential(
      (0): Linear(in_features=3, out_features=3, bias=True)
      -Adam-0.1-0"
77,0.6948,0.6983,0.49370490875654266,0.3305,"MLP20-LeakyReLU(negative_slope=0.01)
      (2): Dropout(p=0.0, inplace=False)
    )
    (1-19): 19 x Sequential(
      (0): Linear(in_features=3, out_features=3, bias=True)
      -Adam-0.1-0"
78,0.6978,0.7014,0.5062950912434574,0.3361,"MLP20-LeakyReLU(negative_slope=0.01)
      (2): Dropout(p=0.0, inplace=False)
    )
    (1-19): 19 x Sequential(
      (0): Linear(in_features=3, out_features=3, bias=True)
      -Adam-0.1-0"
79,0.6972,0.6959,0.5062950912434574,0.3361,"MLP20-LeakyReLU(negative_slope=0.01)
      (2): Dropout(p=0.0, inplace=False)
    )
    (1-19): 19 x Sequential(
      (0): Linear(in_features=3, out_features=3, bias=True)
      -Adam-0.1-0"
80,0.695,0.6935,0.5062950912434574,0.3361,"MLP20-LeakyReLU(negative_slope=0.01)
      (2): Dropout(p=0.0, inplace=False)
    )
    (1-19): 19 x Sequential(
      (0): Linear(in_features=3, out_features=3, bias=True)
      -Adam-0.1-0"
81,0.6955,0.7052,0.49370490875654266,0.3305,"MLP20-LeakyReLU(negative_slope=0.01)
      (2): Dropout(p=0.0, inplace=False)
    )
    (1-19): 19 x Sequential(
      (0): Linear(in_features=3, out_features=3, bias=True)
      -Adam-0.1-0"
82,0.6974,0.701,0.49370490875654266,0.3305,"MLP20-LeakyReLU(negative_slope=0.01)
      (2): Dropout(p=0.0, inplace=False)
    )
    (1-19): 19 x Sequential(
      (0): Linear(in_features=3, out_features=3, bias=True)
      -Adam-0.1-0"
83,0.6948,0.6979,0.49370490875654266,0.3305,"MLP20-LeakyReLU(negative_slope=0.01)
      (2): Dropout(p=0.0, inplace=False)
    )
    (1-19): 19 x Sequential(
      (0): Linear(in_features=3, out_features=3, bias=True)
      -Adam-0.1-0"
84,0.695,0.6948,0.5062950912434574,0.3361,"MLP20-LeakyReLU(negative_slope=0.01)
      (2): Dropout(p=0.0, inplace=False)
    )
    (1-19): 19 x Sequential(
      (0): Linear(in_features=3, out_features=3, bias=True)
      -Adam-0.1-0"
85,0.6942,0.6993,0.5062950912434574,0.3361,"MLP20-LeakyReLU(negative_slope=0.01)
      (2): Dropout(p=0.0, inplace=False)
    )
    (1-19): 19 x Sequential(
      (0): Linear(in_features=3, out_features=3, bias=True)
      -Adam-0.1-0"
86,0.6985,0.6942,0.5062950912434574,0.3361,"MLP20-LeakyReLU(negative_slope=0.01)
      (2): Dropout(p=0.0, inplace=False)
    )
    (1-19): 19 x Sequential(
      (0): Linear(in_features=3, out_features=3, bias=True)
      -Adam-0.1-0"
87,0.6945,0.6931,0.5062950912434574,0.3361,"MLP20-LeakyReLU(negative_slope=0.01)
      (2): Dropout(p=0.0, inplace=False)
    )
    (1-19): 19 x Sequential(
      (0): Linear(in_features=3, out_features=3, bias=True)
      -Adam-0.1-0"
88,0.6943,0.6931,0.5062950912434574,0.3361,"MLP20-LeakyReLU(negative_slope=0.01)
      (2): Dropout(p=0.0, inplace=False)
    )
    (1-19): 19 x Sequential(
      (0): Linear(in_features=3, out_features=3, bias=True)
      -Adam-0.1-0"
89,0.6961,0.6966,0.49370490875654266,0.3305,"MLP20-LeakyReLU(negative_slope=0.01)
      (2): Dropout(p=0.0, inplace=False)
    )
    (1-19): 19 x Sequential(
      (0): Linear(in_features=3, out_features=3, bias=True)
      -Adam-0.1-0"
90,0.6958,0.6931,0.5062950912434574,0.3361,"MLP20-LeakyReLU(negative_slope=0.01)
      (2): Dropout(p=0.0, inplace=False)
    )
    (1-19): 19 x Sequential(
      (0): Linear(in_features=3, out_features=3, bias=True)
      -Adam-0.1-0"
91,0.6981,0.6952,0.5062950912434574,0.3361,"MLP20-LeakyReLU(negative_slope=0.01)
      (2): Dropout(p=0.0, inplace=False)
    )
    (1-19): 19 x Sequential(
      (0): Linear(in_features=3, out_features=3, bias=True)
      -Adam-0.1-0"
92,0.6972,0.6945,0.5062950912434574,0.3361,"MLP20-LeakyReLU(negative_slope=0.01)
      (2): Dropout(p=0.0, inplace=False)
    )
    (1-19): 19 x Sequential(
      (0): Linear(in_features=3, out_features=3, bias=True)
      -Adam-0.1-0"
93,0.6956,0.6941,0.49370490875654266,0.3305,"MLP20-LeakyReLU(negative_slope=0.01)
      (2): Dropout(p=0.0, inplace=False)
    )
    (1-19): 19 x Sequential(
      (0): Linear(in_features=3, out_features=3, bias=True)
      -Adam-0.1-0"
94,0.6958,0.6945,0.5062950912434574,0.3361,"MLP20-LeakyReLU(negative_slope=0.01)
      (2): Dropout(p=0.0, inplace=False)
    )
    (1-19): 19 x Sequential(
      (0): Linear(in_features=3, out_features=3, bias=True)
      -Adam-0.1-0"
95,0.696,0.6951,0.49370490875654266,0.3305,"MLP20-LeakyReLU(negative_slope=0.01)
      (2): Dropout(p=0.0, inplace=False)
    )
    (1-19): 19 x Sequential(
      (0): Linear(in_features=3, out_features=3, bias=True)
      -Adam-0.1-0"
96,0.6945,0.6958,0.49370490875654266,0.3305,"MLP20-LeakyReLU(negative_slope=0.01)
      (2): Dropout(p=0.0, inplace=False)
    )
    (1-19): 19 x Sequential(
      (0): Linear(in_features=3, out_features=3, bias=True)
      -Adam-0.1-0"
97,0.6957,0.6988,0.49370490875654266,0.3305,"MLP20-LeakyReLU(negative_slope=0.01)
      (2): Dropout(p=0.0, inplace=False)
    )
    (1-19): 19 x Sequential(
      (0): Linear(in_features=3, out_features=3, bias=True)
      -Adam-0.1-0"
98,0.6974,0.7158,0.5062950912434574,0.3361,"MLP20-LeakyReLU(negative_slope=0.01)
      (2): Dropout(p=0.0, inplace=False)
    )
    (1-19): 19 x Sequential(
      (0): Linear(in_features=3, out_features=3, bias=True)
      -Adam-0.1-0"
99,0.6952,0.694,0.49370490875654266,0.3305,"MLP20-LeakyReLU(negative_slope=0.01)
      (2): Dropout(p=0.0, inplace=False)
    )
    (1-19): 19 x Sequential(
      (0): Linear(in_features=3, out_features=3, bias=True)
      -Adam-0.1-0"
100,0.6959,0.6949,0.5062950912434574,0.3361,"MLP20-LeakyReLU(negative_slope=0.01)
      (2): Dropout(p=0.0, inplace=False)
    )
    (1-19): 19 x Sequential(
      (0): Linear(in_features=3, out_features=3, bias=True)
      -Adam-0.1-0"
